models/basisdevae_gt.pt (torch, 60891 bytes, 23 tensors)

encoder.linear1.weight f4 [64, 50]
000000 0f 8a 9e bd 98 3b 88 be a6 40 ab 3d aa 04 96 bc
       -0.07741176 -0.26607966 0.0836194 -0.01831277
000010 77 53 e6 be 75 84 0f bf 6e 4d cd 3d a6 75 c2 be
       -0.44985554 -0.5606149 0.10024534 -0.37980384
000020 3c 61 a9 be 3d 86 c3 be 55 e7 b9 be cc 38 73 be
       -0.33081996 -0.38188353 -0.36309305 -0.23752135
000030 9f 0c 16 bf 3c f1 85 bc e4 31 05 bd 17 bf 01 3c
       -0.5861301 -0.016350381 -0.032518283 0.0079190945
000040 48 f5 e7 3b e6 6c de bd cd 38 2d be 13 e9 9d be
       0.0070788004 -0.108606145 -0.16916199 -0.30841884
000050 11 bb 6e bc 17 4d dd be 3f 1e 01 bf fa 6e 0f bf
       -0.014570967 -0.43222877 -0.50436777 -0.5602871
000060 50 6c cc be b6 3c 53 3a 11 b3 8e be d9 bf 8c be
       -0.39926386 0.0008058058 -0.27870992 -0.27490118
000070 0c 41 a7 be c8 e8 32 3d 48 3f 7f be 7d 6a a3 bd
       -0.32666814 0.04367903 -0.24926484 -0.079792954
000080 d6 eb d0 bd f6 85 1c be fb 83 ac bd 72 99 98 be
       -0.10201232 -0.15285477 -0.08423611 -0.2980457
000090 e7 69 d8 bd 7d 60 35 be 44 6f 08 be 98 d5 90 bd
       -0.10567074 -0.17712589 -0.13323694 -0.0707199
0000a0 82 53 98 3e 2d f7 ae 3e 29 78 ad 3d ed 26 8c 3e
       0.2975121 0.34172955 0.08470184 0.27373448
0000b0 b3 64 b9 3e a7 71 3c 3e e1 c9 9d 3e d5 3d c4 3d
       0.3620964 0.1840273 0.30818084 0.09582106
0000c0 a8 e0 92 3e f5 8c af 3e 44 7f 9e bd 28 6c 90 bd
       0.28687024 0.3428723 -0.07739118 -0.07051879
0000d0 55 64 88 bd d4 e5 f7 bd 9c e8 6f bc 0d a8 da bd
       -0.06659762 -0.12104383 -0.014642861 -0.106765844
0000e0 d8 fd 08 be f0 ab d2 bd 6e ab 06 be d1 88 ce 3d
       -0.13378084 -0.10286701 -0.13151333 0.100846894
0000f0 4b a1 c2 bb 48 79 d5 bc 1f 14 9f 3c 6b 8e 0a 3e
       -0.005939638 -0.026058808 0.019418774 0.1353089
000100 f0 d1 3d bd 2c 0e 76 bd e6 a1 e6 bc c3 b7 09 be
       -0.04634279 -0.06007211 -0.028153371 -0.13449006
000110 dd 6c bd 3d bb 0f 30 bd d5 24 76 bc d9 15 e4 bd
       0.0924928 -0.04298375 -0.01502343 -0.111369796
000120 6c 4c 05 3e d0 00 97 3d f4 b3 0f 3e d0 2f 13 3d
       0.13017434 0.07373202 0.1403349 0.03593427
000130 17 5c 2f 3d 71 6f 96 3b 7c 44 a1 bd 76 81 99 bc
       0.042812433 0.0045909216 -0.078743905 -0.01873849
000140 39 d1 a6 bc b6 fd d6 3d dd ce 6e bd 56 1f a9 3d
       -0.020363437 0.1049761 -0.05830275 0.0825793
000150 e7 13 1a bc f4 50 b1 bd c0 24 da 3d 37 be 92 3d
       -0.009404159 -0.08658019 0.10651541 0.07165187
000160 35 81 fa 3d b6 c1 b9 3c 02 7a f4 bd 9a a8 ae 3d
       0.122316755 0.022675376 -0.11937334 0.08528252
000170 1d 94 b6 bc fc 91 80 bc 38 4c 76 3d a9 2c 7c bc
       -0.022287423 -0.01569461 0.06013128 -0.015391507
000180 63 5d b1 3d 5f d4 0a bd 52 44 a8 3d fe c0 d3 3d
       0.0866039 -0.03389394 0.08216156 0.10339545
000190 a0 c4 c0 bd 3f 6b 8b 3c a7 80 81 3c db 12 d5 3c
       -0.09412503 0.017018912 0.015808417 0.026009968
0001a0 20 5b e6 bc 04 9f 6e bd 06 70 d9 3d 02 dc 9c 3d
       -0.028119624 -0.058257118 0.1061707 0.07659151
0001b0 72 9e c5 3d ad b5 13 be e7 89 9b 3d 6f a7 5f bd
       0.09649362 -0.14424773 0.07594662 -0.054603036
0001c0 1c 5c bb 3c a0 15 1a be e0 56 68 bc 45 58 3f 3d
       0.02287107 -0.15047312 -0.014180869 0.04671504
0001d0 0e f2 e8 bc 9e a4 24 be 43 7f 98 bd 85 db 62 3c
       -0.028435733 -0.16078421 -0.07446148 0.013846283
0001e0 09 bf e1 bd a2 0e ff 3c b9 05 12 be ce eb 05 be
       -0.11022765 0.031134907 -0.14259996 -0.13078234
0001f0 22 4a 0c 3d bb 61 18 be 74 46 82 bc 1e 97 26 3c
       0.034250386 -0.14881031 -0.015902735 0.010167865
000200 50 68 8b 3d dc 4c 01 3c 58 f9 f5 3c 98 62 1c be
       0.068070054 0.00789186 0.030026123 -0.15271986
000210 cc 6a 09 be 78 90 95 3d 62 96 da 3d 36 f4 04 be
       -0.13419646 0.07302946 0.106732145 -0.12983784
000220 0d 73 39 bd 08 6c 01 3d b8 db 0e be 2c a3 09 3d
       -0.045275737 0.031597167 -0.13951004 0.03360288
000230 be f1 a2 bb 7c 29 2f 3e 85 21 97 bd 4d b8 7a bd
       -0.0049726656 0.17105669 -0.0737944 -0.06121092
000240 cb 6d e5 bc 5a 03 d0 bd 31 fc 08 3e 29 cd 08 3e
       -0.028006455 -0.10156889 0.13377453 0.13359512
000250 1b b6 e5 3d 7e 1b f9 3d 90 22 aa bd 9b eb 06 be
       0.112163745 0.12163447 -0.083073735 -0.13175814
000260 5c 49 c2 3d fd f2 40 be d1 db e2 be 8d f7 a8 be
       0.094866484 -0.18842693 -0.44308332 -0.33001366
000270 ee fa 14 be f3 0a 59 be 31 f2 c5 be f7 3e c4 be
       -0.14548847 -0.21195583 -0.3866134 -0.38329288
000280 70 30 80 bd af 9c 13 be 02 ae be be 45 07 47 3c
       -0.06259239 -0.14415239 -0.37242132 0.012147729
000290 84 29 07 be 9c 5e d1 3c 93 48 5d bd 4a a1 62 bd
       -0.1319943 0.025557809 -0.05402429 -0.0553296
0002a0 12 7e 8e bd 03 a6 5f be 23 a6 96 3d b6 ba 8f be
       -0.0695764 -0.21840672 0.07355907 -0.28072137
0002b0 a4 97 b5 be 24 13 5b be 13 49 dd be 92 b3 04 be
       -0.35467255 -0.2139402 -0.43219814 -0.12959126
0002c0 6f b1 85 be 9e 54 4a be 68 b8 41 be 81 0a f8 bd
       -0.26111934 -0.19758841 -0.18918002 -0.121113785
0002d0 df 55 6e be 4a a7 88 be 1e d2 52 be 03 18 74 bd
       -0.23274945 -0.2669013 -0.20587966 -0.05959321
0002e0 67 de 7b bd 62 c5 3f be a3 4e 5c be 6e ea 72 be
       -0.061491396 -0.1872764 -0.21514373 -0.2372224
0002f0 32 37 e6 bd a8 8a 5d bd 91 46 90 3e 82 fb 04 3e
       -0.112409964 -0.05408731 0.28178838 0.12986568
000300 74 34 08 3e 91 69 7b 3e 86 3b 0d 3e 4b f4 02 3e
       0.1330126 0.24551989 0.13792238 0.12788503
000310 6d 31 08 3e 33 ae 8f 3e 47 18 78 3e a1 a7 53 3e
       0.13300104 0.2806259 0.24228011 0.20669414
000320 3f 9b c3 bc 60 b9 5a bd 65 b0 ef bd 54 09 24 3d
       -0.023877738 -0.053399444 -0.117035665 0.04004796
000330 26 c1 71 3d 48 8d 24 bd d1 4b 86 bd 55 70 27 3d
       0.05902209 -0.0401738 -0.065574296 0.040878613
000340 d5 17 8a bd ef 2f 87 bd 6a 2e a7 3d cb 3e b4 3d
       -0.06742827 -0.066009395 0.0816315 0.08801039
000350 ce d0 d2 bb 0f 53 e5 bc ed c7 44 bd 1a 9e d9 bd
       -0.006433583 -0.027993707 -0.048042227 -0.106258586
000360 35 0a 32 be 3b 89 cb bd 21 f8 a6 3c a5 37 c8 3b
       -0.17386706 -0.09938284 0.020381989 0.006110149
000370 90 12 d2 3d 95 6e c8 3d 2e 65 d9 bc 73 68 b5 bd
       0.10257447 0.09786717 -0.026537504 -0.08857813
000380 dd ca 8e 3d 12 6a f3 bd 92 b8 c6 bd 47 18 fd bd
       0.06972287 -0.11885466 -0.09703173 -0.12358146
000390 9e e0 68 bd 32 e7 8c bb d6 88 0a be 86 61 cd bd
       -0.056854837 -0.0043000216 -0.13528761 -0.10028367
0003a0 9d 8f 80 bc 65 0f d2 bd 0e 08 89 bc 6e 95 65 3d
       -0.01569348 -0.102568425 -0.016727474 0.05605071
0003b0 8a ed 7f bd 3d aa cc 3d cb 13 20 bd 95 0c b4 3d
       -0.062482394 0.09993408 -0.039081376 0.08791462
0003c0 7c 36 b9 bd 4b ba 2f 3b 0d bd 18 bd 54 b3 2e 3e
       -0.09043595 0.002681392 -0.037289668 0.17060596
0003d0 4f 7a 78 bd 0c c0 4d bd a6 9e af 3d db 2f 63 bd
       -0.060663518 -0.05023198 0.08575182 -0.05546556
0003e0 43 ac a5 3d ab 99 83 3d 96 00 80 bc e3 74 86 bc
       0.08089497 0.06425794 -0.01562528 -0.016413158
0003f0 e5 3e 19 3d a0 1a 30 bd 88 9d 89 bd f9 d8 b8 3d
       0.037413497 -0.04299414 -0.067195 0.09025759

encoder.linear1.bias f4 [64]
000000 4c 50 89 3f 60 a8 93 3b cc 8e cd bc 2a b9 d8 3e
       1.072763 0.004506156 -0.025092505 0.4232877
000010 60 b0 e3 3d c4 2d ea 3b fc 59 eb bd e4 3a ff bd
       0.11117625 0.007146569 -0.114917725 -0.12462404
000020 01 0b 1b 3d 0c 01 b5 3e 44 77 7d bd 44 5a 9e bd
       0.03785229 0.3535236 -0.06188132 -0.077320606
000030 e2 a6 75 3f 09 6e 4d bd 00 e1 bf bd 36 b6 b6 bd
       0.9595777 -0.050153766 -0.09369087 -0.08921473
000040 f3 29 bb 3d c4 70 8d bd 99 6e 10 be 56 79 1f be
       0.091388606 -0.06906274 -0.1410469 -0.1557363
000050 52 ef 05 be 42 0c 0c 3f f8 24 3b 3d b6 7a b8 3d
       -0.13079575 0.54706204 0.045689553 0.0900778
000060 d6 ed 02 3b 2d 32 5b 3d f2 f5 18 be 7d 0a 0a 3e
       0.0019978187 0.05351465 -0.1493757 0.13480563
000070 44 08 f8 bd 28 ca 28 3f 27 c2 8f bd 78 0b a9 bb
       -0.121109515 0.65933466 -0.070194535 -0.005158838
000080 56 36 5c 3d 32 47 5d 3f 51 39 c8 bd 5f 5c 00 be
       0.053762756 0.8643676 -0.09776557 -0.12535237
000090 22 36 66 3d a5 bd 8c 3f a3 00 a8 3e 00 30 c4 bd
       0.05620397 1.0995375 0.32812986 -0.09579468
0000a0 8f 0a 96 3d 2f 61 6c bb c2 7b b0 3d ef 6c 92 3d
       0.07326233 -0.0036068668 0.08617355 0.07149684
0000b0 d4 41 91 bd 92 79 65 3d 24 94 61 bc 81 6a 08 be
       -0.07092634 0.05602414 -0.01376823 -0.13321878
0000c0 2a c2 3a 3f 8f 9c 3c bd 04 81 04 be e4 63 26 3f
       0.7295252 -0.046047743 -0.1293984 0.6499617
0000d0 a6 30 db bd 10 9a 35 bd 63 7a 66 3e 67 9d a3 bc
       -0.10702638 -0.04433638 0.22507624 -0.019972516
0000e0 44 2b 2b 3f 2c b3 fd bc a9 90 b2 3e d1 85 f9 bd
       0.66862893 -0.030969225 0.34875992 -0.121837266
0000f0 3d c9 83 3e a6 27 1b 3c 31 93 cc 3e 6d a4 0a 3c
       0.2573947 0.009469902 0.39956048 0.008462054

encoder.linear2.weight f4 [2, 64]
000000 7d d5 e5 3e e4 ce 8a bd 68 3f b2 3d d2 5e 46 3e
       0.4488944 -0.067777425 0.087035 0.19372109
000010 e3 a4 39 3c 81 c7 9f bb d2 c8 e1 3d 08 0c 66 bc
       0.011330816 -0.0048760776 0.110246316 -0.014040954
000020 ca a4 94 bd cf 51 89 3d f0 eb f8 bc 78 39 c9 bc
       -0.072579935 0.06705057 -0.030385941 -0.024563536
000030 11 64 d9 3e 60 eb 62 bb 02 25 f5 bc 68 b8 f8 bd
       0.42459157 -0.0034625158 -0.029924873 -0.12144548
000040 e2 69 72 3d 88 21 bf bd 04 a0 7d 3d 7d 42 ec bd
       0.05918301 -0.093325675 0.06192018 -0.11536119
000050 d2 16 f7 3d b9 a8 41 3d 44 09 b9 3d 8e b2 08 be
       0.120648995 0.047280047 0.090349704 -0.13349363
000060 bc 78 a2 3d 22 7e 66 bd 5e a1 50 3d 07 4b 38 3d
       0.079331845 -0.056272633 0.05093514 0.044993427
000070 64 00 09 bd 15 77 3c 3e 80 62 c7 3d 6f 3a b2 bd
       -0.03344764 0.18404801 0.09735584 -0.087025516
000080 9a 70 7c 3b 11 47 b0 3e 11 c6 79 bd e2 8e 00 bb
       0.0038519264 0.3442922 -0.060979906 -0.0019616415
000090 c6 6e 07 bd fe 33 d1 3e 3a 72 0e 3d c9 aa 45 bc
       -0.033064626 0.4085998 0.034776904 -0.012064644
0000a0 4d 42 0f bd e8 53 cc bd b2 b0 e8 3d 0a ed 75 3c
       -0.03497534 -0.09976941 0.11361827 0.015010128
0000b0 e4 37 33 3d cf fa 2d 3c 98 e6 58 bd 8a ac d6 bd
       0.043754473 0.010618879 -0.052954286 -0.10482128
0000c0 3d 5f 0d 3f 74 b3 6f bd 9c b2 a7 bd 6d 68 39 3e
       0.5522345 -0.05852075 -0.08188364 0.18106242
0000d0 43 17 9e 3a 4e dc e8 bd bc c1 c2 3c 04 d4 be 3d
       0.0012061376 -0.11370145 0.02377402 0.093177825
0000e0 d0 48 7d 3e 20 e7 78 ba 7f da 62 3d 62 3b 75 3d
       0.24734807 -0.00094948895 0.055384155 0.059871085
0000f0 6f 15 8d b9 09 d1 a1 3d 68 e4 6b 3d 18 a5 12 3d
       -0.00026909585 0.079011984 0.057590872 0.035801977
000100 28 0c ed be 1c f6 4f 3d 1a ad e7 bb fc 7c 06 be
       -0.46298337 0.050771818 -0.007070196 -0.13133615
000110 cc b4 60 be f7 ba 57 bb 16 2c 6e 3d 02 23 60 bd
       -0.21943969 -0.0032917836 0.058147512 -0.054720886
000120 d5 d5 16 3d 71 ca cb bf 05 4f 16 3d f6 9c c1 3d
       0.03682502 -1.5921155 0.036696453 0.09453766
000130 03 ba af bf e5 1d 46 bf 01 f3 c9 3c 8b 9d ef be
       -1.3728641 -0.77389365 0.024652006 -0.46799883
000140 a1 5e 40 3d 80 9c 6e 3c 6e ed e5 3d ad d2 e6 3c
       0.046965245 0.01456368 0.11226927 0.02817663
000150 64 14 d2 bd d2 79 6a 3d 7e 72 59 3c 4d 4f 92 3e
       -0.102577955 0.057245083 0.013271926 0.28576127
000160 16 97 b8 3d 96 52 43 bd 7d 6c 63 3c e5 b8 ab be
       0.09013192 -0.047686182 0.013880846 -0.335395
000170 42 4c cf 3d 2d 41 66 bd b0 78 a1 bd fe 18 d4 3c
       0.10121967 -0.0562145 -0.078843474 0.025890823
000180 24 6c 15 be 4c 27 79 be a0 2f 87 bc c4 39 0c 3d
       -0.14592034 -0.24331397 -0.016502202 0.034234777
000190 97 7e 97 3d 4a 22 01 be 14 aa e9 bd 9f 98 29 bd
       0.07397192 -0.12610736 -0.11409393 -0.041405316
0001a0 1b ae d2 3a dc 12 cc be 10 32 9f 3c e2 c5 17 be
       0.0016073616 -0.3985814 0.019433051 -0.1482158
0001b0 ba 36 9e 3d 0d f6 a8 be 80 ac c0 bc a0 9a 9c bb
       0.07725282 -0.33000222 -0.023519754 -0.004779175
0001c0 cf de ed bc 4c 11 5d 3d 87 12 5b bf 2f a3 6b bf
       -0.029036907 0.053971574 -0.85575145 -0.92045873
0001d0 0b 52 a2 bc a0 02 7a bd 29 a7 06 be d0 87 38 bc
       -0.019814512 -0.06103766 -0.13149704 -0.011262849
0001e0 03 86 1d 3f d2 92 fc bd b2 d7 ab be f2 38 ac 3d
       0.6153261 -0.12332691 -0.33563 0.08409299
0001f0 e6 93 23 c0 f5 75 a5 3a af ee bc be 71 06 21 3d
       -2.555902 0.0012623655 -0.3690085 0.039312784

encoder.linear2.bias f4 [2]
000000 6f e7 a3 3e 8b 93 1e bf
       0.32012507 -0.6194388

encoder.network.0.weight f4 [64, 50]
000000 0f 8a 9e bd 98 3b 88 be a6 40 ab 3d aa 04 96 bc
       -0.07741176 -0.26607966 0.0836194 -0.01831277
000010 77 53 e6 be 75 84 0f bf 6e 4d cd 3d a6 75 c2 be
       -0.44985554 -0.5606149 0.10024534 -0.37980384
000020 3c 61 a9 be 3d 86 c3 be 55 e7 b9 be cc 38 73 be
       -0.33081996 -0.38188353 -0.36309305 -0.23752135
000030 9f 0c 16 bf 3c f1 85 bc e4 31 05 bd 17 bf 01 3c
       -0.5861301 -0.016350381 -0.032518283 0.0079190945
000040 48 f5 e7 3b e6 6c de bd cd 38 2d be 13 e9 9d be
       0.0070788004 -0.108606145 -0.16916199 -0.30841884
000050 11 bb 6e bc 17 4d dd be 3f 1e 01 bf fa 6e 0f bf
       -0.014570967 -0.43222877 -0.50436777 -0.5602871
000060 50 6c cc be b6 3c 53 3a 11 b3 8e be d9 bf 8c be
       -0.39926386 0.0008058058 -0.27870992 -0.27490118
000070 0c 41 a7 be c8 e8 32 3d 48 3f 7f be 7d 6a a3 bd
       -0.32666814 0.04367903 -0.24926484 -0.079792954
000080 d6 eb d0 bd f6 85 1c be fb 83 ac bd 72 99 98 be
       -0.10201232 -0.15285477 -0.08423611 -0.2980457
000090 e7 69 d8 bd 7d 60 35 be 44 6f 08 be 98 d5 90 bd
       -0.10567074 -0.17712589 -0.13323694 -0.0707199
0000a0 82 53 98 3e 2d f7 ae 3e 29 78 ad 3d ed 26 8c 3e
       0.2975121 0.34172955 0.08470184 0.27373448
0000b0 b3 64 b9 3e a7 71 3c 3e e1 c9 9d 3e d5 3d c4 3d
       0.3620964 0.1840273 0.30818084 0.09582106
0000c0 a8 e0 92 3e f5 8c af 3e 44 7f 9e bd 28 6c 90 bd
       0.28687024 0.3428723 -0.07739118 -0.07051879
0000d0 55 64 88 bd d4 e5 f7 bd 9c e8 6f bc 0d a8 da bd
       -0.06659762 -0.12104383 -0.014642861 -0.106765844
0000e0 d8 fd 08 be f0 ab d2 bd 6e ab 06 be d1 88 ce 3d
       -0.13378084 -0.10286701 -0.13151333 0.100846894
0000f0 4b a1 c2 bb 48 79 d5 bc 1f 14 9f 3c 6b 8e 0a 3e
       -0.005939638 -0.026058808 0.019418774 0.1353089
000100 f0 d1 3d bd 2c 0e 76 bd e6 a1 e6 bc c3 b7 09 be
       -0.04634279 -0.06007211 -0.028153371 -0.13449006
000110 dd 6c bd 3d bb 0f 30 bd d5 24 76 bc d9 15 e4 bd
       0.0924928 -0.04298375 -0.01502343 -0.111369796
000120 6c 4c 05 3e d0 00 97 3d f4 b3 0f 3e d0 2f 13 3d
       0.13017434 0.07373202 0.1403349 0.03593427
000130 17 5c 2f 3d 71 6f 96 3b 7c 44 a1 bd 76 81 99 bc
       0.042812433 0.0045909216 -0.078743905 -0.01873849
000140 39 d1 a6 bc b6 fd d6 3d dd ce 6e bd 56 1f a9 3d
       -0.020363437 0.1049761 -0.05830275 0.0825793
000150 e7 13 1a bc f4 50 b1 bd c0 24 da 3d 37 be 92 3d
       -0.009404159 -0.08658019 0.10651541 0.07165187
000160 35 81 fa 3d b6 c1 b9 3c 02 7a f4 bd 9a a8 ae 3d
       0.122316755 0.022675376 -0.11937334 0.08528252
000170 1d 94 b6 bc fc 91 80 bc 38 4c 76 3d a9 2c 7c bc
       -0.022287423 -0.01569461 0.06013128 -0.015391507
000180 63 5d b1 3d 5f d4 0a bd 52 44 a8 3d fe c0 d3 3d
       0.0866039 -0.03389394 0.08216156 0.10339545
000190 a0 c4 c0 bd 3f 6b 8b 3c a7 80 81 3c db 12 d5 3c
       -0.09412503 0.017018912 0.015808417 0.026009968
0001a0 20 5b e6 bc 04 9f 6e bd 06 70 d9 3d 02 dc 9c 3d
       -0.028119624 -0.058257118 0.1061707 0.07659151
0001b0 72 9e c5 3d ad b5 13 be e7 89 9b 3d 6f a7 5f bd
       0.09649362 -0.14424773 0.07594662 -0.054603036
0001c0 1c 5c bb 3c a0 15 1a be e0 56 68 bc 45 58 3f 3d
       0.02287107 -0.15047312 -0.014180869 0.04671504
0001d0 0e f2 e8 bc 9e a4 24 be 43 7f 98 bd 85 db 62 3c
       -0.028435733 -0.16078421 -0.07446148 0.013846283
0001e0 09 bf e1 bd a2 0e ff 3c b9 05 12 be ce eb 05 be
       -0.11022765 0.031134907 -0.14259996 -0.13078234
0001f0 22 4a 0c 3d bb 61 18 be 74 46 82 bc 1e 97 26 3c
       0.034250386 -0.14881031 -0.015902735 0.010167865
000200 50 68 8b 3d dc 4c 01 3c 58 f9 f5 3c 98 62 1c be
       0.068070054 0.00789186 0.030026123 -0.15271986
000210 cc 6a 09 be 78 90 95 3d 62 96 da 3d 36 f4 04 be
       -0.13419646 0.07302946 0.106732145 -0.12983784
000220 0d 73 39 bd 08 6c 01 3d b8 db 0e be 2c a3 09 3d
       -0.045275737 0.031597167 -0.13951004 0.03360288
000230 be f1 a2 bb 7c 29 2f 3e 85 21 97 bd 4d b8 7a bd
       -0.0049726656 0.17105669 -0.0737944 -0.06121092
000240 cb 6d e5 bc 5a 03 d0 bd 31 fc 08 3e 29 cd 08 3e
       -0.028006455 -0.10156889 0.13377453 0.13359512
000250 1b b6 e5 3d 7e 1b f9 3d 90 22 aa bd 9b eb 06 be
       0.112163745 0.12163447 -0.083073735 -0.13175814
000260 5c 49 c2 3d fd f2 40 be d1 db e2 be 8d f7 a8 be
       0.094866484 -0.18842693 -0.44308332 -0.33001366
000270 ee fa 14 be f3 0a 59 be 31 f2 c5 be f7 3e c4 be
       -0.14548847 -0.21195583 -0.3866134 -0.38329288
000280 70 30 80 bd af 9c 13 be 02 ae be be 45 07 47 3c
       -0.06259239 -0.14415239 -0.37242132 0.012147729
000290 84 29 07 be 9c 5e d1 3c 93 48 5d bd 4a a1 62 bd
       -0.1319943 0.025557809 -0.05402429 -0.0553296
0002a0 12 7e 8e bd 03 a6 5f be 23 a6 96 3d b6 ba 8f be
       -0.0695764 -0.21840672 0.07355907 -0.28072137
0002b0 a4 97 b5 be 24 13 5b be 13 49 dd be 92 b3 04 be
       -0.35467255 -0.2139402 -0.43219814 -0.12959126
0002c0 6f b1 85 be 9e 54 4a be 68 b8 41 be 81 0a f8 bd
       -0.26111934 -0.19758841 -0.18918002 -0.121113785
0002d0 df 55 6e be 4a a7 88 be 1e d2 52 be 03 18 74 bd
       -0.23274945 -0.2669013 -0.20587966 -0.05959321
0002e0 67 de 7b bd 62 c5 3f be a3 4e 5c be 6e ea 72 be
       -0.061491396 -0.1872764 -0.21514373 -0.2372224
0002f0 32 37 e6 bd a8 8a 5d bd 91 46 90 3e 82 fb 04 3e
       -0.112409964 -0.05408731 0.28178838 0.12986568
000300 74 34 08 3e 91 69 7b 3e 86 3b 0d 3e 4b f4 02 3e
       0.1330126 0.24551989 0.13792238 0.12788503
000310 6d 31 08 3e 33 ae 8f 3e 47 18 78 3e a1 a7 53 3e
       0.13300104 0.2806259 0.24228011 0.20669414
000320 3f 9b c3 bc 60 b9 5a bd 65 b0 ef bd 54 09 24 3d
       -0.023877738 -0.053399444 -0.117035665 0.04004796
000330 26 c1 71 3d 48 8d 24 bd d1 4b 86 bd 55 70 27 3d
       0.05902209 -0.0401738 -0.065574296 0.040878613
000340 d5 17 8a bd ef 2f 87 bd 6a 2e a7 3d cb 3e b4 3d
       -0.06742827 -0.066009395 0.0816315 0.08801039
000350 ce d0 d2 bb 0f 53 e5 bc ed c7 44 bd 1a 9e d9 bd
       -0.006433583 -0.027993707 -0.048042227 -0.106258586
000360 35 0a 32 be 3b 89 cb bd 21 f8 a6 3c a5 37 c8 3b
       -0.17386706 -0.09938284 0.020381989 0.006110149
000370 90 12 d2 3d 95 6e c8 3d 2e 65 d9 bc 73 68 b5 bd
       0.10257447 0.09786717 -0.026537504 -0.08857813
000380 dd ca 8e 3d 12 6a f3 bd 92 b8 c6 bd 47 18 fd bd
       0.06972287 -0.11885466 -0.09703173 -0.12358146
000390 9e e0 68 bd 32 e7 8c bb d6 88 0a be 86 61 cd bd
       -0.056854837 -0.0043000216 -0.13528761 -0.10028367
0003a0 9d 8f 80 bc 65 0f d2 bd 0e 08 89 bc 6e 95 65 3d
       -0.01569348 -0.102568425 -0.016727474 0.05605071
0003b0 8a ed 7f bd 3d aa cc 3d cb 13 20 bd 95 0c b4 3d
       -0.062482394 0.09993408 -0.039081376 0.08791462
0003c0 7c 36 b9 bd 4b ba 2f 3b 0d bd 18 bd 54 b3 2e 3e
       -0.09043595 0.002681392 -0.037289668 0.17060596
0003d0 4f 7a 78 bd 0c c0 4d bd a6 9e af 3d db 2f 63 bd
       -0.060663518 -0.05023198 0.08575182 -0.05546556
0003e0 43 ac a5 3d ab 99 83 3d 96 00 80 bc e3 74 86 bc
       0.08089497 0.06425794 -0.01562528 -0.016413158
0003f0 e5 3e 19 3d a0 1a 30 bd 88 9d 89 bd f9 d8 b8 3d
       0.037413497 -0.04299414 -0.067195 0.09025759

encoder.network.0.bias f4 [64]
000000 4c 50 89 3f 60 a8 93 3b cc 8e cd bc 2a b9 d8 3e
       1.072763 0.004506156 -0.025092505 0.4232877
000010 60 b0 e3 3d c4 2d ea 3b fc 59 eb bd e4 3a ff bd
       0.11117625 0.007146569 -0.114917725 -0.12462404
000020 01 0b 1b 3d 0c 01 b5 3e 44 77 7d bd 44 5a 9e bd
       0.03785229 0.3535236 -0.06188132 -0.077320606
000030 e2 a6 75 3f 09 6e 4d bd 00 e1 bf bd 36 b6 b6 bd
       0.9595777 -0.050153766 -0.09369087 -0.08921473
000040 f3 29 bb 3d c4 70 8d bd 99 6e 10 be 56 79 1f be
       0.091388606 -0.06906274 -0.1410469 -0.1557363
000050 52 ef 05 be 42 0c 0c 3f f8 24 3b 3d b6 7a b8 3d
       -0.13079575 0.54706204 0.045689553 0.0900778
000060 d6 ed 02 3b 2d 32 5b 3d f2 f5 18 be 7d 0a 0a 3e
       0.0019978187 0.05351465 -0.1493757 0.13480563
000070 44 08 f8 bd 28 ca 28 3f 27 c2 8f bd 78 0b a9 bb
       -0.121109515 0.65933466 -0.070194535 -0.005158838
000080 56 36 5c 3d 32 47 5d 3f 51 39 c8 bd 5f 5c 00 be
       0.053762756 0.8643676 -0.09776557 -0.12535237
000090 22 36 66 3d a5 bd 8c 3f a3 00 a8 3e 00 30 c4 bd
       0.05620397 1.0995375 0.32812986 -0.09579468
0000a0 8f 0a 96 3d 2f 61 6c bb c2 7b b0 3d ef 6c 92 3d
       0.07326233 -0.0036068668 0.08617355 0.07149684
0000b0 d4 41 91 bd 92 79 65 3d 24 94 61 bc 81 6a 08 be
       -0.07092634 0.05602414 -0.01376823 -0.13321878
0000c0 2a c2 3a 3f 8f 9c 3c bd 04 81 04 be e4 63 26 3f
       0.7295252 -0.046047743 -0.1293984 0.6499617
0000d0 a6 30 db bd 10 9a 35 bd 63 7a 66 3e 67 9d a3 bc
       -0.10702638 -0.04433638 0.22507624 -0.019972516
0000e0 44 2b 2b 3f 2c b3 fd bc a9 90 b2 3e d1 85 f9 bd
       0.66862893 -0.030969225 0.34875992 -0.121837266
0000f0 3d c9 83 3e a6 27 1b 3c 31 93 cc 3e 6d a4 0a 3c
       0.2573947 0.009469902 0.39956048 0.008462054

encoder.network.2.weight f4 [2, 64]
000000 7d d5 e5 3e e4 ce 8a bd 68 3f b2 3d d2 5e 46 3e
       0.4488944 -0.067777425 0.087035 0.19372109
000010 e3 a4 39 3c 81 c7 9f bb d2 c8 e1 3d 08 0c 66 bc
       0.011330816 -0.0048760776 0.110246316 -0.014040954
000020 ca a4 94 bd cf 51 89 3d f0 eb f8 bc 78 39 c9 bc
       -0.072579935 0.06705057 -0.030385941 -0.024563536
000030 11 64 d9 3e 60 eb 62 bb 02 25 f5 bc 68 b8 f8 bd
       0.42459157 -0.0034625158 -0.029924873 -0.12144548
000040 e2 69 72 3d 88 21 bf bd 04 a0 7d 3d 7d 42 ec bd
       0.05918301 -0.093325675 0.06192018 -0.11536119
000050 d2 16 f7 3d b9 a8 41 3d 44 09 b9 3d 8e b2 08 be
       0.120648995 0.047280047 0.090349704 -0.13349363
000060 bc 78 a2 3d 22 7e 66 bd 5e a1 50 3d 07 4b 38 3d
       0.079331845 -0.056272633 0.05093514 0.044993427
000070 64 00 09 bd 15 77 3c 3e 80 62 c7 3d 6f 3a b2 bd
       -0.03344764 0.18404801 0.09735584 -0.087025516
000080 9a 70 7c 3b 11 47 b0 3e 11 c6 79 bd e2 8e 00 bb
       0.0038519264 0.3442922 -0.060979906 -0.0019616415
000090 c6 6e 07 bd fe 33 d1 3e 3a 72 0e 3d c9 aa 45 bc
       -0.033064626 0.4085998 0.034776904 -0.012064644
0000a0 4d 42 0f bd e8 53 cc bd b2 b0 e8 3d 0a ed 75 3c
       -0.03497534 -0.09976941 0.11361827 0.015010128
0000b0 e4 37 33 3d cf fa 2d 3c 98 e6 58 bd 8a ac d6 bd
       0.043754473 0.010618879 -0.052954286 -0.10482128
0000c0 3d 5f 0d 3f 74 b3 6f bd 9c b2 a7 bd 6d 68 39 3e
       0.5522345 -0.05852075 -0.08188364 0.18106242
0000d0 43 17 9e 3a 4e dc e8 bd bc c1 c2 3c 04 d4 be 3d
       0.0012061376 -0.11370145 0.02377402 0.093177825
0000e0 d0 48 7d 3e 20 e7 78 ba 7f da 62 3d 62 3b 75 3d
       0.24734807 -0.00094948895 0.055384155 0.059871085
0000f0 6f 15 8d b9 09 d1 a1 3d 68 e4 6b 3d 18 a5 12 3d
       -0.00026909585 0.079011984 0.057590872 0.035801977
000100 28 0c ed be 1c f6 4f 3d 1a ad e7 bb fc 7c 06 be
       -0.46298337 0.050771818 -0.007070196 -0.13133615
000110 cc b4 60 be f7 ba 57 bb 16 2c 6e 3d 02 23 60 bd
       -0.21943969 -0.0032917836 0.058147512 -0.054720886
000120 d5 d5 16 3d 71 ca cb bf 05 4f 16 3d f6 9c c1 3d
       0.03682502 -1.5921155 0.036696453 0.09453766
000130 03 ba af bf e5 1d 46 bf 01 f3 c9 3c 8b 9d ef be
       -1.3728641 -0.77389365 0.024652006 -0.46799883
000140 a1 5e 40 3d 80 9c 6e 3c 6e ed e5 3d ad d2 e6 3c
       0.046965245 0.01456368 0.11226927 0.02817663
000150 64 14 d2 bd d2 79 6a 3d 7e 72 59 3c 4d 4f 92 3e
       -0.102577955 0.057245083 0.013271926 0.28576127
000160 16 97 b8 3d 96 52 43 bd 7d 6c 63 3c e5 b8 ab be
       0.09013192 -0.047686182 0.013880846 -0.335395
000170 42 4c cf 3d 2d 41 66 bd b0 78 a1 bd fe 18 d4 3c
       0.10121967 -0.0562145 -0.078843474 0.025890823
000180 24 6c 15 be 4c 27 79 be a0 2f 87 bc c4 39 0c 3d
       -0.14592034 -0.24331397 -0.016502202 0.034234777
000190 97 7e 97 3d 4a 22 01 be 14 aa e9 bd 9f 98 29 bd
       0.07397192 -0.12610736 -0.11409393 -0.041405316
0001a0 1b ae d2 3a dc 12 cc be 10 32 9f 3c e2 c5 17 be
       0.0016073616 -0.3985814 0.019433051 -0.1482158
0001b0 ba 36 9e 3d 0d f6 a8 be 80 ac c0 bc a0 9a 9c bb
       0.07725282 -0.33000222 -0.023519754 -0.004779175
0001c0 cf de ed bc 4c 11 5d 3d 87 12 5b bf 2f a3 6b bf
       -0.029036907 0.053971574 -0.85575145 -0.92045873
0001d0 0b 52 a2 bc a0 02 7a bd 29 a7 06 be d0 87 38 bc
       -0.019814512 -0.06103766 -0.13149704 -0.011262849
0001e0 03 86 1d 3f d2 92 fc bd b2 d7 ab be f2 38 ac 3d
       0.6153261 -0.12332691 -0.33563 0.08409299
0001f0 e6 93 23 c0 f5 75 a5 3a af ee bc be 71 06 21 3d
       -2.555902 0.0012623655 -0.3690085 0.039312784

encoder.network.2.bias f4 [2]
000000 6f e7 a3 3e 8b 93 1e bf
       0.32012507 -0.6194388

decoder.Aj f4 [50, 1]
000000 1d 52 be 3e 74 b0 a2 3f 6e 46 71 3f da cd 86 3f
       0.37172022 1.2710099 0.9424809 1.0531571
000010 81 9f 60 3f db 4e 01 3f 63 0b 6d 3e d4 76 13 bc
       0.87743384 0.5051095 0.23148875 -0.009000499
000020 89 61 94 3f a5 e8 35 bf 3a 9a 95 3d 47 88 8d 3f
       1.1592265 -0.7105811 0.07304807 1.1057214
000030 57 d6 18 3e 00 c2 13 3f 4e 56 36 be 18 da 9b 3f
       0.14925514 0.57717896 -0.1780636 1.2175932
000040 d9 d4 33 3f bc ff af 3f a7 c3 16 bf 50 ff ba bd
       0.70246655 1.3749919 -0.5889229 -0.09130728
000050 cd f7 52 3f 3b ed bf be 6d 16 42 3f 5f e8 a8 3f
       0.82409364 -0.3748568 0.7581547 1.3195914
000060 a0 29 7e 3f 52 fd f2 be 9b 2b 9a 3e 10 28 8d be
       0.99282265 -0.47458893 0.30111393 -0.27569628
000070 65 80 e0 3e 5c 18 24 3f b2 88 2c 3f 68 a1 65 bf
       0.43847957 0.6409967 0.6739608 -0.8969941
000080 73 cc c3 3f e5 ff d6 3f 84 25 78 bd fc 9f 6a 3f
       1.5296768 1.6796843 -0.060582653 0.91650367
000090 ac 2f 57 bf 2e 5c 8a bf 4f aa 8b 3f dc 5e fe 3f
       -0.84057117 -1.0809381 1.0911349 1.9872699
0000a0 d3 a4 84 bf d0 59 16 bf 5c 5e 21 bf 09 70 55 bf
       -1.03628 -0.58730793 -0.63034606 -0.8337408
0000b0 a4 5f 80 bf 74 c0 55 bf 1f 7b 91 bf 51 3f 9b bf
       -1.0029187 -0.83496785 -1.1365699 -1.2128698
0000c0 c6 d2 7b bf 8a ab 8b bf
       -0.9836849 -1.0911725

decoder.c f4 [50]
000000 1f c3 c2 3e b6 19 c2 3e 20 67 c2 3e 13 58 c1 3e
       0.3803949 0.3791024 0.37969303 0.37762508
000010 84 91 c2 3e fa e3 c1 3e 43 ce bf 3e 00 66 c3 3e
       0.38001645 0.37869245 0.37462053 0.38163757
000020 6c be c1 3e d6 ad c1 3e 5e 16 c3 3e ca 48 c3 3e
       0.37840593 0.3782794 0.38103002 0.3814147
000030 34 16 c2 3e 15 e1 bf 3e 8b 3c c2 3e 6e 06 c1 3e
       0.37907565 0.3747641 0.37936816 0.37700218
000040 04 30 c2 3e 2a e5 c1 3e fa 39 c2 3e 84 e6 c1 3e
       0.37927258 0.3787015 0.37934858 0.37871182
000050 b0 33 c0 3e b4 b2 c1 3e a4 50 c2 3e 78 08 c3 3e
       0.37539434 0.37831652 0.3795215 0.380924
000060 30 d1 c2 3e a7 13 c0 3e 02 d0 c1 3e 11 a9 c1 3e
       0.38050222 0.37514994 0.3785401 0.378243
000070 93 40 c3 3e 0e 5c c2 3e 39 96 9c be c3 df b6 bb
       0.38135204 0.37960857 -0.3058336 -0.0055808737
000080 2f 25 9a be 99 2b 18 bf 93 47 8b bd 7a 0f 80 bd
       -0.30106494 -0.59441525 -0.06800761 -0.06252952
000090 a9 86 07 3e d4 27 2f bd 30 59 db be e4 86 15 bf
       0.13234963 -0.042762592 -0.42841482 -0.5840895
0000a0 6d 4d ae 3f 22 dd a0 3f 57 07 b3 3f a6 70 a2 3f
       1.3617378 1.2567484 1.3986615 1.2690628
0000b0 7c 7c 90 3f e9 52 d6 3f 7a a4 ce 3f 3c 0f f9 3f
       1.128799 1.6744052 1.6143944 1.9457774
0000c0 83 3d ec 3f 3e 6b ce 3f
       1.8456272 1.6126478

decoder.qphi_logits f4 [50, 3]
000000 2e 93 ae c0 f5 c0 a7 c0 e5 a9 0c 41 70 a6 1b c0
       -5.4554663 -5.2423043 8.791478 -2.4320335
000010 b1 df 65 c0 84 90 20 41 e3 9a e7 bf 44 c8 57 c0
       -3.591778 10.035282 -1.8094143 -3.3715982
000020 19 16 27 41 af 00 97 c0 d4 26 88 c0 28 00 14 41
       10.442895 -4.7188334 -4.2547398 9.250038
000030 8f 62 ae c0 f2 01 a8 c0 b2 1b 09 41 ac 56 a5 c0
       -5.449531 -5.2502375 8.569262 -5.16683
000040 e0 e3 a5 c0 70 99 0b 41 a4 e5 a9 c0 9c d8 75 c0
       -5.184067 8.72496 -5.3092823 -3.8413458
000050 e7 00 0f 41 f0 77 bb c0 27 46 b0 c0 8b d8 fe 40
       8.93772 -5.858391 -5.5085635 7.9639335
000060 08 e1 92 c0 c9 9d 97 c0 e7 9c 0d 41 1b e4 96 c0
       -4.5899696 -4.738011 8.850806 -4.715345
000070 02 95 ba c0 74 9e ef 40 db c9 b9 c0 68 e9 ad c0
       -5.8306894 7.4880924 -5.8058906 -5.434742
000080 1f f0 09 41 19 66 ac c0 69 62 a6 c0 36 f1 08 41
       8.621123 -5.387463 -5.199513 8.558889
000090 20 d1 ad c0 31 5a b3 c0 d9 48 05 41 d6 ac 91 c0
       -5.431778 -5.6047597 8.330285 -4.552348
0000a0 3d 7c 41 c0 23 bd 1b 41 f2 f6 7e c0 5a 96 b3 c0
       -3.023208 9.733676 -3.9838223 -5.6121035
0000b0 3f d3 02 41 fb fd 8d c0 9b 1f 72 c0 bd 50 17 41
       8.176574 -4.4372535 -3.783179 9.4572115
0000c0 10 4a 29 c0 a5 a8 76 c0 de f5 1f 41 25 43 96 c0
       -2.6451454 -3.8540432 9.997526 -4.6956964
0000d0 9e ac 89 c0 63 68 11 41 69 d8 c2 c0 af 6a b0 c0
       -4.3023214 9.087985 -6.0889173 -5.513023
0000e0 c3 0d 01 41 d7 31 8d c0 ae 53 b9 c0 e8 6c f6 40
       8.06586 -4.412334 -5.791465 7.700794
0000f0 3d e7 8e c0 6c e2 5c c0 c1 a4 1a 41 a5 0b 9e c0
       -4.4657273 -3.4513197 9.665223 -4.9389215
000100 4b c9 b5 c0 a1 11 ee 40 5e e7 b1 c0 16 ca ac c0
       -5.680822 7.439652 -5.559493 -5.3996687
000110 cb 22 07 41 34 a6 aa c0 ae 25 a4 c0 e9 ec 07 41
       8.445994 -5.3327885 -5.1295996 8.495339
000120 93 d4 ae c0 80 68 a7 c0 f9 66 08 41 9e eb c1 c0
       -5.463449 -5.2315063 8.52514 -6.060012
000130 ed aa 9d c0 cf 9b 06 41 bf b0 87 c0 4a 55 a0 c0
       -4.927115 8.413039 -4.2403255 -5.0104113
000140 40 7e 0f 41 f3 a0 9b c0 b2 9f b8 c0 07 81 f0 40
       8.968323 -4.863397 -5.769494 7.5157504
000150 c4 cc b7 c0 ed e8 af c0 b1 19 08 41 26 6f 0a c0
       -5.743746 -5.4971833 8.506272 -2.163034
000160 4b c3 63 c0 a3 4b 24 41 8b 52 ab c0 05 96 f8 40
       -3.5587947 10.268466 -5.353826 7.768313
000170 5c 4a 19 c0 37 0d 88 c0 33 ee ec 40 c0 b4 14 bf
       -2.3951635 -4.251613 7.404077 -0.580883
000180 02 dd ad c0 e7 2b e9 40 81 67 31 c0 3f d5 97 c0
       -5.4332285 7.286609 -2.7719424 -4.744781
000190 b8 1c cb 40 a2 f6 f5 bf 13 f0 ab c0 0f e9 f8 40
       6.3472557 -1.9215891 -5.373056 7.7784495
0001a0 44 aa e5 bf f7 6c a8 c0 f3 7a f6 40 c0 47 3d c0
       -1.7942586 -5.2633014 7.7025084 -2.9575043
0001b0 79 9b 8f c0 d5 fb eb 40 ba 4a 1b bf a3 8b 96 c0
       -4.4877286 7.374491 -0.606609 -4.7045455
0001c0 ab be fa 40 21 ee 4a bf 74 0a a6 c0 6a 64 e6 40
       7.835775 -0.79269606 -5.188776 7.1997576
0001d0 e2 93 0b c0 5e 5d 9d c0 cb 05 c5 40 28 39 f8 bf
       -2.180901 -4.9176474 6.156957 -1.9392443
0001e0 e7 ca 0a 41 be 32 31 c0 4b f8 35 c0 0f b0 07 41
       8.674537 -2.768722 -2.8432796 8.480483
0001f0 31 37 1d c0 85 9b 27 c0 96 cc 0a 41 e7 e9 18 c0
       -2.4564936 -2.6188672 8.674948 -2.3892763
000200 3e cb 23 c0 e0 37 01 41 80 91 fb bf da 6f 1d c0
       -2.55928 8.076141 -1.9653778 -2.4599519
000210 a8 4c fd 40 9e b9 19 c0 2d 70 2a c0 cb 83 0e 41
       7.9156075 -2.4019542 -2.6630967 8.907176
000220 e5 9d 02 c0 a7 37 27 c0 99 8d 17 41 e0 e3 39 c0
       -2.040887 -2.6127717 9.47207 -2.9045334
000230 aa 2d 4b c0 a5 61 19 41 11 2a 24 c0 0a 34 42 c0
       -3.174662 9.586339 -2.5650675 -3.0344262
000240 de b6 0b 41 54 ab 08 c0 be 93 1a c0 62 a1 08 41
       8.732145 -2.135457 -2.4152675 8.5394
000250 18 4f 18 c0 44 06 21 c0
       -2.3798275 -2.5160074

decoder.sigma f4 [50]
000000 4a 40 ab c0 47 df 91 c0 a6 77 97 c0 87 b4 9d c0
       -5.351598 -4.5585055 -4.7333555 -4.928287
000010 f9 f8 9c c0 88 50 a2 c0 a5 d4 ad c0 32 2b b3 c0
       -4.905392 -5.0723305 -5.4322076 -5.599023
000020 98 6b 95 c0 fe d3 bd c0 eb b5 b1 c0 00 e3 9b c0
       -4.669384 -5.932128 -5.553457 -4.87146
000030 8e 94 aa c0 c9 b1 a6 c0 d4 5d af c0 57 b2 9a c0
       -5.330634 -5.2092023 -5.4802036 -4.83427
000040 2c 16 9c c0 6a 59 98 c0 c1 7b c2 c0 2b 90 ad c0
       -4.8777065 -4.760915 -6.0776067 -5.4238486
000050 06 9d a1 c0 4b 8c b5 c0 94 81 9e c0 cd ca 96 c0
       -5.050418 -5.6733756 -4.9533176 -4.712256
000060 9d a1 9b c0 93 fa be c0 0f d8 a4 c0 5b bb b2 c0
       -4.863478 -5.9680877 -5.1513743 -5.5853705
000070 c5 02 a8 c0 f7 2f 9d c0 11 2d 97 c0 c2 5c a3 c0
       -5.250338 -4.912105 -4.7242513 -5.105073
000080 30 99 8e c0 b1 35 63 c0 c9 fe 9c c0 c7 22 93 c0
       -4.4561996 -3.550152 -4.9061017 -4.5979953
000090 5b 8d 9b c0 6a 0d af c0 7f 08 88 c0 27 7b 66 c0
       -4.8610053 -5.4703875 -4.251037 -3.6012666
0000a0 b3 8b 8b c0 04 08 88 c0 28 58 8b c0 2c ef 6f c0
       -4.360803 -4.2509785 -4.3545113 -3.748973
0000b0 29 89 71 c0 37 bf 92 c0 ae 0e a6 c0 3f c6 ae c0
       -3.7739966 -4.5858417 -5.189292 -5.4617
0000c0 98 02 96 c0 d5 ad 8c c0
       -4.6878166 -4.3962197

decoder.zi f4 [50, 1]
000000 b2 a2 ef bd a6 10 a2 3f 61 67 cb 3f c2 66 b8 be
       -0.117009535 1.2661331 1.5890924 -0.36015898
000010 e4 e2 e7 3e 4e 73 32 3f a9 05 2f bf 5e 26 3a 3d
       0.4529029 0.6970719 -0.6836801 0.045446746
000020 47 4c 47 3f d4 e5 82 3f 27 b5 12 bd b6 19 02 3e
       0.77850765 1.0226388 -0.03581729 0.1270512
000030 91 9d 1d 3f ba b2 43 bf 4d c1 b6 3f b6 d7 e1 be
       0.6156855 -0.7644459 1.4277741 -0.44109887
000040 ca 6a ac 3f 15 f0 8e be c9 e0 4a be ed b0 97 3f
       1.347009 -0.27917543 -0.19812311 1.1850868
000050 ec 56 1a bf 0a 23 5c 3f 2f c8 08 3f 4e 7e 94 3e
       -0.6028888 0.85990965 0.53430456 0.29002613
000060 8d 31 be 3e 04 a1 05 bf 53 4d 8d 3f d0 f8 70 3f
       0.3714718 -0.52198815 1.1039222 0.9412966
000070 5a 79 55 3e ae 15 c1 3f cf 91 c1 bf 53 0f e1 bf
       0.20847073 1.5084741 -1.5122622 -1.7582802
000080 5e 4d d6 bf 35 14 ce bf bd 0d ca bf 62 14 ba bf
       -1.674236 -1.6099917 -1.5785443 -1.453747
000090 23 cf d9 bf 51 85 d6 bf c4 bd ca bf 93 8b df bf
       -1.7016338 -1.6759435 -1.5839162 -1.746447
0000a0 ac 26 99 3d 4a 13 d0 3d 48 46 b3 3d eb 2d 9b 3d
       0.07478079 0.10159929 0.087536395 0.075771175
0000b0 12 5a cf 3d 92 a8 6e 3d a5 1b 85 3d d7 bb 57 3d
       0.101246014 0.05826623 0.064994134 0.052669372
0000c0 ec aa 67 3d 1a 9f 70 3d
       0.05655949 0.05874548

decoder.z0 f4 [50, 1]
000000 4e db e9 bd c1 c4 8a 3e c3 d2 30 3e fb ee 3e be
       -0.11418782 0.27103236 0.17267899 -0.18645851
000010 b4 cc e9 bd bb af 95 be bb 61 39 3d 55 09 91 3e
       -0.11415997 -0.29235634 0.04525922 0.28327432
000020 34 21 1f 3e a4 fb 43 3e fb a2 60 3e 67 79 9b be
       0.1554001 0.19138962 0.21937172 -0.3036606
000030 fd d0 44 be b9 86 86 3e a7 6f ef bb 11 64 61 3e
       -0.19220348 0.2627466 -0.007307011 0.22010829
000040 05 d7 bf bd fc b0 9a be 6c 76 2c 3d 58 28 07 3e
       -0.093671836 -0.30213153 0.042105123 0.13198984
000050 13 79 c7 3b 82 f2 66 bd c6 5f 78 be ac 61 78 be
       0.006087431 -0.056383617 -0.24255285 -0.24256009
000060 ac 77 87 3d 7a 08 28 3c 68 e4 ac 3e df 0d fc 3d
       0.066146225 0.010255927 0.3376801 0.12307333
000070 6e 8c 68 be 23 3f 59 be bd ce 02 3e ff 4d a6 be
       -0.2270982 -0.21215491 0.12774177 -0.3248138
000080 57 53 0d 3b c3 23 49 bd 33 b6 01 bd ee bb 91 3e
       0.0021564567 -0.04910637 -0.0316679 0.2846369
000090 49 ee 4c 3e 53 03 e9 3a 96 eb 48 be c2 38 16 3d
       0.20012774 0.001777748 -0.19621119 0.036675222
0000a0 a6 32 ae 3e 6d f2 cf 3d fc c5 67 3e 07 a7 21 be
       0.34023017 0.10153661 0.22634119 -0.15786372
0000b0 28 d5 17 3e b3 02 3e 3e 01 62 19 3e af 99 0c 3e
       0.14827406 0.18555717 0.14978792 0.137305
0000c0 f0 c9 00 3e a4 46 fd bd
       0.12577033 -0.12366989

decoder.x0 f4 [1, 50]
000000 02 7d bd 3e 11 7f 1d 3f ec ff fc 3e c1 2a 0d 3f
       0.37009436 0.6152201 0.49414003 0.5514336
000010 fc ac 02 3f 6e 1e d0 3e b9 61 a4 3e 5c 5e 92 3e
       0.51045203 0.40648216 0.32105806 0.28587615
000020 2c 39 18 3f e7 90 28 3e 3f df 9a 3e 39 07 14 3f
       0.5946224 0.16461526 0.30248448 0.5782352
000030 6f 4d a4 3e ef 7f cb 3e 23 df 77 3e 75 33 19 3f
       0.32090327 0.39746043 0.24206214 0.5984414
000040 35 63 e3 3e 9a e9 27 3f fe 00 3a 3e b4 67 87 3e
       0.44411626 0.6559082 0.18164441 0.26446307
000050 f8 3c f2 3e aa 14 5e 3e b2 a9 f3 3e ee dd 25 3f
       0.4731214 0.2168757 0.47590405 0.6479176
000060 3f 7c 0b 3f d1 f6 46 3e 1e 7e b3 3e fe 0b 6f 3e
       0.5448646 0.1943009 0.35057157 0.23344418
000070 9a 82 c7 3e 34 88 d6 3e 81 37 f4 3e 99 3c e6 3d
       0.3896683 0.4190079 0.47698596 0.11242027
000080 0b 49 33 3f 23 97 6c 3f 43 d1 7e 3e 3b 4c fd 3e
       0.7003333 0.92418116 0.24884515 0.49472222
000090 10 50 e8 3d 6a 18 d3 3d 29 63 21 3f 93 5c 7e 3f
       0.11343396 0.10307391 0.6304193 0.9936001
0000a0 4f 52 9e be 8a fa 17 bf 0c 59 d4 be c5 03 38 bf
       -0.3092217 -0.5936667 -0.41474187 -0.7188075
0000b0 58 e8 5d bf 83 fd b8 be 8a 67 95 be 27 54 51 be
       -0.86682653 -0.36130914 -0.29180557 -0.20442258
0000c0 71 ad 2c be a8 d9 39 be
       -0.16863038 -0.18149436

decoder.linear1.weight f4 [64, 1]
000000 e2 f4 3d 3e 44 91 df 3d 53 94 78 bf b9 a2 24 41
       0.18550447 0.10916379 -0.97101325 10.289727
000010 7a 64 b5 bd 70 b4 c7 3d 1c 6a 8b bc 42 f4 5c 41
       -0.08857055 0.097512126 -0.01701837 13.809633
000020 e3 8e 61 be 84 5a a6 3e fc 0d 7f bd 6d 33 09 3d
       -0.22027163 0.32490933 -0.062269196 0.03349631
000030 69 d7 13 3e 76 4a b0 bd c7 13 84 bd ac 15 bb 3f
       0.14437641 -0.08607952 -0.06449085 1.4615989
000040 ec d8 24 3d 67 28 3d 3d ec 2b 61 bc 13 59 31 c0
       0.040245935 0.04618111 -0.013743382 -2.7710617
000050 a9 05 6e 3e 66 a0 34 bd 1e 8c ed 3d 08 d4 0a c0
       0.23244347 -0.04409828 0.11598991 -2.1691914
000060 3a 0c a7 3d 48 73 d8 3d 0a e5 30 40 7d 4e 42 be
       0.08156629 0.10568863 2.7639794 -0.18975253
000070 a0 d6 46 be d1 ee 82 3d 0c ed 60 3e 6f 6c a2 3d
       -0.1941781 0.06393207 0.21965426 0.07930838
000080 00 24 39 3e c4 82 f1 bd 78 0b ca bd a3 1e 67 3f
       0.18080139 -0.1179252 -0.09865469 0.9028112
000090 30 71 12 be 01 1d de 3f c2 3e 32 3f 7e a6 95 bd
       -0.1430099 1.7352601 0.6962701 -0.073071465
0000a0 fd e6 51 bd b9 df dd bd a1 ed 63 40 70 af 0a bd
       -0.05124568 -0.10833687 3.5613787 -0.033858716
0000b0 86 76 2f 3f 8f 44 f1 bd ee 66 fb bf b3 c9 9f 3d
       0.6854023 -0.11780655 -1.9640787 0.07802143
0000c0 f0 2d ac 3d f8 1d 3e be 79 38 43 3f 45 86 57 3e
       0.084071994 -0.1856612 0.76258045 0.21047314
0000d0 5d 8a d8 3d c1 e4 7d bd 24 92 7b 3e b7 f9 23 bf
       0.10573266 -0.061985735 0.24567467 -0.6405291
0000e0 8a 07 98 3f d8 8f 4b 3f 2c 92 cd 3e 74 b2 a2 bd
       1.1877301 0.79516363 0.40150583 -0.079441935
0000f0 25 0d 46 bf e1 37 75 bd 75 58 92 3f f2 f4 84 bf
       -0.77363807 -0.059867743 1.1433245 -1.0387251

decoder.linear1.bias f4 [64]
000000 57 2a f0 3d b5 52 fd 3e 29 32 05 bf 47 36 a2 3b
       0.11726826 0.49477163 -0.52029663 0.004950318
000010 6b a2 10 bf 81 d0 d9 3e 34 ce 0a bf d5 5d 50 3b
       -0.5649783 0.42541888 -0.5422089 0.003179421
000020 ba 3c 17 be d7 ec c0 3e a6 8a 2c bf b1 a3 f7 3e
       -0.14769259 0.37680694 -0.6739906 0.48367074
000030 ca be 71 3e ab d0 16 bf b7 c2 12 bf 4e 31 73 3f
       0.23607937 -0.5891215 -0.5732836 0.9499711
000040 55 1b 02 3f 84 e8 f9 3e a2 00 fe 3e 2e d7 45 3f
       0.50822955 0.48810208 0.49609858 0.77281463
000050 54 86 90 3d 50 c0 10 bf c9 a3 2c 3f a5 39 e2 3e
       0.07056871 -0.56543446 0.67437416 0.44184604
000060 3e 81 06 3f 7a 0b dc 3e 03 29 29 bf dd 76 fe bd
       0.5254096 0.42977506 -0.66078204 -0.12425015
000070 a9 a9 c7 be 00 8c 0d 3f 5f fb 81 3e d2 9a 96 3e
       -0.38996628 0.5529175 0.25387093 0.29414994
000080 8a 95 d9 3e 81 f8 1b bf 2e b2 1c bf c8 08 26 3f
       0.42496902 -0.6092606 -0.6120938 0.6485715
000090 0f b8 a9 be fc 52 3e be a4 ff 16 bf 6c 20 d7 be
       -0.33148238 -0.18586344 -0.58983827 -0.42016923
0000a0 a7 eb c4 bc 93 4b 1b bf 6d cc 6c 3f 65 e1 27 bf
       -0.024038149 -0.6066219 0.9249943 -0.655783
0000b0 df 15 dd 3e 2d e8 d1 be b4 81 c2 be 40 fd 3e 3f
       0.4318075 -0.4099745 -0.3798958 0.7460518
0000c0 9b c5 27 3f 37 08 e4 bd 46 25 01 3f af 76 bf 3e
       0.65535897 -0.11134379 0.504475 0.37395236
0000d0 93 e2 e8 3e 45 7a 14 bf 0a 61 35 3e 53 43 d7 be
       0.45485362 -0.5799907 0.17712799 -0.42043552
0000e0 c2 c7 46 3f d0 a4 34 bf df a3 ab be ee 9f 0f bf
       0.77648556 -0.70563984 -0.3352346 -0.5610341
0000f0 7f ef 50 3f f6 41 02 bf c3 a3 49 bf c8 63 87 3f
       0.8161544 -0.508819 -0.78765506 1.0577326

decoder.linear2.weight f4 [150, 64]
000000 b7 cf 6b be 6a 67 16 be f0 cd 9a 3e a7 00 5d bc
       -0.23028456 -0.14687887 0.30235243 -0.013488925
000010 a0 ca a0 3d 58 b2 54 be be 45 07 3f ab 33 a4 bc
       0.07851148 -0.20771158 0.52840793 -0.020044168
000020 b0 5a 96 3e 4e 69 87 be 77 81 4b 3e 5b 58 69 be
       0.29366064 -0.2644753 0.19873606 -0.22787611
000030 8e e5 80 be 2c 45 1f 3e 34 cd 4a 3e c2 2f 89 be
       -0.25175136 0.1555373 0.19804841 -0.2679425
000040 f0 55 11 be c5 88 10 bf ca c0 64 be 7f c2 2f 3e
       -0.14192939 -0.56458694 -0.22339168 0.17164038
000050 a4 53 20 be 4c 1f 45 3e 03 49 15 be 0a e7 04 3e
       -0.15656906 0.1925022 -0.14578633 0.1297876
000060 fc 66 57 be 77 18 8f be 90 1c 24 3d cb 45 65 3e
       -0.21035379 -0.27948353 0.0400663 0.22389905
000070 cd 30 8a 3e 0a 8b 7f be 13 7e 9d be 7d 4d 85 be
       0.26990357 -0.24955383 -0.3076025 -0.2603568
000080 55 4b 49 be eb b3 6a 3e 68 80 83 3e ee b5 9f be
       -0.19657643 0.22920196 0.25683904 -0.3119349
000090 69 41 52 3e 3f 4a ee bc 45 ca 20 3d 04 dd f2 3e
       0.20532764 -0.029088138 0.0392554 0.47434247
0000a0 64 56 c7 3d 2f 8a 8e 3e b1 72 a3 be 71 e2 2b 3f
       0.097332746 0.278398 -0.3192344 0.671424
0000b0 9d 9f 13 be 80 6d 0b 3e 5a 16 51 3e cc 76 1d be
       -0.14416356 0.1361599 0.20418683 -0.15377349
0000c0 22 09 41 be ce cd 40 3e 7f 72 5a be 64 46 af bd
       -0.1885114 0.18828508 -0.2133274 -0.08558348
0000d0 02 68 80 be cb 80 73 3e 9b 55 27 be a9 52 20 3e
       -0.25079352 0.237796 -0.1634125 0.15656532
0000e0 c9 f8 a1 be 97 b9 4c 3d 60 c1 cc 3e 0d 19 29 3e
       -0.3163512 0.04998168 0.39991283 0.16513462
0000f0 a8 72 9c 3d 0f 24 3d 3e 0b 1d de bd e9 b9 a0 3d
       0.076390564 0.18470787 -0.10845383 0.078479595
000100 08 ff 9c 3c ea 49 8e be 5c b2 99 be 78 28 2f 3e
       0.019164577 -0.27790767 -0.3001889 0.17105281
000110 b5 28 6e 3e c6 08 9b be 38 b1 50 3e 1b 7b 81 3d
       0.23257716 -0.3028013 0.20380104 0.06322309
000120 4a 9a 86 3d 93 d4 8c 3d 17 18 77 3e 59 39 6b be
       0.06572397 0.06876483 0.24130283 -0.22971095
000130 9b e0 87 be 3c 6e cf 3d ef 5f 02 3e b0 cf 10 3f
       -0.26538548 0.101284474 0.12731908 0.56566906
000140 cd db b8 be ea 9f 6a be 43 e4 a6 bd 63 a2 ba 3e
       -0.36105195 -0.22912565 -0.08149006 0.36452016
000150 85 1d 85 3d 54 b6 6a 3e e4 40 69 be a9 d2 6a 3e
       0.06499771 0.22921115 -0.2277866 0.22931923
000160 ec 5d b3 be 19 80 a6 be 8f 43 70 bf 86 a4 94 3d
       -0.35032594 -0.32519606 -0.93853086 0.07257943
000170 5e e7 da 3d 56 23 aa be d4 59 08 3d 08 13 25 be
       0.10688661 -0.33230084 0.03328879 -0.16120541
000180 99 ee d7 bd 1f 23 85 3e 4c f4 43 3e c9 39 5e 3e
       -0.10543556 0.26003358 0.1913616 0.21701731
000190 a3 52 0e 3e e4 e7 00 bd 5a c9 7a be 4e 0a 34 3e
       0.13898711 -0.031471148 -0.24490872 0.17582056
0001a0 bb dc 49 be 4e 6f b4 3d 62 8f 19 3f d3 10 f8 3d
       -0.19713108 0.08810292 0.5998441 0.12112584
0001b0 7b c2 ae 3e af 34 69 3e 7e 19 81 be 07 f9 bc be
       0.34132752 0.22774003 -0.25214761 -0.36908743
0001c0 40 29 7a be f4 6d ba 3d 5d 07 46 3e c1 18 8b bd
       -0.24429798 0.09103003 0.19338746 -0.06791831
0001d0 58 87 aa be b2 da a7 3e c4 ce a8 bd 0d ac 75 be
       -0.33306384 0.3278404 -0.082425624 -0.23991413
0001e0 70 28 e1 3e 4f b0 1c be 22 80 9d 3d bb 0b f0 3d
       0.43976164 -0.15301631 0.07690455 0.117209874
0001f0 1d ac 03 3f 14 86 7d 3e 97 65 2c bf 70 12 3e 3f
       0.514345 0.24758178 -0.67342514 0.74246883
000200 6e eb 81 3d 7f 26 68 be 9e f6 da be 07 15 18 be
       0.06343733 -0.22670935 -0.4276628 -0.14851771
000210 a3 01 33 3e 47 01 63 be 59 32 39 3e 9a 54 5e be
       0.17481093 -0.22168456 0.18085612 -0.2171196
000220 df f9 26 be a3 00 41 bd d0 14 07 3e f2 24 1c be
       -0.16306256 -0.047119748 0.13191533 -0.15248469
000230 6f 6a 15 be 15 98 89 3e b8 39 9d 3e c9 4f d6 3e
       -0.14591382 0.26873842 0.30708098 0.41857746
000240 7d 3b 77 be a2 86 4f be b9 f5 23 be 65 83 57 3e
       -0.24143787 -0.20266202 -0.16011705 0.21046217
000250 36 24 77 bd d4 66 80 3e 5d ab 54 be 22 4d d4 bd
       -0.060337268 0.25078452 -0.20768495 -0.103662744
000260 27 13 97 be 08 bf 60 be de 8a a9 be e1 0b 01 be
       -0.295068 -0.21947873 -0.3311376 -0.12602188
000270 f4 02 8f 3d 8f f3 2a be f0 59 d0 bd 61 04 fd bd
       0.06982985 -0.16694473 -0.10173404 -0.12354351
000280 12 8d e3 bd 4c 45 af 3d fa 56 00 3e a9 fc 2b 3e
       -0.111108914 0.08558139 0.12533179 0.16795601
000290 f9 8d 52 3e b5 07 8c bd ff 4d c1 be 0a f1 19 3e
       0.20561971 -0.068374075 -0.3775482 0.15033355
0002a0 a0 73 68 be 8e d4 1d 3d 71 1e 04 3f 43 92 bc 3d
       -0.22700357 0.038532786 0.5160895 0.09207585
0002b0 4f da 86 3e b3 ac f4 3d 98 df 84 be b3 d7 cc be
       0.2633843 0.11947002 -0.25951838 -0.40008315
0002c0 ec 89 ac bd 60 4a 31 bd 2b c5 83 3e cc a2 d9 3c
       -0.08424744 -0.04328382 0.25736365 0.026566885
0002d0 29 b2 41 be 1c 65 1a 3e a8 3f c7 bc f6 65 38 be
       -0.18915619 0.15077633 -0.024322346 -0.18007645
0002e0 97 90 ac 3e 09 a8 11 be 4d 2c c6 3d d8 db a1 3d
       0.33704063 -0.14224257 0.096764185 0.0790326
0002f0 9f f5 99 3e cb d3 8a 3e 46 06 f4 be 26 30 08 3f
       0.30070207 0.2711471 -0.47661036 0.5319847
000300 68 46 80 be f2 9c 07 be 76 42 6e 3e 9a a8 e4 bd
       -0.25053716 -0.13243464 0.2326754 -0.11164971
000310 ef de 45 3e 44 10 a0 be d4 da 08 3f 07 59 f3 bd
       0.19323324 -0.3126241 0.53458905 -0.11882215
000320 2e a2 1c 3e 4e a2 47 be 24 80 35 3e ff bf 89 be
       0.15296242 -0.19495508 0.17724663 -0.26904294
000330 73 af b9 be af ad 92 3e f3 96 94 3e 58 10 95 bd
       -0.3626667 0.28648135 0.29021415 -0.07278508
000340 48 57 4e be fb 9e 1d bf ed c2 ba be fa df 4e bd
       -0.20150483 -0.6157071 -0.36476842 -0.05050657
000350 9a ad 2f bd 1b c5 be 3e d3 45 2e be 2c 34 9e 3c
       -0.04289017 0.37259755 -0.17018823 0.019311987
000360 08 37 71 be a6 c6 a0 be 65 23 7f bc 30 f6 32 3e
       -0.23556149 -0.31401557 -0.015572404 0.17476726
000370 7f e5 72 3e 50 14 48 be b1 f5 19 be 3a 77 d4 be
       0.23720358 -0.19538999 -0.1503513 -0.41497213
000380 bd 0b 7d be c2 b5 59 3e ee 9c 6c 3e 87 fe d5 bd
       -0.24711509 0.21260741 0.23106739 -0.10448938
000390 9f 3e 16 3e 66 1c 31 3d bb a2 c5 3d 7a 22 e8 3e
       0.14672326 0.043239973 0.09650179 0.45338804
0003a0 b8 37 fd 3d 87 e8 66 3e d3 fa 12 be 11 70 3c 3f
       0.12364143 0.2254964 -0.14353494 0.736085
0003b0 b1 02 2e be 0a ac a7 3e 36 18 39 3e 90 b9 03 be
       -0.16993214 0.32748443 0.18075642 -0.12863755
0003c0 2d c8 43 be 66 86 5c 3d b5 f7 ad bd 9f 7b 61 bd
       -0.1911933 0.05383911 -0.08494512 -0.055049535
0003d0 2a b3 1b be c6 80 aa 3e 8d 81 8e be 5c 91 07 3e
       -0.15205064 0.3330137 -0.27833214 0.13239044
0003e0 f6 3a 4c bd 46 4d 52 3e 2e b0 f8 3e e0 6f ab 3e
       -0.049860917 0.2053729 0.48571914 0.3348379
0003f0 fb 42 60 bd 9a e5 9f 3e 46 e7 36 bd de 86 92 bc
       -0.054751378 0.3122986 -0.044654153 -0.017886575
