models/basisdevae_noisy.pt (torch, 60948 bytes, 23 tensors)

encoder.linear1.weight f4 [64, 50]
0	0xbe8b10df	-0.2716131
1	0xbe84970e	-0.25896496
2	0xbc110463	-0.0088511435
3	0xbeaaba8a	-0.33345443
4	0xbe0de882	-0.13858226
5	0xbdff7e55	-0.12475268
6	0x3d327923	0.043572556
7	0xbc041690	-0.00806202
8	0xbc8b7d32	-0.017027471
9	0xbe39bcc4	-0.18138415
10	0xbeb1af4e	-0.3470406
11	0xbe729eba	-0.23693362
12	0xbe898322	-0.2685786
13	0x3e22205c	0.15832657
14	0xbcfe1bfa	-0.0310192
15	0xbe9eca70	-0.31013823
16	0xbe888914	-0.26667082
17	0xbe6bca56	-0.23026404
18	0xbe01eb8a	-0.12687507
19	0xbd72e276	-0.059298
20	0xbe957f41	-0.2919865
21	0xbd881f9f	-0.06646656
22	0xbe84c06b	-0.25928053
23	0xbd65d190	-0.056108057
24	0xbe41cdb2	-0.18926123
25	0xbd5b4f2f	-0.053542312
26	0xbdcec3af	-0.100959174
27	0xbe22513d	-0.15851302
28	0xbe2f97cb	-0.17147748
29	0xbe60d6b6	-0.21956906
30	0xbd9577e7	-0.0729826
31	0xbec23524	-0.37931168
32	0xbd95f2f5	-0.07321731
33	0xbe0b24cb	-0.13588254
34	0xbe957b14	-0.29195464
35	0xbe96b508	-0.2943499
36	0xbe91798f	-0.28413054
37	0x3df0f76d	0.11765943
38	0xbebd3560	-0.36954784
39	0xbe12067a	-0.14260283
40	0x3e3183de	0.1733546
41	0xbe30dcd6	-0.17271742
42	0x3e5ea3e2	0.21742204
43	0x3e70a772	0.23501375
44	0x3ddc2a59	0.10750265
45	0xbd93c033	-0.072143935
46	0x3e6cb650	0.23116422
47	0x3d38d615	0.04512604
48	0x3ea48967	0.3213608
49	0xbe416581	-0.18886377
50	0xbd98417c	-0.07434365
51	0xbaad8ee8	-0.0013241442
52	0xbd2e4b58	-0.042552322
53	0xbd2b3587	-0.041799095
54	0x3ddef9c3	0.10887482
55	0xbd71a573	-0.058995675
56	0xbdc7c815	-0.097549595
57	0xbde53e84	-0.111935645
58	0x3dfa4c70	0.122216105
59	0x3de66bfb	0.112510644
60	0x3d5d73ac	0.05406539
61	0xbd7eb140	-0.062180758
62	0x3d1037ed	0.035209585
63	0xbe75a50d	-0.23988743
64	0x3e3dac56	0.18522772
65	0xbd155276	-0.036455594
66	0x3e236dc7	0.15959845
67	0x3d972ca1	0.07381559
68	0x3da5cb09	0.080953665
69	0xbbe7e1bc	-0.00707647
70	0xbe9eefa1	-0.31042197
71	0x3cf584af	0.029970495
72	0x3e3d3be6	0.1847988
73	0x3e76d2fd	0.24103923
74	0x3d5d3d5f	0.054013606
75	0xbe2b73b7	-0.1674336
76	0xbda405f9	-0.08008952
77	0x3df19a99	0.11797065
78	0x3c1b3233	0.009472418
79	0x3e3d7e56	0.18505225
80	0xbe7061bd	-0.23474784
81	0xbdd365d4	-0.103221565
82	0xbea8affe	-0.3294677
83	0xbddcc908	-0.10780531
84	0xbe3fd950	-0.18735242
85	0xbeca0df2	-0.39463764
86	0xbe7cc537	-0.24684606
87	0xbdf8f1c3	-0.121554874
88	0xbdc564f6	-0.096383974
89	0xbe3eba5e	-0.18625781
90	0x3f1605bc	0.586025
91	0x3e908e92	0.28233773
92	0x3da120d7	0.07867592
93	0x3e469fcc	0.19396895
94	0x3e562814	0.20913726
95	0x3e5a4a00	0.21317291
96	0x3d7a9081	0.061172966
97	0x3e0b5516	0.13606676
98	0x3e9b05df	0.30277917
99	0x3ce547e8	0.02798839
100	0xbc8988b5	-0.01678882
101	0xbdf721de	-0.120670065
102	0xbde8c2da	-0.1136529
103	0x3b7e8023	0.00388337
104	0xbc8bc9e8	-0.01706405
105	0xbd84b7a8	-0.06480342
106	0x3d2f45cc	0.042791173
107	0x3c05c368	0.008164264
108	0x3bfe906c	0.0077686813
109	0xbdb40002	-0.08789064
110	0x3ccaafbc	0.024742
111	0x3dd44131	0.10363997
112	0xbd66628f	-0.056246337
113	0xbd93f836	-0.07225077
114	0xbc3f633f	-0.011681377
115	0xbd09662f	-0.033544715
116	0xbd667951	-0.05626804
117	0xbb116176	-0.0022183335
118	0xbcf17604	-0.02947522
119	0xbcb6dd14	-0.022322215
120	0x3a4aef90	0.0007741386
121	0x3ddd0508	0.10791975
122	0x3d835320	0.06412339
123	0x3d80d6dc	0.06290981
124	0xbd35e977	-0.044412103
125	0xbdce8f6e	-0.10085951
126	0xbce46202	-0.027878765
127	0xbda4e658	-0.08051747
128	0xbe243c0d	-0.16038533
129	0xbdcbbe8e	-0.09948455
130	0xbdbb9c3e	-0.0916066
131	0x3dcb6ce7	0.09932881
132	0xbcf38d40	-0.02973044
133	0xbe1f4d60	-0.1555686
134	0xbbe9e01b	-0.007137311
135	0x3dc6bbe0	0.09703803
136	0xbd987179	-0.07443518
137	0x3b68b8d0	0.0035510547
138	0xbc8219b1	-0.015881391
139	0xbe10f224	-0.1415487
140	0x3d76bed0	0.060240567
141	0x3d4f1e3d	0.050565947
142	0x3dd782a8	0.105229676
143	0x3e1f5475	0.15559562
144	0x3e160e1d	0.14653821
145	0xbc8e5ec2	-0.017379168
146	0xbca82b74	-0.020528533
147	0xbd32c8ac	-0.043648407
148	0xbd7252fe	-0.05916118
149	0xbd4ed200	-0.05049324
150	0xbc8359fb	-0.016034117
151	0xbc3253fb	-0.01088428
152	0xbd91960b	-0.071086966
153	0xbd3356f1	-0.043784086
154	0x3d43de2b	0.047819298
155	0x3d228257	0.039675083
156	0x3d4c0819	0.04981241
157	0x3e04a365	0.12952955
158	0x3dd5a471	0.10431755
159	0xbd84508b	-0.06460675
160	0x3dadaa8e	0.08479796
161	0xbe2b6592	-0.16737965
162	0x3d9a8d5c	0.075464934
163	0x3e05c01b	0.13061564
164	0xbc686092	-0.01418318
165	0x3da21ad8	0.07915276
166	0xbc647747	-0.013944454
167	0xbd9b1fe6	-0.075744435
168	0xbddf80a8	-0.10913211
169	0xbe2f5d1b	-0.1712536
170	0xbdf8a286	-0.12140374
171	0xbdb1dc9f	-0.08684658
172	0xbdf2facd	-0.11864243
173	0x3db691f2	0.089145556
174	0xbbaf974f	-0.0053586136
175	0xbd8c9587	-0.068644576
176	0xbe007780	-0.12545586
177	0x3d8e58af	0.06950509
178	0xbd0b1e11	-0.03396422
179	0xbd26b5ea	-0.04070083
180	0x3d9ebaac	0.077504486
181	0xbe3d65b2	-0.18495825
182	0xbe0b47f4	-0.13601667
183	0x3dd69bc1	0.104789265
184	0x3daebd21	0.08532167
185	0xbd0c1a5a	-0.03420482
186	0xbcff1194	-0.031136312
187	0xbdd3e327	-0.1034606
188	0xbdcc0add	-0.099630095
189	0x3d8ec1c4	0.069705516
190	0x3dfcbc89	0.12340648
191	0xbcdbca7e	-0.026829954
192	0x3e0002c4	0.12501055
193	0xbd9f5d84	-0.077815086
194	0x3e02b255	0.12763341
195	0xbda789a4	-0.0818055
196	0x3d162695	0.03665789
197	0x3d7f5ff1	0.062347356
198	0x3e426a35	0.18985827
199	0x3d2a1a14	0.041528776
200	0x3d5bfdde	0.053708903
201	0x3b284f0a	0.0025681877
202	0x3cc54ae3	0.02408356
203	0x3d7721bc	0.060334906
204	0xbdb006a0	-0.085950136
205	0xbc7cf3bc	-0.01543897
206	0x3cf8ec7e	0.030386206
207	0xbd3b23fa	-0.045688607
208	0x3d7c58ea	0.061608233
209	0xbd90cee1	-0.07070709
210	0xbd124896	-0.035713755
211	0x3db24ccb	0.08706053
212	0x3d87cb4f	0.06630575
213	0xbe0579ef	-0.13034795
214	0xbe0c151a	-0.13679925
215	0xbdff4936	-0.12465136
216	0x3c7f005d	0.015564051
217	0xbe03364c	-0.12813681
218	0xbdfd3e51	-0.123654015
219	0xbe1f55ea	-0.15560117
220	0xbe0b63eb	-0.13612334
221	0xbe07cfa9	-0.1326281
222	0x3d9466cb	0.07246169
223	0x3de12a5d	0.10994408
224	0xbcde5d3d	-0.027144069
225	0xbdce55ca	-0.10074957
226	0xbdb5cc3c	-0.08876845
227	0x3dbf3f16	0.093382046
228	0x3c1618c2	0.009161176
229	0xbd683647	-0.056692388
230	0xbd0dd303	-0.034625065
231	0xbe03c90c	-0.12869662
232	0x3d25a512	0.040440626
233	0x3cfae75d	0.0306279
234	0x3d16c46b	0.036808413
235	0xbdb27992	-0.08714594
236	0xbde76536	-0.11298601
237	0xbce5f43f	-0.028070567
238	0x3dd72756	0.105055496
239	0x3d4e3384	0.050342098
240	0xbb9cab03	-0.0047811284
241	0x3e0a39f1	0.13498665
242	0x3e0c0d95	0.13677056
243	0xbdaabe48	-0.083370745
244	0x3d9cdb74	0.07659045
245	0x3d801dda	0.06255694
246	0x3dbed683	0.093182586
247	0x3e03c2d8	0.12867296
248	0x3d9f24ef	0.077707164
249	0x3d794e20	0.06086552
250	0x3eaa54ef	0.33267924
251	0x3e0b789d	0.13620229
252	0x3e348ea3	0.17632537
253	0xbd315754	-0.043296173
254	0xbe8031a4	-0.25037873
255	0xbc4adfb6	-0.012382438

encoder.linear1.bias f4 [64]
0	0xbd286857	-0.04111513
1	0xbe1840af	-0.14868425
2	0x3cebb598	0.028773114
3	0x3d81ebd1	0.063438065
4	0xbd8f615d	-0.070009924
5	0xbdf9930e	-0.121862516
6	0x3d35f821	0.044426087
7	0x3eb1f4b8	0.34757018
8	0xbe14d321	-0.14533664
9	0xbe1d9998	-0.15390623
10	0x3f5f53ba	0.8723713
11	0xbd4f164d	-0.050558377
12	0x3c14136e	0.0090378355
13	0xbe341f7a	-0.17590132
14	0x3f0ff883	0.56238574
15	0xbdccaccd	-0.09993897
16	0xbe0dccae	-0.1384761
17	0xbe02ff18	-0.12792623
18	0xbe7b24b9	-0.24525727
19	0xbd89becf	-0.06725847
20	0x3d159436	0.036518298
21	0x3f06dd50	0.52681446
22	0xbe16382a	-0.14669862
23	0xbdf617b7	-0.12016242
24	0xbe0d5799	-0.13802947
25	0xbd5bd313	-0.053668093
26	0x3f50869a	0.81455386
27	0xbe24d11c	-0.16095394
28	0x3da8de64	0.08245543
29	0x3f84526a	1.0337651
30	0x3d7b82eb	0.06140415
31	0xbdf6e13c	-0.12054679
32	0x3ee9fa66	0.4569885
33	0xbdf99690	-0.12186921
34	0xbe219d55	-0.15782674
35	0x3eb38b05	0.35067
36	0xbda2c2b8	-0.07947296
37	0x3c9ba46e	0.018999305
38	0x3dcc9aa9	0.099904366
39	0x3d2edbba	0.042690016
40	0x3dddff3e	0.10839699
41	0x3d1f4af6	0.038889848
42	0x3f456d5c	0.77119994
43	0x3d8554e0	0.06510329
44	0xbda3b6f4	-0.0799388
45	0x3f8fea97	1.1243466
46	0xbd5c2659	-0.05374751
47	0xbdc8ea9a	-0.09810372
48	0xbe013447	-0.12617598
49	0x3f77e18d	0.9682854
50	0x3c9d1873	0.019176697
51	0xbc015568	-0.007893898
52	0xbe20f744	-0.15719324
53	0xbe25f57c	-0.16206926
54	0x3f52424b	0.82132405
55	0x3e971299	0.29506376
56	0x3db922ae	0.09039818
57	0xbd2ab48d	-0.041676093
58	0x3e9b6022	0.3034678
59	0xbd787ff2	-0.060668893
60	0xbe38f2a5	-0.18061312
61	0x3b8daa73	0.0043232976
62	0xbd0af8cd	-0.03392868
63	0x3e5178ea	0.20456281

encoder.linear2.weight f4 [2, 64]
0	0xbd4d111a	-0.050065137
1	0x3cf1dab6	0.029523235
2	0xbcab7320	-0.02092892
3	0xbbe28c52	-0.0069137
4	0x3d7bae65	0.061445612
5	0x3e89a874	0.26886332
6	0xbcdbd4e7	-0.026834918
7	0xbc30add3	-0.01078363
8	0x3ccc4ebb	0.024939885
9	0x3ccaba76	0.024747115
10	0xbe43f47d	-0.19136234
11	0x3a01966a	0.0004943373
12	0xbdc48e02	-0.09597398
13	0x3d31cce2	0.043408282
14	0xbd1a8d0b	-0.037732165
15	0x3d0fa080	0.035065174
16	0x3bbf8aa0	0.005845383
17	0x39d84d90	0.0004125652
18	0x3c755ba2	0.01497546
19	0xbdc40e74	-0.09573069
20	0xbe1057cd	-0.14095993
21	0xbcffd2f5	-0.031228522
22	0x3d9f7354	0.07785669
23	0x3cff7c05	0.031187067
24	0x3b122463	0.002229952
25	0x3da17226	0.078831
26	0xbe7e2424	-0.24818474
27	0xbdc75f35	-0.09734956
28	0x3d5409e0	0.05176723
29	0xbecd937c	-0.40151584
30	0x3d47e950	0.04880649
31	0xbccaea24	-0.02476985
32	0xbedbe8f1	-0.42951158
33	0xbdeb6584	-0.11493972
34	0x3d597b52	0.053096123
35	0xbc802d2e	-0.015646543
36	0xbdb09020	-0.0862124
37	0x3b5a37a3	0.0033297322
38	0x3e577045	0.21038921
39	0x3c22f8a9	0.0099469805
40	0xbb92cb1b	-0.0044797785
41	0xbd7176e0	-0.05895126
42	0xbe2ac7e1	-0.1667781
43	0xbc59fa0f	-0.0133042475
44	0x3d476c76	0.04868742
45	0xbeb0fa68	-0.34566045
46	0xbb15786c	-0.0022807373
47	0x3d356531	0.044285957
48	0xbd0cc087	-0.034363296
49	0xbf23dc3e	-0.6400794
50	0x3af13f41	0.0018405692
51	0x3cba941b	0.0227757
52	0x3d859423	0.065223955
53	0xbd5ccf31	-0.05390853
54	0xbe719d1f	-0.23595093
55	0xbd151505	-0.036397
56	0xb94cc0c6	-0.0001952677
57	0xb91b8016	-0.00014829668
58	0xbb3cb8e4	-0.0028796727
59	0x3dd99ca1	0.10625578
60	0x3b288225	0.0025712338
61	0x3b65c244	0.0035058418
62	0x3d69168e	0.056906275
63	0xbb875574	-0.00413006
64	0x3d82cc74	0.063866526
65	0xbd228cf2	-0.039685197
66	0xbc9b975a	-0.018993068
67	0xbe6f5f7c	-0.23376268
68	0x3cd205c1	0.02563751
69	0x3c9ce92c	0.019154154
70	0xbd8bf105	-0.0683308
71	0xbf0e7a1d	-0.5565508
72	0xbe82e366	-0.25564116
73	0x3d669612	0.056295462
74	0xbe34cc73	-0.17656116
75	0xbe9c6a97	-0.30550072
76	0xbd9b111e	-0.07571624
77	0xbf18a9f3	-0.5963432
78	0xbdf607c0	-0.12013197
79	0x3c9a00ab	0.018799147
80	0x3c865dcf	0.016402153
81	0xbe8ec224	-0.27882493
82	0x3e551f29	0.20812668
83	0x3ce826e2	0.028338853
84	0x3e585db0	0.21129489
85	0xbdfa4477	-0.1222009
86	0x3da27e9f	0.07934307
87	0x3d81dc00	0.0634079
88	0xbe5c3f7d	-0.21508594
89	0xbd690643	-0.056890737
90	0xbed18f69	-0.40929726
91	0xbb9560e1	-0.004558668
92	0xbe13b2f6	-0.14423737
93	0xbe766968	-0.24063647
94	0x3cb7e2a0	0.02244693
95	0xbd448cc8	-0.047985822
96	0xbceab5c3	-0.028651124
97	0x3d964d2e	0.073389396
98	0x3da5b393	0.08090892
99	0xbd3edb5a	-0.04659591
100	0x3de181ac	0.11011061
101	0xbece7be3	-0.40328893
102	0xbeb9a003	-0.36254892
103	0x3c830a68	0.015996173
104	0xbe1202ea	-0.14258924
105	0xbe05453c	-0.13014692
106	0xbe8b308e	-0.27185482
107	0xbe1fe044	-0.15612894
108	0x3d4e0cd2	0.050305195
109	0xbf03fec6	-0.5156063
110	0xbc8921f6	-0.016739827
111	0xbc7a5bf1	-0.01528071
112	0x3d100e4c	0.035169885
113	0xbe1ecde4	-0.15508229
114	0x3cefe0b3	0.02928195
115	0xbcfc9a8e	-0.030835416
116	0x3d93ecfb	0.07222935
117	0x3d9afda0	0.075679064
118	0xbe06dd94	-0.13170463
119	0xbf1c0364	-0.60942674
120	0xbea3b108	-0.31971002
121	0xbe8d43d3	-0.27590808
122	0xbe6207c9	-0.22073282
123	0x3de9a59a	0.11408539
124	0xbedbd982	-0.42939383
125	0xbe0260d4	-0.1273225
126	0x3e13bcfd	0.14427562
127	0xbe0f3537	-0.13985144

encoder.linear2.bias f4 [2]
0	0xbe245ad5	-0.16050275
1	0xbee26b0e	-0.442223

encoder.network.0.weight f4 [64, 50]
0	0xbe8b10df	-0.2716131
1	0xbe84970e	-0.25896496
2	0xbc110463	-0.0088511435
3	0xbeaaba8a	-0.33345443
4	0xbe0de882	-0.13858226
5	0xbdff7e55	-0.12475268
6	0x3d327923	0.043572556
7	0xbc041690	-0.00806202
8	0xbc8b7d32	-0.017027471
9	0xbe39bcc4	-0.18138415
10	0xbeb1af4e	-0.3470406
11	0xbe729eba	-0.23693362
12	0xbe898322	-0.2685786
13	0x3e22205c	0.15832657
14	0xbcfe1bfa	-0.0310192
15	0xbe9eca70	-0.31013823
16	0xbe888914	-0.26667082
17	0xbe6bca56	-0.23026404
18	0xbe01eb8a	-0.12687507
19	0xbd72e276	-0.059298
20	0xbe957f41	-0.2919865
21	0xbd881f9f	-0.06646656
22	0xbe84c06b	-0.25928053
23	0xbd65d190	-0.056108057
24	0xbe41cdb2	-0.18926123
25	0xbd5b4f2f	-0.053542312
26	0xbdcec3af	-0.100959174
27	0xbe22513d	-0.15851302
28	0xbe2f97cb	-0.17147748
29	0xbe60d6b6	-0.21956906
30	0xbd9577e7	-0.0729826
31	0xbec23524	-0.37931168
32	0xbd95f2f5	-0.07321731
33	0xbe0b24cb	-0.13588254
34	0xbe957b14	-0.29195464
35	0xbe96b508	-0.2943499
36	0xbe91798f	-0.28413054
37	0x3df0f76d	0.11765943
38	0xbebd3560	-0.36954784
39	0xbe12067a	-0.14260283
40	0x3e3183de	0.1733546
41	0xbe30dcd6	-0.17271742
42	0x3e5ea3e2	0.21742204
43	0x3e70a772	0.23501375
44	0x3ddc2a59	0.10750265
45	0xbd93c033	-0.072143935
46	0x3e6cb650	0.23116422
47	0x3d38d615	0.04512604
48	0x3ea48967	0.3213608
49	0xbe416581	-0.18886377
50	0xbd98417c	-0.07434365
51	0xbaad8ee8	-0.0013241442
52	0xbd2e4b58	-0.042552322
53	0xbd2b3587	-0.041799095
54	0x3ddef9c3	0.10887482
55	0xbd71a573	-0.058995675
56	0xbdc7c815	-0.097549595
57	0xbde53e84	-0.111935645
58	0x3dfa4c70	0.122216105
59	0x3de66bfb	0.112510644
60	0x3d5d73ac	0.05406539
61	0xbd7eb140	-0.062180758
62	0x3d1037ed	0.035209585
63	0xbe75a50d	-0.23988743
64	0x3e3dac56	0.18522772
65	0xbd155276	-0.036455594
66	0x3e236dc7	0.15959845
67	0x3d972ca1	0.07381559
68	0x3da5cb09	0.080953665
69	0xbbe7e1bc	-0.00707647
70	0xbe9eefa1	-0.31042197
71	0x3cf584af	0.029970495
72	0x3e3d3be6	0.1847988
73	0x3e76d2fd	0.24103923
74	0x3d5d3d5f	0.054013606
75	0xbe2b73b7	-0.1674336
76	0xbda405f9	-0.08008952
77	0x3df19a99	0.11797065
78	0x3c1b3233	0.009472418
79	0x3e3d7e56	0.18505225
80	0xbe7061bd	-0.23474784
81	0xbdd365d4	-0.103221565
82	0xbea8affe	-0.3294677
83	0xbddcc908	-0.10780531
84	0xbe3fd950	-0.18735242
85	0xbeca0df2	-0.39463764
86	0xbe7cc537	-0.24684606
87	0xbdf8f1c3	-0.121554874
88	0xbdc564f6	-0.096383974
89	0xbe3eba5e	-0.18625781
90	0x3f1605bc	0.586025
91	0x3e908e92	0.28233773
92	0x3da120d7	0.07867592
93	0x3e469fcc	0.19396895
94	0x3e562814	0.20913726
95	0x3e5a4a00	0.21317291
96	0x3d7a9081	0.061172966
97	0x3e0b5516	0.13606676
98	0x3e9b05df	0.30277917
99	0x3ce547e8	0.02798839
100	0xbc8988b5	-0.01678882
101	0xbdf721de	-0.120670065
102	0xbde8c2da	-0.1136529
103	0x3b7e8023	0.00388337
104	0xbc8bc9e8	-0.01706405
105	0xbd84b7a8	-0.06480342
106	0x3d2f45cc	0.042791173
107	0x3c05c368	0.008164264
108	0x3bfe906c	0.0077686813
109	0xbdb40002	-0.08789064
110	0x3ccaafbc	0.024742
111	0x3dd44131	0.10363997
112	0xbd66628f	-0.056246337
113	0xbd93f836	-0.07225077
114	0xbc3f633f	-0.011681377
115	0xbd09662f	-0.033544715
116	0xbd667951	-0.05626804
117	0xbb116176	-0.0022183335
118	0xbcf17604	-0.02947522
119	0xbcb6dd14	-0.022322215
120	0x3a4aef90	0.0007741386
121	0x3ddd0508	0.10791975
122	0x3d835320	0.06412339
123	0x3d80d6dc	0.06290981
124	0xbd35e977	-0.044412103
125	0xbdce8f6e	-0.10085951
126	0xbce46202	-0.027878765
127	0xbda4e658	-0.08051747
128	0xbe243c0d	-0.16038533
129	0xbdcbbe8e	-0.09948455
130	0xbdbb9c3e	-0.0916066
131	0x3dcb6ce7	0.09932881
132	0xbcf38d40	-0.02973044
133	0xbe1f4d60	-0.1555686
134	0xbbe9e01b	-0.007137311
135	0x3dc6bbe0	0.09703803
136	0xbd987179	-0.07443518
137	0x3b68b8d0	0.0035510547
138	0xbc8219b1	-0.015881391
139	0xbe10f224	-0.1415487
140	0x3d76bed0	0.060240567
141	0x3d4f1e3d	0.050565947
142	0x3dd782a8	0.105229676
143	0x3e1f5475	0.15559562
144	0x3e160e1d	0.14653821
145	0xbc8e5ec2	-0.017379168
146	0xbca82b74	-0.020528533
147	0xbd32c8ac	-0.043648407
148	0xbd7252fe	-0.05916118
149	0xbd4ed200	-0.05049324
150	0xbc8359fb	-0.016034117
151	0xbc3253fb	-0.01088428
152	0xbd91960b	-0.071086966
153	0xbd3356f1	-0.043784086
154	0x3d43de2b	0.047819298
155	0x3d228257	0.039675083
156	0x3d4c0819	0.04981241
157	0x3e04a365	0.12952955
158	0x3dd5a471	0.10431755
159	0xbd84508b	-0.06460675
160	0x3dadaa8e	0.08479796
161	0xbe2b6592	-0.16737965
162	0x3d9a8d5c	0.075464934
163	0x3e05c01b	0.13061564
164	0xbc686092	-0.01418318
165	0x3da21ad8	0.07915276
166	0xbc647747	-0.013944454
167	0xbd9b1fe6	-0.075744435
168	0xbddf80a8	-0.10913211
169	0xbe2f5d1b	-0.1712536
170	0xbdf8a286	-0.12140374
171	0xbdb1dc9f	-0.08684658
172	0xbdf2facd	-0.11864243
173	0x3db691f2	0.089145556
174	0xbbaf974f	-0.0053586136
175	0xbd8c9587	-0.068644576
176	0xbe007780	-0.12545586
177	0x3d8e58af	0.06950509
178	0xbd0b1e11	-0.03396422
179	0xbd26b5ea	-0.04070083
180	0x3d9ebaac	0.077504486
181	0xbe3d65b2	-0.18495825
182	0xbe0b47f4	-0.13601667
183	0x3dd69bc1	0.104789265
184	0x3daebd21	0.08532167
185	0xbd0c1a5a	-0.03420482
186	0xbcff1194	-0.031136312
187	0xbdd3e327	-0.1034606
188	0xbdcc0add	-0.099630095
189	0x3d8ec1c4	0.069705516
190	0x3dfcbc89	0.12340648
191	0xbcdbca7e	-0.026829954
192	0x3e0002c4	0.12501055
193	0xbd9f5d84	-0.077815086
194	0x3e02b255	0.12763341
195	0xbda789a4	-0.0818055
196	0x3d162695	0.03665789
197	0x3d7f5ff1	0.062347356
198	0x3e426a35	0.18985827
199	0x3d2a1a14	0.041528776
200	0x3d5bfdde	0.053708903
201	0x3b284f0a	0.0025681877
202	0x3cc54ae3	0.02408356
203	0x3d7721bc	0.060334906
204	0xbdb006a0	-0.085950136
205	0xbc7cf3bc	-0.01543897
206	0x3cf8ec7e	0.030386206
207	0xbd3b23fa	-0.045688607
208	0x3d7c58ea	0.061608233
209	0xbd90cee1	-0.07070709
210	0xbd124896	-0.035713755
211	0x3db24ccb	0.08706053
212	0x3d87cb4f	0.06630575
213	0xbe0579ef	-0.13034795
214	0xbe0c151a	-0.13679925
215	0xbdff4936	-0.12465136
216	0x3c7f005d	0.015564051
217	0xbe03364c	-0.12813681
218	0xbdfd3e51	-0.123654015
219	0xbe1f55ea	-0.15560117
220	0xbe0b63eb	-0.13612334
221	0xbe07cfa9	-0.1326281
222	0x3d9466cb	0.07246169
223	0x3de12a5d	0.10994408
224	0xbcde5d3d	-0.027144069
225	0xbdce55ca	-0.10074957
226	0xbdb5cc3c	-0.08876845
227	0x3dbf3f16	0.093382046
228	0x3c1618c2	0.009161176
229	0xbd683647	-0.056692388
230	0xbd0dd303	-0.034625065
231	0xbe03c90c	-0.12869662
232	0x3d25a512	0.040440626
233	0x3cfae75d	0.0306279
234	0x3d16c46b	0.036808413
235	0xbdb27992	-0.08714594
236	0xbde76536	-0.11298601
237	0xbce5f43f	-0.028070567
238	0x3dd72756	0.105055496
239	0x3d4e3384	0.050342098
240	0xbb9cab03	-0.0047811284
241	0x3e0a39f1	0.13498665
242	0x3e0c0d95	0.13677056
243	0xbdaabe48	-0.083370745
244	0x3d9cdb74	0.07659045
245	0x3d801dda	0.06255694
246	0x3dbed683	0.093182586
247	0x3e03c2d8	0.12867296
248	0x3d9f24ef	0.077707164
249	0x3d794e20	0.06086552
250	0x3eaa54ef	0.33267924
251	0x3e0b789d	0.13620229
252	0x3e348ea3	0.17632537
253	0xbd315754	-0.043296173
254	0xbe8031a4	-0.25037873
255	0xbc4adfb6	-0.012382438

encoder.network.0.bias f4 [64]
0	0xbd286857	-0.04111513
1	0xbe1840af	-0.14868425
2	0x3cebb598	0.028773114
3	0x3d81ebd1	0.063438065
4	0xbd8f615d	-0.070009924
5	0xbdf9930e	-0.121862516
6	0x3d35f821	0.044426087
7	0x3eb1f4b8	0.34757018
8	0xbe14d321	-0.14533664
9	0xbe1d9998	-0.15390623
10	0x3f5f53ba	0.8723713
11	0xbd4f164d	-0.050558377
12	0x3c14136e	0.0090378355
13	0xbe341f7a	-0.17590132
14	0x3f0ff883	0.56238574
15	0xbdccaccd	-0.09993897
16	0xbe0dccae	-0.1384761
17	0xbe02ff18	-0.12792623
18	0xbe7b24b9	-0.24525727
19	0xbd89becf	-0.06725847
20	0x3d159436	0.036518298
21	0x3f06dd50	0.52681446
22	0xbe16382a	-0.14669862
23	0xbdf617b7	-0.12016242
24	0xbe0d5799	-0.13802947
25	0xbd5bd313	-0.053668093
26	0x3f50869a	0.81455386
27	0xbe24d11c	-0.16095394
28	0x3da8de64	0.08245543
29	0x3f84526a	1.0337651
30	0x3d7b82eb	0.06140415
31	0xbdf6e13c	-0.12054679
32	0x3ee9fa66	0.4569885
33	0xbdf99690	-0.12186921
34	0xbe219d55	-0.15782674
35	0x3eb38b05	0.35067
36	0xbda2c2b8	-0.07947296
37	0x3c9ba46e	0.018999305
38	0x3dcc9aa9	0.099904366
39	0x3d2edbba	0.042690016
40	0x3dddff3e	0.10839699
41	0x3d1f4af6	0.038889848
42	0x3f456d5c	0.77119994
43	0x3d8554e0	0.06510329
44	0xbda3b6f4	-0.0799388
45	0x3f8fea97	1.1243466
46	0xbd5c2659	-0.05374751
47	0xbdc8ea9a	-0.09810372
48	0xbe013447	-0.12617598
49	0x3f77e18d	0.9682854
50	0x3c9d1873	0.019176697
51	0xbc015568	-0.007893898
52	0xbe20f744	-0.15719324
53	0xbe25f57c	-0.16206926
54	0x3f52424b	0.82132405
55	0x3e971299	0.29506376
56	0x3db922ae	0.09039818
57	0xbd2ab48d	-0.041676093
58	0x3e9b6022	0.3034678
59	0xbd787ff2	-0.060668893
60	0xbe38f2a5	-0.18061312
61	0x3b8daa73	0.0043232976
62	0xbd0af8cd	-0.03392868
63	0x3e5178ea	0.20456281

encoder.network.2.weight f4 [2, 64]
0	0xbd4d111a	-0.050065137
1	0x3cf1dab6	0.029523235
2	0xbcab7320	-0.02092892
3	0xbbe28c52	-0.0069137
4	0x3d7bae65	0.061445612
5	0x3e89a874	0.26886332
6	0xbcdbd4e7	-0.026834918
7	0xbc30add3	-0.01078363
8	0x3ccc4ebb	0.024939885
9	0x3ccaba76	0.024747115
10	0xbe43f47d	-0.19136234
11	0x3a01966a	0.0004943373
12	0xbdc48e02	-0.09597398
13	0x3d31cce2	0.043408282
14	0xbd1a8d0b	-0.037732165
15	0x3d0fa080	0.035065174
16	0x3bbf8aa0	0.005845383
17	0x39d84d90	0.0004125652
18	0x3c755ba2	0.01497546
19	0xbdc40e74	-0.09573069
20	0xbe1057cd	-0.14095993
21	0xbcffd2f5	-0.031228522
22	0x3d9f7354	0.07785669
23	0x3cff7c05	0.031187067
24	0x3b122463	0.002229952
25	0x3da17226	0.078831
26	0xbe7e2424	-0.24818474
27	0xbdc75f35	-0.09734956
28	0x3d5409e0	0.05176723
29	0xbecd937c	-0.40151584
30	0x3d47e950	0.04880649
31	0xbccaea24	-0.02476985
32	0xbedbe8f1	-0.42951158
33	0xbdeb6584	-0.11493972
34	0x3d597b52	0.053096123
35	0xbc802d2e	-0.015646543
36	0xbdb09020	-0.0862124
37	0x3b5a37a3	0.0033297322
38	0x3e577045	0.21038921
39	0x3c22f8a9	0.0099469805
40	0xbb92cb1b	-0.0044797785
41	0xbd7176e0	-0.05895126
42	0xbe2ac7e1	-0.1667781
43	0xbc59fa0f	-0.0133042475
44	0x3d476c76	0.04868742
45	0xbeb0fa68	-0.34566045
46	0xbb15786c	-0.0022807373
47	0x3d356531	0.044285957
48	0xbd0cc087	-0.034363296
49	0xbf23dc3e	-0.6400794
50	0x3af13f41	0.0018405692
51	0x3cba941b	0.0227757
52	0x3d859423	0.065223955
53	0xbd5ccf31	-0.05390853
54	0xbe719d1f	-0.23595093
55	0xbd151505	-0.036397
56	0xb94cc0c6	-0.0001952677
57	0xb91b8016	-0.00014829668
58	0xbb3cb8e4	-0.0028796727
59	0x3dd99ca1	0.10625578
60	0x3b288225	0.0025712338
61	0x3b65c244	0.0035058418
62	0x3d69168e	0.056906275
63	0xbb875574	-0.00413006
64	0x3d82cc74	0.063866526
65	0xbd228cf2	-0.039685197
66	0xbc9b975a	-0.018993068
67	0xbe6f5f7c	-0.23376268
68	0x3cd205c1	0.02563751
69	0x3c9ce92c	0.019154154
70	0xbd8bf105	-0.0683308
71	0xbf0e7a1d	-0.5565508
72	0xbe82e366	-0.25564116
73	0x3d669612	0.056295462
74	0xbe34cc73	-0.17656116
75	0xbe9c6a97	-0.30550072
76	0xbd9b111e	-0.07571624
77	0xbf18a9f3	-0.5963432
78	0xbdf607c0	-0.12013197
79	0x3c9a00ab	0.018799147
80	0x3c865dcf	0.016402153
81	0xbe8ec224	-0.27882493
82	0x3e551f29	0.20812668
83	0x3ce826e2	0.028338853
84	0x3e585db0	0.21129489
85	0xbdfa4477	-0.1222009
86	0x3da27e9f	0.07934307
87	0x3d81dc00	0.0634079
88	0xbe5c3f7d	-0.21508594
89	0xbd690643	-0.056890737
90	0xbed18f69	-0.40929726
91	0xbb9560e1	-0.004558668
92	0xbe13b2f6	-0.14423737
93	0xbe766968	-0.24063647
94	0x3cb7e2a0	0.02244693
95	0xbd448cc8	-0.047985822
96	0xbceab5c3	-0.028651124
97	0x3d964d2e	0.073389396
98	0x3da5b393	0.08090892
99	0xbd3edb5a	-0.04659591
100	0x3de181ac	0.11011061
101	0xbece7be3	-0.40328893
102	0xbeb9a003	-0.36254892
103	0x3c830a68	0.015996173
104	0xbe1202ea	-0.14258924
105	0xbe05453c	-0.13014692
106	0xbe8b308e	-0.27185482
107	0xbe1fe044	-0.15612894
108	0x3d4e0cd2	0.050305195
109	0xbf03fec6	-0.5156063
110	0xbc8921f6	-0.016739827
111	0xbc7a5bf1	-0.01528071
112	0x3d100e4c	0.035169885
113	0xbe1ecde4	-0.15508229
114	0x3cefe0b3	0.02928195
115	0xbcfc9a8e	-0.030835416
116	0x3d93ecfb	0.07222935
117	0x3d9afda0	0.075679064
118	0xbe06dd94	-0.13170463
119	0xbf1c0364	-0.60942674
120	0xbea3b108	-0.31971002
121	0xbe8d43d3	-0.27590808
122	0xbe6207c9	-0.22073282
123	0x3de9a59a	0.11408539
124	0xbedbd982	-0.42939383
125	0xbe0260d4	-0.1273225
126	0x3e13bcfd	0.14427562
127	0xbe0f3537	-0.13985144

encoder.network.2.bias f4 [2]
0	0xbe245ad5	-0.16050275
1	0xbee26b0e	-0.442223

decoder.Aj f4 [50, 1]
0	0x3eafb511	0.3431783
1	0x3f9e66df	1.2375144
2	0x3f70ef00	0.94114685
3	0x3f83871c	1.0275607
4	0x3f5dab04	0.86589074
5	0x3f056978	0.5211406
6	0x3e6ce397	0.23133694
7	0xbd4a1c8e	-0.049343638
8	0x3f937443	1.1519855
9	0xbf3b1bb1	-0.7308913
10	0x3d8006b7	0.06251281
11	0x3f8d666f	1.1046885
12	0x3de083e6	0.10962658
13	0x3f11eed4	0.5700505
14	0xbe3420ad	-0.1759059
15	0x3f9b6167	1.21391
16	0x3f2c3138	0.672626
17	0x3fb0b23a	1.380439
18	0xbf171eeb	-0.5903155
19	0xbe27d0fe	-0.16388318
20	0x3f4e2d63	0.80538005
21	0xbeb2426f	-0.3481631
22	0x3f401d07	0.7504429
23	0x3fa6aae1	1.3020898
24	0x3f820c58	1.0160017
25	0xbf067912	-0.5252849
26	0x3e8a37a5	0.26995578
27	0xbe966fd8	-0.29382205
28	0x3ee0bf85	0.43896118
29	0x3f1d9cea	0.61567557
30	0x3f115610	0.56771946
31	0xbfa025a0	-1.2511482
32	0x3f99edf0	1.2025738
33	0x3fce7c52	1.613169
34	0xbebab73a	-0.36467916
35	0x3f3088d6	0.68958795
36	0xbf9b3633	-1.2125915
37	0xbfa99d80	-1.325119
38	0x3f7201ac	0.945338
39	0x3fe72cae	1.806051
40	0xbf5b6fbd	-0.85717374
41	0xbf18f386	-0.5974659
42	0xbf4e0592	-0.8047725
43	0xbf7d9389	-0.99053246
44	0xbeecfa9b	-0.46284947
45	0xbf6872ba	-0.9080006
46	0xbf2f0ed0	-0.6838198
47	0xbf3a418c	-0.72756267
48	0xbf834647	-1.0255822
49	0xbf266071	-0.6499091

decoder.c f4 [50]
0	0x3f2970a8	0.66187525
1	0x3f221419	0.63311917
2	0x3f350461	0.70709807
3	0x3f2c5825	0.67322
4	0x3f1d2b4e	0.613942
5	0x3f3148b9	0.6925159
6	0x3f1adfe4	0.6049788
7	0x3f20f9b7	0.62881035
8	0x3f29cc5e	0.66327465
9	0x3f1a702f	0.6032743
10	0x3f1a10e6	0.60182035
11	0x3f240f6b	0.64086026
12	0x3f20038b	0.62505406
13	0x3f275602	0.6536561
14	0x3f37c218	0.7178054
15	0x3f28703b	0.6579625
16	0x3f2bef71	0.67162234
17	0x3f295972	0.6615211
18	0x3f2df7ec	0.67956424
19	0x3f1fd0a6	0.6242775
20	0x3f25e41c	0.6480119
21	0x3f2ffdbf	0.6874656
22	0x3f2178d2	0.6307498
23	0x3f24fcf8	0.644485
24	0x3f2fc407	0.6865849
25	0x3f09200c	0.53564525
26	0x3f29e311	0.663621
27	0x3f24d9c6	0.64394796
28	0x3f28baf0	0.65910244
29	0x3f32eb74	0.6989052
30	0xbec0916e	-0.37610954
31	0x3f185821	0.59509474
32	0xbe352161	-0.17688514
33	0xbe5c17cd	-0.21493454
34	0x3e080b7f	0.13285635
35	0xbd90c478	-0.070687234
36	0x3f4575ab	0.7713267
37	0x3f470f54	0.77757764
38	0xbedcd8b1	-0.43134072
39	0xbe289c2a	-0.16465822
40	0x3fa27718	1.2692595
41	0x3f9a5361	1.2056695
42	0x3f9db9d6	1.2322338
43	0x3f9d8f22	1.2309306
44	0x3fa2e085	1.2724768
45	0x3fb9c683	1.4513706
46	0x3fc273b3	1.5191559
47	0x3fe28380	1.7696381
48	0x3fbdd3a0	1.4830208
49	0x3fd91bb1	1.6961576

decoder.qphi_logits f4 [50, 3]
0	0xc034e3b7	-2.8263986
1	0xc046ddf6	-3.1072974
2	0x40bad6bd	5.838713
3	0xc00e8eb3	-2.2274597
4	0xbf6c34cf	-0.9226808
5	0x40f3f332	7.623437
6	0xc00779e6	-2.116815
7	0xbd27bc39	-0.040950987
8	0x40f95885	7.7920556
9	0xc00604c3	-2.0940406
10	0xc025b77b	-2.5893238
11	0x40df358a	6.9752855
12	0xc056ccd9	-3.356253
13	0xc05a8052	-3.414082
14	0x40bc194c	5.878088
15	0xc051b405	-3.2766125
16	0xc041d469	-3.0285895
17	0x40b65737	5.6981463
18	0xbf9cd05a	-1.2251084
19	0xc01ba22c	-2.4317732
20	0x40d96880	6.7940063
21	0xc034101d	-2.8134835
22	0xc047cf35	-3.122022
23	0x40a7751a	5.2330446
24	0xc0469b98	-3.1032467
25	0xc0360ae9	-2.844416
26	0x40d1a9d9	6.5519834
27	0xc0282fd6	-2.6279197
28	0xbfbf05a1	-1.4923593
29	0x40871a7d	4.2219834
30	0xc03f8b2e	-2.9928699
31	0xc04b56d4	-3.1771746
32	0x40b99eed	5.80065
33	0xc04bf301	-3.1867068
34	0xc0519ede	-3.2753215
35	0x40c548c9	6.165135
36	0xc041c1fc	-3.0274649
37	0xc0386036	-2.8808722
38	0x40a4e273	5.1526427
39	0xbf0db912	-0.5536052
40	0xc009fcef	-2.1560628
41	0x40f07539	7.5143094
42	0xc042cfdc	-3.0439367
43	0xbfa75e02	-1.3075564
44	0x40a432f4	5.13122
45	0xbfeded39	-1.858802
46	0xc0226bfc	-2.5378408
47	0x40e2dec1	7.0896916
48	0xc032476c	-2.7856092
49	0xbf9c19f1	-1.2195417
50	0x40cf0e1c	6.4704723
51	0xc01a07bd	-2.4067223
52	0xc03243af	-2.785381
53	0x40dae376	6.840266
54	0xbff506da	-1.9142716
55	0xc0175f74	-2.365201
56	0x40862c86	4.192935
57	0xc03e25f1	-2.9710658
58	0xbfd7acc3	-1.6849598
59	0x40b6f492	5.717355
60	0xbfa447b9	-1.2834388
61	0xc0143cf4	-2.3162203
62	0x40e74873	7.227594
63	0xc02f0bf8	-2.7351055
64	0xc006adb9	-2.1043532
65	0x40905eac	4.5115566
66	0xc057aec9	-3.370043
67	0xc055f023	-3.3427818
68	0x40c53cff	6.163696
69	0xc05aa031	-3.4160273
70	0xc05d604f	-3.4590032
71	0x40c87f50	6.265541
72	0xc05776e4	-3.3666315
73	0xc05d5458	-3.458273
74	0x40bee335	5.965235
75	0xbfe34c9e	-1.7757757
76	0xc03ba9d2	-2.93224
77	0x409a3b37	4.8197284
78	0xc04bcc64	-3.18435
79	0xc0070504	-2.1096811
80	0x40af0503	5.469362
81	0xc0368dbd	-2.852401
82	0xc003936d	-2.0558732
83	0x4094379e	4.631789
84	0xc04ba771	-3.1820948
85	0xc054777a	-3.3197923
86	0x40b03f7c	5.5077496
87	0xc00d5a1c	-2.2086248
88	0xbeab8950	-0.335032
89	0x40ea53e0	7.3227386
90	0x40b925a8	5.7858467
91	0xc04eb81f	-3.2299879
92	0xc03b6628	-2.9281101
93	0x40afdfb3	5.496057
94	0xbfc5c970	-1.5452099
95	0xbef9ac92	-0.48764473
96	0x40b2fc43	5.5932937
97	0xc061854c	-3.5237608
98	0xc03fa1aa	-2.9942422
99	0x40a733a5	5.2250543
100	0xc0677476	-3.6164832
101	0xbfe7a36b	-1.8096746
102	0x40c22e7c	6.0681744
103	0xc01cc5fe	-2.4495845
104	0xbfa0dbcf	-1.256708
105	0x40b70ddf	5.7204432
106	0xc054b336	-3.3234382
107	0xc04323d7	-3.0490625
108	0x40aab07b	5.334043
109	0xbfbc54f9	-1.4713432
110	0xbee16fb2	-0.4403053
111	0x40a83d83	5.2575088
112	0xbfd0e62e	-1.6320245
113	0xbe941c0a	-0.28927642
114	0x40b7dac4	5.745455
115	0xc0574654	-3.3636675
116	0xc048c516	-3.1370292
117	0x40a7e781	5.2470098
118	0xc06b45c4	-3.6761332
119	0xbff43521	-1.9078714
120	0xbfa283ef	-1.2696513
121	0x40cf43a3	6.4770064
122	0xbfbfa0eb	-1.4970983
123	0xbfaa995b	-1.332805
124	0x40d038c3	6.506929
125	0xbfcceb37	-1.6009282
126	0xbfa8ec2d	-1.3197075
127	0x40d20d4b	6.5641227
128	0xbfcb23b6	-1.5870273
129	0xbf983bf5	-1.1893297
130	0x40d33545	6.6002526
131	0xbfdf0682	-1.7423861
132	0xbf94be9f	-1.1620673
133	0x40cf748e	6.482978
134	0xbfcd1b31	-1.6023923
135	0xbf421f84	-0.7582934
136	0x40ce750e	6.451789
137	0xbfbf45b3	-1.4943146
138	0xbf3c298c	-0.73500896
139	0x40c9b944	6.3038654
140	0xbfa7846a	-1.3087285
141	0xbeaa9edc	-0.33324325
142	0x40c16cad	6.044516
143	0xbf972772	-1.1808913
144	0xbf689bb6	-0.90862596
145	0x40ca28c0	6.3174744
146	0xbfa79df2	-1.3095076
147	0xbf234337	-0.63774437
148	0x40c4355e	6.1315145
149	0xbf9299e8	-1.1453218

decoder.sigma f4 [50]
0	0xc00fda40	-2.247696
1	0xc00da0a1	-2.212929
2	0xc0115ecf	-2.2714117
3	0xc00d3f8d	-2.2070038
4	0xc00dce04	-2.2156992
5	0xc00eef6c	-2.2333632
6	0xc010a34d	-2.259967
7	0xc00d5236	-2.2081428
8	0xc00c523c	-2.1925192
9	0xc010cece	-2.2626224
10	0xc0118331	-2.2736323
11	0xc00c1e98	-2.1893673
12	0xc00a8689	-2.1644614
13	0xc011a385	-2.2756054
14	0xc00cc6e4	-2.1996393
15	0xc00ce3a0	-2.2013931
16	0xc00fdadd	-2.2477334
17	0xc00cc452	-2.1994824
18	0xc00ea9c2	-2.2291112
19	0xc0103435	-2.2531865
20	0xc00e8224	-2.2266932
21	0xc012d35f	-2.294151
22	0xc01032e7	-2.2531068
23	0xc00fbb70	-2.2458153
24	0xc00d9e2c	-2.212779
25	0xc01046db	-2.2543247
26	0xc010d790	-2.263157
27	0xc00aed48	-2.1707325
28	0xc012fdbc	-2.2967367
29	0xc00caaff	-2.1979368
30	0xc0101432	-2.2512326
31	0xc012179d	-2.2826912
32	0xc00f443b	-2.2385395
33	0xc00b1075	-2.1728795
34	0xc00d9383	-2.2121284
35	0xc00f0724	-2.2348108
36	0xc00ebcaf	-2.2302663
37	0xc00f1afa	-2.2360215
38	0xc0114cbf	-2.2703092
39	0xc00e63a5	-2.2248318
40	0xc00d056f	-2.2034566
41	0xc00bce09	-2.1844504
42	0xc00f2129	-2.236399
43	0xc00cd97c	-2.2007742
44	0xc00dd57c	-2.216155
45	0xc00da85e	-2.2134013
46	0xc00c9961	-2.1968615
47	0xc00f53f1	-2.2394984
48	0xc0133ac9	-2.300463
49	0xc010aad1	-2.2604258

decoder.zi f4 [50, 1]
0	0x3e240437	0.16017233
1	0xbf8010b2	-1.0005095
2	0xbfa10988	-1.2581034
3	0x3ebb0bf9	0.36532572
4	0xbea5b006	-0.32360858
5	0xbf01da02	-0.5072328
6	0x3f243014	0.6413586
7	0x3cbdea57	0.023183031
8	0xbf175838	-0.59118986
9	0xbf477748	-0.77916384
10	0x3dce7809	0.10081489
11	0xbd3b9f92	-0.045806475
12	0xbee61d9c	-0.44944465
13	0x3f30c32d	0.69047815
14	0xbf90454c	-1.1271148
15	0x3ed92cc5	0.4241697
16	0xbf8637af	-1.0485743
17	0x3e93bda6	0.28855628
18	0x3e64e3ed	0.22352572
19	0xbf6ba42c	-0.9204738
20	0x3f0f2fdd	0.5593241
21	0xbf2c4581	-0.67293555
22	0xbec9c542	-0.39408308
23	0xbe388723	-0.180203
24	0xbe81da02	-0.2536164
25	0x3ef8bdbf	0.48582265
26	0xbf59e804	-0.8511965
27	0xbf2fd187	-0.6867909
28	0xbdf12157	-0.11773937
29	0xbf9500fa	-1.1640923
30	0x3ed197e9	0.4093621
31	0x3f044e12	0.51681626
32	0x3f162afb	0.58659333
33	0x3f90ae71	1.1303235
34	0x3ef1c6c3	0.47221956
35	0x3efac39b	0.4897736
36	0x3f0d97b6	0.5530962
37	0x3f0947aa	0.53624976
38	0x3eff63e4	0.49880898
39	0x3f9447a8	1.1584368
40	0xbdc9a2b7	-0.098454885
41	0xbe1f26c5	-0.15542133
42	0xbde0f78d	-0.109847166
43	0xbdc90c1b	-0.09816762
44	0xbe125234	-0.1428917
45	0xbda20dab	-0.07912763
46	0xbd809eed	-0.06280313
47	0xbd7ddf2c	-0.06198041
48	0xbd5178f6	-0.051140748
49	0xbd8889cb	-0.06666907

decoder.z0 f4 [50, 1]
0	0xbcad4d24	-0.021154948
1	0xbcb9b861	-0.022670927
2	0xbbf5e8ac	-0.0075045433
3	0xbe87c73f	-0.265192
4	0x3e02b05a	0.12762585
5	0xbd7e186d	-0.062035013
6	0xbe8b7639	-0.27238634
7	0xbea576f0	-0.32317305
8	0xbe2d0083	-0.16894726
9	0x3e818658	0.2529781
10	0x3e98aa56	0.29817456
11	0xbd382d13	-0.04496486
12	0x3e9c5f4c	0.30541456
13	0xbd6f7a12	-0.058466025
14	0xbe67083c	-0.22561735
15	0xbcda41a3	-0.026642626
16	0x3bf1ae2c	0.0073754992
17	0xbd31f592	-0.043447085
18	0xbea0d5d0	-0.31413126
19	0x3e9e2321	0.30886176
20	0x3cc82885	0.024433384
21	0x3e56fb65	0.20994337
22	0x3d06f1d1	0.032945458
23	0xbe8b04a4	-0.27151978
24	0xbe9329bd	-0.2874278
25	0x3e8f66b0	0.28008032
26	0xbd7bbcaa	-0.06145922
27	0xbd327c06	-0.04357531
28	0xbd8f5eed	-0.070005275
29	0xbe9d7a8b	-0.30757555
30	0xbe8bcb71	-0.2730365
31	0xbb610f4b	-0.003434139
32	0xbea9b2f4	-0.33144343
33	0xbdab0744	-0.08350995
34	0x3e5c0b53	0.21488695
35	0xbcfb2fd2	-0.030662451
36	0xbd9085e7	-0.0705679
37	0x3e8f55e7	0.27995226
38	0xbde400db	-0.11132976
39	0x3e906718	0.28203654
40	0x3ea4419d	0.3208131
41	0x3d94e899	0.07270927
42	0x3e98d5de	0.29850668
43	0xbe66efe7	-0.22552453
44	0x3ea27dcd	0.31736603
45	0xbda32e8c	-0.079678625
46	0x3e81306d	0.25232258
47	0xbe2215fc	-0.15828699
48	0xbdd84261	-0.10559536
49	0x3e92d7b9	0.28680208

decoder.x0 f4 [1, 50]
0	0x3ebaa14c	0.36451185
1	0x3f1d0537	0.6133608
2	0x3efb1cf0	0.49045515
3	0x3f0b4bb9	0.5441242
4	0x3f029ce6	0.5102066
5	0x3ed03406	0.4066469
6	0x3ea8b6c6	0.32951945
7	0x3e905e44	0.2819692
8	0x3f18646d	0.5952824
9	0x3e2b400a	0.16723648
10	0x3e998081	0.29980853
11	0x3f14f7ed	0.58190805
12	0x3ea6d29a	0.3258255
13	0x3ecc460c	0.39897192
14	0x3e74dbc1	0.23911954
15	0x3f19bfbe	0.600582
16	0x3ee2b399	0.44277647
17	0x3f287b09	0.65812737
18	0x3e3bca1e	0.1833882
19	0x3e85465e	0.26030248
20	0x3ef2379b	0.4730805
21	0x3e5726f9	0.2101096
22	0x3ef635e2	0.48087984
23	0x3f26805d	0.65039617
24	0x3f0be2d1	0.5464297
25	0x3e45ebc7	0.19328223
26	0x3eb33fb4	0.3500954
27	0x3e6f485d	0.23367448
28	0x3ec8e174	0.39234507
29	0x3ed653f0	0.41860914
30	0x3ef11e02	0.47093207
31	0x3dd79b1d	0.105276324
32	0x3f342652	0.7037097
33	0x3f6d1e00	0.926239
34	0x3e7ee349	0.2489139
35	0x3efe1aab	0.4962972
36	0x3dde223f	0.10846376
37	0x3dcbffb0	0.09960878
38	0x3f21381a	0.6297623
39	0x3f7c98ec	0.9867084
40	0xbe9fa2b2	-0.31178814
41	0xbf176022	-0.5913106
42	0xbed6234a	-0.41823798
43	0xbf367d52	-0.71284974
44	0xbf5d016e	-0.86330307
45	0xbebf08f3	-0.37311515
46	0xbe9602d7	-0.29299042
47	0xbe4faf8c	-0.2028181
48	0xbe2ea058	-0.17053354
49	0xbe3ae6b0	-0.18252063

decoder.linear1.weight f4 [64, 1]
0	0x3f9d27dc	1.2277789
1	0x3fec4a22	1.8460124
2	0xbf72287f	-0.9459304
3	0xbda24e15	-0.07925049
4	0x3dc84e56	0.097805664
5	0xbd9ae0d4	-0.07562414
6	0x3e1af64b	0.15133016
7	0x3cd46d1f	0.02593094
8	0xbd7dd3f3	-0.06196971
9	0x3decf4b3	0.1157011
10	0xbe01a118	-0.12659109
11	0xbe14ae4b	-0.14519612
12	0xbdf9fc06	-0.12206273
13	0xc096fef8	-4.718624
14	0x3d7c39e6	0.061578654
15	0xbda9a800	-0.082839966
16	0x3de8ef77	0.11373799
17	0xbd92062e	-0.07130085
18	0x3da1fe7d	0.07909868
19	0xbdd3417e	-0.10315226
20	0x4001cd56	2.0281577
21	0x3f5aaf03	0.85423297
22	0x3d64c162	0.055848487
23	0xbdf46d81	-0.11934949
24	0xbc6d20fe	-0.014473198
25	0x3cb07c68	0.021543697
26	0x3dcd2e15	0.10018555
27	0xbb4625bd	-0.0030234896
28	0x3d8dc6b1	0.06922663
29	0xc00714ff	-2.1106565
30	0x3fa5bc50	1.2948093
31	0xbcd2558e	-0.025675561
32	0x3d499efc	0.049223885
33	0x3f91eedd	1.140102
34	0xbd9686f1	-0.07349957
35	0x3f673c4b	0.90326375
36	0xbd66916a	-0.05629102
37	0x3d223fc7	0.039611604
38	0x3f8f30fb	1.1186823
39	0xbfbfd5ee	-1.4987161
40	0xbdaec608	-0.08533865
41	0x3dcf26ac	0.10114798
42	0x3d9969ec	0.07490906
43	0xc0cfeb4c	-6.497473
44	0xb9847096	-0.00025260885
45	0xc00e8750	-2.2270088
46	0xbd59688b	-0.053078216
47	0x3ddb113e	0.10696648
48	0x3beb9ff0	0.007190697
49	0x39b30d84	0.0003415161
50	0x3d95a06f	0.07305991
51	0x3e0ad651	0.13558318
52	0xbeae3973	-0.34028205
53	0x3f3a98d1	0.7288943
54	0xbb604ab5	-0.0034224216
55	0x3d298026	0.041381977
56	0xbe0aa0d0	-0.13537908
57	0xbd8accf9	-0.06777377
58	0xbf53c741	-0.8272591
59	0xbf17684a	-0.5914351
60	0x3d971e9e	0.07378887
61	0xbdb5de6c	-0.08880314
62	0xbd9b1259	-0.07571859
63	0xbc2ce983	-0.01055372

decoder.linear1.bias f4 [64]
0	0x3f66f8ce	0.90223396
1	0xbf398861	-0.7247372
2	0xbe985cba	-0.29758245
3	0x3ed139a5	0.40864292
4	0xbe9a8a27	-0.30183527
5	0x3e61be4d	0.2204525
6	0xbdcb9221	-0.09939981
7	0xbedf297b	-0.43586335
8	0x3e90f3f0	0.2831111
9	0xbe8e3138	-0.27771926
10	0x3ddd0ad2	0.107930794
11	0x3e88a7fe	0.26690668
12	0x3e2a599f	0.1663575
13	0xbd296fe3	-0.04136647
14	0xbea64364	-0.3247329
15	0x3e6cbf7b	0.23119919
16	0xbd720304	-0.059084907
17	0x3ea78fa2	0.3272677
18	0xbe0a7b76	-0.13523659
19	0x3e9c0c7d	0.30478278
20	0x3f4f741e	0.81036556
21	0xbee39c8f	-0.44455382
22	0xbe7460e3	-0.23865084
23	0x3e406424	0.187882
24	0x3e58b4d9	0.21162738
25	0xbeae5d99	-0.34055784
26	0xbebb375a	-0.36565667
27	0xbe82720e	-0.25477642
28	0xbe414ff5	-0.18878157
29	0x3f3a85ca	0.72860396
30	0xbf2e2ca1	-0.6803685
31	0x3c802713	0.015643632
32	0xbd25fae7	-0.040522482
33	0x3f173b84	0.5907519
34	0x3e2b65f7	0.16738115
35	0x3ee3060d	0.44340554
36	0x3ef28b70	0.47372007
37	0xbe76bbf2	-0.24095133
38	0x3f0bf2d9	0.5466743
39	0x3f66896e	0.9005345
40	0x3e6c8dca	0.23100963
41	0xbeb2ea06	-0.3494417
42	0xbe1a8aa5	-0.15091951
43	0xbd1585f1	-0.03650469
44	0xb96919b5	-0.00022230188
45	0x3f656096	0.89600503
46	0x3ea1e830	0.31622458
47	0xbea28f1a	-0.31749803
48	0x3e12f783	0.1435223
49	0xba50c115	-0.0007963342
50	0xbdc230ad	-0.094819404
51	0xbea9a572	-0.33134037
52	0xbdc0cd1f	-0.09414124
53	0xbecafcb6	-0.39645928
54	0x3b0d0f98	0.0021524187
55	0xbc037522	-0.008023532
56	0x3e63c02f	0.22241281
57	0x3dbe56f3	0.09293928
58	0xbed59df9	-0.41722086
59	0xbe8d682f	-0.27618548
60	0xbeb1e6a2	-0.3474627
61	0x3e008251	0.12549712
62	0x3cbeb4ee	0.023279633
63	0xbe0b90af	-0.13629411

decoder.linear2.weight f4 [150, 64]
0	0xbd8ec71b	-0.0697157
1	0xbe2627bb	-0.16226093
2	0x3e762833	0.24038772
3	0xbee3bf21	-0.44481757
4	0x3e021b05	0.1270562
5	0xbdf19809	-0.117965765
6	0x3cd3498f	0.025791911
7	0x3f0484a6	0.51764905
8	0xbeb42dd9	-0.3519123
9	0x3d45f9be	0.048333876
10	0x3de0d97a	0.1097898
11	0xbe205590	-0.1565764
12	0xbddf6a40	-0.109089375
13	0x3cf9551b	0.03043609
14	0x3de63dd6	0.11242263
15	0xbe3e2c95	-0.18571694
16	0xbda5d9f0	-0.08098209
17	0xbefdf75e	-0.4960279
18	0x3cf6c55b	0.030123403
19	0xbe6d778b	-0.23190133
20	0xbe46282e	-0.19351265
21	0xbd38b996	-0.045098864
22	0x3e1ff301	0.15620042
23	0xbd72f2eb	-0.059313696
24	0xbeaa3184	-0.33240902
25	0x3ee47479	0.44620112
26	0x3df80161	0.12109638
27	0x3ea6f018	0.32605052
28	0x3e066bfc	0.1312713
29	0x3d47f14c	0.048814103
30	0x3c4e7798	0.012601756
31	0x3d44670b	0.047949832
32	0xbd786e1f	-0.060651895
33	0xbe2d4e8b	-0.16924493
34	0xbe5d0ff5	-0.21588118
35	0xbe603678	-0.21895778
36	0xbec48a3b	-0.3838671
37	0x3e10e53a	0.14149943
38	0xbebcaa0f	-0.36848494
39	0xbd1213c8	-0.035663396
40	0xbe8d97a5	-0.27654758
41	0x3e71fd89	0.23631872
42	0x3be95a8e	0.0071213907
43	0x3de8f8d6	0.11375587
44	0xbe24d2be	-0.16096017
45	0x3e3bab7c	0.18327135
46	0xbe970fad	-0.29504147
47	0x3e933e8d	0.2875866
48	0xbe8df6d5	-0.2772738
49	0x3cd348eb	0.025791606
50	0x3dae488d	0.08509932
51	0x3ddbc6a0	0.10731244
52	0x3e093c1c	0.13401836
53	0xbdc65600	-0.09684372
54	0xbcc4ce56	-0.02402417
55	0xbe40cdf2	-0.18828562
56	0xbe3b8963	-0.18314128
57	0xbec44ad5	-0.38338342
58	0x3e358a4b	0.17728536
59	0x3dae1bc9	0.08501393
60	0x3e5eb210	0.21747613
61	0xbe7f2a72	-0.24918535
62	0x3e340399	0.17579497
63	0x3e576117	0.2103313
64	0xbe61906b	-0.22027747
65	0x3e51cded	0.2048871
66	0x3ef07cdf	0.4697027
67	0xbf320eac	-0.6955364
68	0x3e9f329b	0.31093296
69	0xbec18c49	-0.37802342
70	0x3e180dbb	0.14848988
71	0x3f3983c1	0.72466666
72	0xbf19c3cf	-0.60064405
73	0x3ea918ee	0.33026832
74	0xbe2ef52a	-0.1708571
75	0xbe71fe81	-0.23632242
76	0xbdbcc1ca	-0.0921665
77	0xbd1815f2	-0.037130304
78	0x3e6144ee	0.21998951
79	0xbe8d02db	-0.2754124
80	0x3dd216d0	0.102582574
81	0xbf016652	-0.50546753
82	0x3e525b42	0.20542625
83	0xbea08574	-0.31351817
84	0xbebe2af1	-0.37142137
85	0x3d7a26fc	0.061072335
86	0x3ecd2d68	0.40073705
87	0xbe4233e2	-0.18965104
88	0xbef3ace6	-0.4759285
89	0x3f296a85	0.6617816
90	0x3e38f46f	0.18061994
91	0x3f215a62	0.6302854
92	0x3e9d9ddc	0.307845
93	0xbd4c5975	-0.04989
94	0xbd47d9aa	-0.048791565
95	0xbdc62654	-0.09675279
96	0x3d958ddc	0.07302448
97	0xbe5c2a50	-0.21500516
98	0xbf013026	-0.50464094
99	0xbea7232b	-0.3264402
100	0xbf395402	-0.7239381
101	0x3f018cbb	0.5060536
102	0xbf0bae76	-0.5456308
103	0xbe932ced	-0.28745213
104	0xbe7a08fd	-0.24417491
105	0x3efc4c6e	0.4927706
106	0x3e666049	0.22497667
107	0x3db7c035	0.089722075
108	0x3cae78ee	0.021297898
109	0xbdfac7d3	-0.12245145
110	0xbf263f6e	-0.64940536
111	0x3ef6d1cf	0.48206946
112	0xbf084560	-0.5323086
113	0x3e07324e	0.13202783
114	0x3e9da048	0.30786347
115	0x3e54790d	0.20749302
116	0x3ded03b9	0.11572976
117	0x3e935ff8	0.28784156
118	0xbd57396b	-0.052544992
119	0xbd22e1ed	-0.03976624
120	0xbe08f4f3	-0.1337469
121	0xbf0b29cd	-0.5436066
122	0x3e6697b4	0.22518808
123	0x3e19fd65	0.15038069
124	0x3eaa9bf8	0.3332212
125	0xbedef409	-0.4354556
126	0xbded2713	-0.115797184
127	0x3eb219f7	0.34785435
128	0xbe0fff8e	-0.1406233
129	0x3e64af21	0.22332431
130	0x3f0ab9c5	0.5418971
131	0xbf38f664	-0.7225096
132	0x3ea045a4	0.31303132
133	0xbeca5d1d	-0.39524165
134	0x3df5c7b4	0.12000981
135	0x3f1a578f	0.60289854
136	0xbf1181f2	-0.56838906
137	0x3ead3c41	0.33835033
138	0xbe8f5b9c	-0.2799958
139	0xbe5a37f7	-0.21310411
140	0xbe8cac2a	-0.274751
141	0x3d99193a	0.07475515
142	0x3e730071	0.23730637
143	0xbe98ec03	-0.29867563
144	0x3e88dcbb	0.26730904
145	0xbf291d2d	-0.66060144
146	0x3e9df8d1	0.30853894
147	0xbeaf40e8	-0.34229207
148	0xbe7fb5a6	-0.24971637
149	0x3e40356c	0.18770379
150	0x3e855856	0.26043957
151	0xbe445e2b	-0.19176547
152	0xbf06826c	-0.5254276
153	0x3f200c07	0.6251835
154	0x3eac31ef	0.33631846
155	0x3f30908a	0.6897055
156	0x3e63af66	0.22234878
157	0xbd9243e0	-0.071418524
158	0x3dc0a560	0.09406543
159	0x3c4c92c6	0.012486165
160	0x3e4ff394	0.20307761
161	0xbe44ad13	-0.19206648
162	0xbec2cc6f	-0.38046595
163	0xbe90fb03	-0.28316507
164	0xbf412ad0	-0.7545595
165	0x3eb881ab	0.3603643
166	0xbf237feb	-0.6386706
167	0xbe052361	-0.13001777
168	0xbecf729b	-0.40517125
169	0x3ed67887	0.4188883
170	0x3d6491d7	0.055803146
171	0xbdabe266	-0.083927915
172	0x3cc8524a	0.024453301
173	0xbe2fe43a	-0.17176905
174	0xbf277861	-0.6541806
175	0x3edd62eb	0.4323953
176	0xbf0c51c7	-0.5481228
177	0xbdb57356	-0.08859889
178	0x3ebbe4ff	0.36698148
179	0x3e01ccdd	0.12675805
180	0x3d5f6a86	0.054544948
181	0x3dd05631	0.1017269
182	0x3d8f19c0	0.06987333
183	0x3c05c8dc	0.008165564
184	0xbde5ed41	-0.11226893
185	0xbf1bf283	-0.6091692
186	0x3e7b89fd	0.24564357
187	0x3c4b2d8e	0.012400998
188	0x3eb0be34	0.34520113
189	0xbee96efe	-0.45592493
190	0xbce8e4ff	-0.028429506
191	0x3ed460e3	0.4148017
192	0x3ddf0789	0.10890109
193	0xbee225c3	-0.44169435
194	0x3e49aef4	0.19695646
195	0xbeba1da9	-0.36350754
196	0x3db98873	0.09059229
197	0xbe74d03d	-0.23907562
198	0xbd2f1aee	-0.04275029
199	0x3ea08ea5	0.3135883
200	0xbe05afe6	-0.13055381
201	0xbc8224ea	-0.015886743
202	0x3e30d780	0.17269707
203	0x3c0e78c5	0.008695786
204	0xbda292f2	-0.07938184
205	0xbe89cbfd	-0.26913443
206	0x3ddceaf4	0.10787001
207	0xbe412d5d	-0.18864961
208	0xbd1dbf17	-0.038512316
209	0xbeb49170	-0.3526721
210	0x3dceba34	0.10094109
211	0xbe5ff31b	-0.21870081
212	0x3e3b5215	0.1829303
213	0xbe4ff4cb	-0.20308225
214	0x3e5c889f	0.21536492
215	0xbde12619	-0.10993595
216	0xbe96505e	-0.2935819
217	0x3e8ef4b8	0.2792108
218	0x3eaea3e2	0.34109408
219	0x3e8eadba	0.27866918
220	0x3dc43b84	0.09581664
221	0x3edf87ea	0.43658382
222	0xbdf4a0b5	-0.11944715
223	0x3c9f76ef	0.019465892
224	0xbbaa7077	-0.005201395
225	0x3e55754f	0.20845531
226	0xbda5eee4	-0.081022054
227	0xbe1247a0	-0.14285135
228	0xbebd1f7c	-0.36938083
229	0x3dd1ec05	0.10250095
230	0xbe3600f9	-0.17773809
231	0x3e88254c	0.26590955
232	0xbe75d719	-0.24007834
233	0x3e153262	0.14570001
234	0x3c8a3d48	0.016874924
235	0xbe4cf59e	-0.2001557
236	0xbdfcaa4d	-0.1233717
237	0x3ed59f7f	0.41723248
238	0xbe6cc3b7	-0.23121534
239	0x3e88fe68	0.26756597
240	0xbda1956a	-0.078898266
241	0xbded24e4	-0.11579302
242	0x3e4310fe	0.19049451
243	0x3eb98295	0.3623244
244	0x3d10fd54	0.035397843
245	0xbe0531fa	-0.13007346
246	0x3e06bb3f	0.13157366
247	0xbd6fd20b	-0.058549922
248	0xbde7bcb5	-0.1131529
249	0xbe944455	-0.28958383
250	0x3c0aef23	0.008479866
251	0xbd7db0b7	-0.061936107
252	0x3e9296cf	0.28630683
253	0xbe492d58	-0.19646204
254	0x3dcfb3a1	0.10141683
255	0x3da9003d	0.082519986

decoder.linear2.bias f4 [150]
0	0xbe46a61c	-0.19399303
1	0xbe49f287	-0.19721423
2	0xbe501b20	-0.20322847
3	0xbe5ea854	-0.217439
4	0xbe5eb9bc	-0.2175054
5	0xbe57833e	-0.21046159
6	0xbe950908	-0.29108453
7	0xbe3db8ea	-0.1852757
8	0xbe4c80df	-0.19971035
9	0xbe5aaf4c	-0.21355933
10	0xbe2552cf	-0.1614487
11	0xbe76137f	-0.24030875
12	0xbe5a322b	-0.213082
13	0xbeac8a28	-0.33699155
14	0xbe4b739e	-0.19868323
15	0xbe801d36	-0.25022286
16	0xbe5c1628	-0.21492827
17	0xbe6b3b47	-0.22971831
18	0xbe81b947	-0.25336668
19	0xbe4ffffd	-0.20312496
20	0xbe905b3b	-0.28194603
21	0xbe60245a	-0.21888867
22	0xbe4a47e5	-0.19753988
23	0xbe59fd07	-0.21287929
24	0xbe700fd4	-0.23443538
25	0xbea0d597	-0.31412956
26	0xbe7a4362	-0.24439767
27	0xbe539ead	-0.20665999
28	0xbe47fea4	-0.19530731
29	0xbe3ef456	-0.18647894
30	0xbe3f9963	-0.18710856
31	0xbe8463be	-0.25857347
32	0xbe1a348d	-0.15059109
33	0xbda45e0c	-0.080257505
34	0xbe7a575d	-0.24447389
35	0xbe3f43e7	-0.18678246
36	0xbe853a0a	-0.26020843
37	0xbea4756c	-0.32120836
38	0xbe3d4968	-0.18485034
39	0xbd7c0539	-0.06152842
40	0xbe5ad110	-0.21368814
41	0xbe5edd30	-0.21764064
42	0xbe541b9e	-0.2071366
43	0xbe7d838f	-0.24757217
44	0xbe70e226	-0.23523769
45	0xbe4f3554	-0.20235187
46	0xbe59bb87	-0.21262942
47	0xbe5167c4	-0.2044974
48	0xbe4aea22	-0.19815877
49	0xbe735f54	-0.23766834
50	0xbe2e1e4a	-0.17003742
51	0xbe947c00	-0.29000854
52	0xbea6cb87	-0.32577154
53	0xbe3dfcbe	-0.18553445
54	0xbe017ade	-0.12644526
55	0xbe1fd099	-0.15606917
56	0xbe3cf426	-0.1845251
57	0xbe209fde	-0.15685984
58	0xbe1bd7f1	-0.15219094
59	0xbead3860	-0.33832073
60	0xbe2be24a	-0.16785541
61	0xbe153bc1	-0.14573576
62	0xbe1d5bd0	-0.15367055
63	0xbe449e9c	-0.1920113
64	0xbeba2f93	-0.3636442
65	0xbe36461e	-0.17800185
66	0xbebeaa6d	-0.372394
67	0xbe2c8a3c	-0.16849607
68	0xbe3e267d	-0.1856937
69	0xbe8f689c	-0.28009498
70	0xbe4cd013	-0.20001249
71	0xbe994cb3	-0.2994133
72	0xbe0111f6	-0.12604508
73	0xbe09548a	-0.13411155
74	0xbe0a2774	-0.13491613
75	0xbe425d2f	-0.18980859
76	0xbe97397d	-0.29536048
77	0xbe8b3660	-0.27189922
78	0xbe1c246e	-0.15248272
79	0xbeb240c7	-0.34815046
80	0xbe3f69f5	-0.18692763
81	0xbe4e1a1c	-0.20127147
82	0xbe49f8d6	-0.1972383
83	0xbe5a31a1	-0.21307994
84	0xbe4a1f0e	-0.19738409
85	0xbe390225	-0.18067224
86	0xbe53b029	-0.20672669
87	0xbe4183bf	-0.18897913
88	0xbe3f76f6	-0.18697724
89	0xbe51a8db	-0.2047457
90	0xbe87eda7	-0.26548502
91	0xbe132aff	-0.1437187
92	0xbe4070ed	-0.18793078
93	0xbe3ad4e1	-0.1824527
94	0xbd879f00	-0.06622124
95	0xbe6ca867	-0.23111115
96	0xbe7e0ad4	-0.24808818
97	0xbe7765ef	-0.24159978
98	0xbe709ae5	-0.23496588
99	0xbe87c2d2	-0.26515824
100	0xbf05de01	-0.52291876
101	0xbec145ae	-0.37748474
102	0xbcc1c92a	-0.023655493
103	0xbf0bcdd0	-0.5461092
104	0xbe29cfb6	-0.16583142
105	0xbeccee95	-0.40025774
106	0xbe817b8a	-0.25289565
107	0xbeadb32c	-0.3392576
108	0xbee71bb7	-0.45138332
109	0xbe46fac8	-0.19431603
110	0xbe8006aa	-0.25005084
111	0xbef5f7bc	-0.4804057
112	0xbeff7ac2	-0.49898344
113	0xbeb2c223	-0.3491374
114	0xbe8d8f32	-0.27648312
115	0xbf14f616	-0.58188
116	0xbec7243b	-0.3889483
117	0xbf06f40e	-0.5271615
118	0xbe7268ff	-0.23672865
119	0xbe82d9f5	-0.25556913
120	0xbe9528c2	-0.29132658
121	0x3e8b9ac6	0.2726652
122	0xbed1da40	-0.40986824
123	0xbf05cfeb	-0.5227038
124	0xbf0db626	-0.5535606
125	0xbde26822	-0.11055018
126	0xbead3720	-0.3383112
127	0xbe7d6c30	-0.24748302
128	0xbee768bf	-0.45197102
129	0xbe6352c7	-0.22199546
130	0x3df593de	0.11991094
131	0x3eece794	0.4627043
132	0x3e1a238d	0.15052624
133	0xbf0e73bf	-0.55645365
134	0x3f0330d7	0.512464
135	0x3e8db2b1	0.27675393
136	0x3efdb9d7	0.49555847
137	0x3f102658	0.5630851
138	0x3c446e9b	0.011989261
139	0xbf141384	-0.5784228
140	0x3f3013c8	0.68780184
141	0x3f289ad2	0.6586124
142	0x3f2b294b	0.66859883
143	0x3f310a4d	0.6915634
144	0x3f338188	0.70119524
145	0x3f470d8b	0.7775504
146	0x3f4a759c	0.7908571
147	0x3f665622	0.8997518
148	0x3f499bea	0.7875353
149	0x3f5d4f5a	0.86449206
