models/basisdevae_hi.pt (torch, 60891 bytes, 23 tensors)

encoder.linear1.weight f4 [64, 50]
-0.13607237 0.103317946 -0.10543702 -0.11136026 -0.0783874 0.10407311 0.05694717 0.019634245
0.06409955 -0.09812951 -0.13957794 -0.018742375 -0.0017118447 -0.019080037 -0.16687247 -0.0940681
0.09598704 -0.16887067 0.017865 0.071113594 -0.037417747 -0.17517252 -0.034324523 0.033998802
0.006244317 -0.114532486 0.021992497 -0.010590569 0.09040451 -0.08836251 -0.16793072 0.013142278
0.054206893 -0.17890352 -0.027438868 -0.1744636 -0.098578624 0.014629766 -0.0133921215 0.077440195
-0.10231164 -0.020886498 -0.07694852 0.1474481 0.1171895 0.046547987 0.077219374 0.1534964
-0.010857721 0.15575574 -0.09362396 0.35378245 0.48463267 -0.23605227 0.076627895 0.02599331
-0.12904315 -0.1310461 0.16523498 -0.10775472 -0.056743905 -0.10124816 0.22309323 -0.12514792
0.07394588 -0.0015316473 0.2964 -0.24028201 -0.23042797 0.0028879985 -0.35872027 0.0980706
0.16411605 0.008748506 -0.13557017 -0.11199453 0.18977125 -0.006876468 -0.028116139 0.14639679
0.26932862 0.2596745 0.07652227 0.10024008 0.005631032 0.00772516 0.13108303 0.015340884
-0.21306624 0.07307779 0.16955182 0.13666923 0.03013673 0.25433037 0.06677131 0.035809938
-0.27909955 -0.075079694 0.2820846 -0.033000953 -0.23797634 0.29937568 0.43658283 -0.056475595
0.05485103 -0.25001037 -0.31166103 -0.15900315 0.027367076 -0.26637095 -0.48808652 -0.3536213
0.30026352 0.07927015 0.31002045 -0.13392606 0.53673315 -0.059759583 -0.232126 0.14366366
-0.044573523 0.1407359 0.026595984 -0.3436087 -0.25001574 0.5353289 0.0840463 -0.15897118
-0.30581608 0.47090986 -0.09704688 0.63248897 -0.18354638 -0.010532431 -0.19365974 -0.063355096
-0.31818277 -0.45208645 -0.092253946 0.4617722 0.15947801 0.0035815241 0.29038554 -0.036301147
0.2345917 -0.032753438 -0.12340341 0.20463744 -0.2590025 -0.10719728 -0.068010665 -0.111044854
-0.003199735 0.082967035 0.05531082 0.1215316 0.14948738 0.08710838 0.051353548 0.14696306
-0.112791464 -0.01686491 -0.027959207 0.022024294 0.20472948 0.12790409 0.075208835 -0.0806149
0.087777406 -0.10658538 -0.04954258 -0.085217714 -0.044069994 -0.061441932 0.04954625 -0.07594115
-0.11048993 -0.02962946 -0.020646373 -0.011046709 -0.03930579 -0.12568836 0.06886448 0.115402944
-0.15735234 0.0037830456 -0.15138112 0.03820865 -0.09975896 0.12971716 0.14148897 0.0324961
-0.11174257 0.120870195 -0.112238884 0.043915015 0.1668021 0.16040343 0.12241167 0.001975235
0.17594796 0.055787124 0.2262011 0.02443431 -0.0031462144 0.05592167 0.19671172 -0.020487351
0.047989357 -0.06475615 -0.030591955 -0.11846635 -0.035205133 -0.08460745 -0.072484106 -0.07550156
-0.042575724 -0.081058495 0.12212526 -0.027815199 0.12470641 0.15782708 0.13097261 0.0731422
0.19285023 -0.026920762 0.11808833 0.08361529 0.13470526 -0.015554237 -0.02004935 -0.042773046
-0.13391389 0.023668928 -0.15610202 -0.0365665 -0.03494159 -0.031076163 -0.01015784 -0.09921549
0.059050333 0.013325818 -0.035590086 -0.11526675 -0.04043886 -0.09791966 0.0989981 0.023806067
-0.055111174 -0.02946013 -0.139458 -0.108891934 -0.10603879 0.089638755 0.09429463 -0.143175
00000000: 8e56 0bbe 5c98 d33d 5def d7bd d910 e4bd
00000010: 9389 a0bd 4824 d53d 7041 693d ffd7 a03c
00000020: a046 833d 20f8 c8bd 85ed 0ebe 9c89 99bc
00000030: fa5f e0ba bd4d 9cbc 9ee0 2abe c7a6 c0bd
00000040: da94 c43d 6fec 2cbe 9f59 923c 01a4 913d
00000050: 5a43 19bd 6d60 33be df97 0cbd 5442 0b3d
00000060: 219d cc3b 0290 eabd 9c29 b43c 1184 2dbc
00000070: 0026 b93d 67f7 b4bd 08f6 2bbe b652 573c
00000080: 0c08 5e3d 7c32 37be 7ac7 e0bc 96a6 32be
00000090: 97e3 c9bd b0b1 6f3c a16a 5bbc f798 9e3d
000000a0: c488 d1bd 291a abbc 3097 9dbd a2fc 163e
000000b0: 0c01 f03d 1aa9 3e3d 3125 9e3d 292e 1d3e
000000c0: 95e4 31bc 6f7e 1f3e ebbd bfbd f922 b53e
000000d0: c621 f83e b0b7 71be 16ef 9c3d ecef d43c
000000e0: e323 04be f330 06be 5c33 293e 82ae dcbd
000000f0: 4c6c 68bd 325b cfbd 8d72 643e c726 00be
00000100: f070 973d 8ec1 c8ba bec1 973e 7d0c 76be
00000110: 4ff5 6bbe 9344 3d3b 2faa b7be 3dd9 c83d
00000120: 0a0e 283e e555 0f3c e8d2 0abe 635d e5bd
00000130: 6553 423e ff53 e1bb d153 e6bc 0ae9 153e
00000140: 71e5 893e 0ef4 843e b5b7 9c3d ac4a cd3d
00000150: 8584 b83b 5723 fd3b a13a 063e 5558 7b3c
00000160: 092e 5abe cfa9 953d fe9e 2d3e 05f3 0b3e
00000170: 4ee1 f63c 9737 823e 66bf 883d 71ad 123d
00000180: 23e6 8ebe 62c3 99bd 656d 903e 022c 07bd
00000190: 12b0 73be c547 993e c987 df3e f452 67bd
000001a0: 79ab 603d 5c01 80be 0992 9fbe b9d1 22be
000001b0: eb30 e03c c661 88be 7ae6 f9be da0d b5be
000001c0: 24bc 993e 6358 a23d 00bb 9e3e ea23 09be
000001d0: 5867 093f 77c6 74bd 70b2 6dbe 911c 133e
000001e0: ba92 36bd 121d 103e d2df d93c 7bed afbe
000001f0: 1002 80be 510b 093f 7720 ac3d 57c9 22be
00000200: ed93 9cbe 191b f13e 84c0 c6bd ccea 213f
00000210: 95f3 3bbe 3890 2cbc bd4e 46be 51c0 81bd
00000220: dae8 a2be e077 e7be a3ef bcbd 686d ec3e
00000230: 344e 233e 01b8 6a3b 6aad 943e 83b0 14bd
00000240: ce38 703e 7828 06bd edba fcbd 7a8c 513e
00000250: fa9b 84be 3f8a dbbd 2d49 8bbd 7c6b e3bd
00000260: a5b2 51bb 9fea a93d 998d 623d 8fe5 f83d
00000270: 3813 193e e165 b23d 1958 523d 7c7d 163e
00000280: 36ff e6bd 4828 8abc b50a e5bc 4b6c b43c
00000290: 9ba4 513e 4af9 023e 1707 9a3d 6d19 a5bd
000002a0: a4c4 b33d 7049 dabd 29ed 4abd a086 aebd
000002b0: bd82 34bd 89aa 7bbd 02f1 4a3d 0987 9bbd
000002c0: 8b48 e2bd 7bb9 f2bc 9522 a9bc 41fd 34bc
000002d0: 1cff 20bd 73b4 00be d208 8d3d 6158 ec3d
000002e0: f920 21be f9ec 773b a703 1bbe ac80 1c3d
000002f0: 6d4e ccbd 93d4 043e 7ce2 103e a11a 053d
00000300: 4ad9 e4bd cb8a f73d 80dd e5bd 3be0 333d
00000310: 2bce 2a3e cc40 243e f8b2 fa3d f272 013b
00000320: b42b 343e 0a81 643d 43a1 673e 762a c83c
00000330: b830 4ebb 1f0e 653d cc6e 493e 17d5 a7bc
00000340: 7d90 443d df9e 84bd fb9b fabc 7c9e f2bd
00000350: 4233 10bd ac46 adbd 8c72 94bd 90a0 9abd
00000360: e263 2ebd ff01 a6bd cf1c fa3d b3dc e3bc
00000370: 1366 ff3d 6c9d 213e af1d 063e 94cb 953d
00000380: 887a 453e ee88 dcbc 4bd8 f13d 7e3e ab3d
00000390: 2df0 093e 33d7 7ebc 893e a4bc ca32 2fbd
000003a0: b920 09be 57e5 c13c 35d9 1fbe c1c6 15bd
000003b0: ea1e 0fbd 7093 febc 126d 26bc 7e31 cbbd
000003c0: c3de 713d 8854 5a3c e9c6 11bd f910 ecbd
000003d0: 38a3 25bd 1a8a c8bd 84bf ca3d f104 c33c
000003e0: 41bc 61bd 5f56 f1bc 14ce 0ebe bc02 dfbd
000003f0: dd2a d9bd 8694 b73d 8b1d c13d 789c 12be

encoder.linear1.bias f4 [64]
0.070941165 0.17363897 0.24043131 -0.09478681 0.018652841 -0.053909674 -0.063932486 0.08232227
0.30954063 -0.06092946 -0.055034943 0.00031160554 0.022364106 0.02304314 0.05197234 -0.06646028
-0.0031866592 -0.038732797 0.02332134 -0.05655251 0.16312888 0.07438287 -0.14783536 -0.1033753
-0.10696131 0.1081723 -0.061462887 -0.12850805 0.07875136 -0.15254746 0.106690146 -0.05718965
0.021012286 0.01684948 0.12071166 -0.0972627 0.07215608 0.16819862 -0.0016068893 -0.11898126
-0.048745617 0.03187106 0.092097275 0.023527654 0.043990504 0.074665934 -0.013199366 0.101131395
0.19650836 -0.11552576 0.42296597 0.07984477 -0.14560118 0.06678945 -0.061097573 0.04674628
0.19020455 -0.043598343 -0.031323195 0.008314973 0.0220679 -0.00561643 -0.0067867218 0.0022691924
00000000: 9a49 913d 6ace 313e a033 763e 961f c2bd
00000010: d8cd 983c 64d0 5cbd 09ef 82bd 9498 a83d
00000020: 1c7c 9e3e 2b91 79bd 526c 61bd fd5e a339
00000030: ee34 b73c f8c4 bc3c f3e0 543d 541c 88bd
00000040: 45d7 50bb 48a6 1ebd 650c bf3c 9ba3 67bd
00000050: 420b 273e 0c56 983d 2762 17be 6eb6 d3bd
00000060: 880e dbbd 7089 dd3d 82c0 7bbd 9d97 03be
00000070: 6548 a13d 6735 1cbe 5d80 da3d b23f 6abd
00000080: f521 ac3c ec07 8a3c ad37 f73d ab31 c7bd
00000090: 91c6 933d 423c 2c3e 429e d2ba 72ac f3bd
000000a0: 7ca9 47bd 3b8b 023d 7f9d bc3d 11bd c03c
000000b0: 632f 343d 74ea 983d 2742 58bc fa1d cf3d
000000c0: 7d39 493e c598 ecbd ff8e d83e a885 a33d
000000d0: 7a18 15be e8c8 883d 7341 7abd 0779 3f3d
000000e0: fbc4 423e 2d94 32bd c04c 00bd 863b 083c
000000f0: bec7 b43c 080a b8bb 2663 debb bbb6 143b

encoder.linear2.weight f4 [2, 64]
0.037015483 -0.15468794 -0.16627873 0.0016864445 -0.018585214 -0.09297011 0.14065872 0.0009723458
-0.16491063 -0.05846472 -0.013037337 0.02516176 0.08292451 0.0013557153 -0.029079925 0.006148539
-0.006494725 0.0004819173 0.0042826645 -0.0052305856 0.1922877 0.07268755 0.098751195 -0.09730874
0.030579774 0.11607558 -0.037389245 0.02378097 0.01019367 0.06789871 0.005000471 0.015646162
0.003369263 -0.035106204 0.09564029 0.07907816 -0.089594945 -0.0022994403 -0.008814712 -0.049913645
-0.0033000729 0.004428793 -0.00042758815 0.06261663 -0.06197522 -0.08143766 0.042342436 0.14429988
0.0026760364 0.08959258 -0.16623686 0.032387096 0.08522711 -0.004476352 0.07155598 -0.051201228
-0.016793959 0.00080929266 0.0034289127 0.114432916 0.005099023 -0.03982657 -0.07836877 -0.10749168
-0.017808817 -0.11971229 -0.27146387 -0.14898111 -0.26789203 0.000924393 0.07224909 -0.17922509
-0.34499314 0.10762088 0.039810006 -0.4527226 -0.0452601 0.024975523 0.07732448 -0.16340901
-0.17236698 -0.10477194 -0.2578544 0.06822786 -0.07464165 0.010368827 0.021417355 -0.022149166
-0.3627785 -0.014566141 0.09007073 0.07965104 -0.033608474 0.030468041 -0.23174877 0.046915524
-0.29186106 0.08532444 -0.017442316 -0.0049743513 0.074104995 -0.22317521 -0.048411217 0.014268698
0.053941127 -0.11526219 -0.007601481 0.03958818 -0.048406597 0.061379932 -0.1994867 -0.26468432
-0.29720044 0.07436403 -0.18477921 -0.10781723 0.006814453 0.055941734 -0.019652871 -0.009151629
-0.16766596 -0.08373142 -0.2530053 -0.02887029 -0.08780252 -0.2316316 -0.07941419 0.07125491
00000000: 8c9d 173d 8466 1ebe f944 2abe b00b dd3a
00000010: 0540 98bc 1d67 bebd d708 103e 06e5 7e3a
00000020: 55de 28be b478 6fbd 8e9a 55bc 0920 ce3c
00000030: 53d4 a93d 42b2 b13a 0639 eebc af79 c93b
00000040: b4d1 d4bb d8a9 fc39 9855 8c3b 5565 abbb
00000050: 11e7 443e 36dd 943d 113e ca3d ce49 c7bd
00000060: 6f82 fa3c 09b9 ed3d 7725 19bd 4fd0 c23c
00000070: 5a03 273c 7b0e 8b3d feda a33b 612c 803c
00000080: dace 5c3b 86cb 0fbd 0edf c33d bbf3 a13d
00000090: 8e7d b7bd 35b2 16bb 956b 10bc 4072 4cbd
000000a0: 0946 58bb 691f 913b e92d e0b9 263d 803d
000000b0: bad9 7dbd cac8 a6bd 436f 2d3d 59c3 133e
000000c0: 7160 2f3b 517c b73d ff39 2abe 55a8 043d
000000d0: 8d8b ae3d 5dae 92bb f18b 923d 61b8 51bd
000000e0: 7c93 89bc b626 543a 9cb7 603b ce5b ea3d
000000f0: b515 a73b 2f21 23bd ce7f a0bd 9924 dcbd
00000100: cce3 91bc b82b f5bd 50fd 8abe 818e 18be
00000110: 2529 89be f752 723a 55f7 933d c886 37be
00000120: f1a2 b0be 5668 dc3d d10f 233d 42cb e7be
00000130: a862 39bd 7899 cc3c 4c5c 9e3d b154 27be
00000140: f880 30be ac92 d6bd 7e05 84be 0cbb 8b3d
00000150: b9dd 98bd 03e2 293c 7373 af3c 2b72 b5bc
00000160: 1bbe b9be d3a6 6ebc 0177 b83d 1620 a33d
00000170: 0aa9 09bd 1d98 f93c 8d4f 6dbe 7e2a 403d
00000180: d06e 95be 94be ae3d 30e3 8ebc e2ff a2bb
00000190: 5cc4 973d 0b88 64be d74a 46bd 42c7 693c
000001a0: 5ff1 5c3d 950e ecbd d815 f9bb 3727 223d
000001b0: ff45 46bd 8669 7b3d 3e46 4cbe b484 87be
000001c0: a82a 98be 2b4c 983d c336 3dbe 48cf dcbd
000001d0: c64b df3b 2923 653d 0fff a0bc b7f0 15bc
000001e0: a0b0 2bbe 617b abbd e989 81be 6381 ecbc
000001f0: cfd1 b3bd d630 6dbe e8a3 a2bd 18ee 913d

encoder.linear2.bias f4 [2]
-0.04686748 -0.12958692
00000000: 1df8 3fbd 6fb2 04be

encoder.network.0.weight f4 [64, 50]
-0.13607237 0.103317946 -0.10543702 -0.11136026 -0.0783874 0.10407311 0.05694717 0.019634245
0.06409955 -0.09812951 -0.13957794 -0.018742375 -0.0017118447 -0.019080037 -0.16687247 -0.0940681
0.09598704 -0.16887067 0.017865 0.071113594 -0.037417747 -0.17517252 -0.034324523 0.033998802
0.006244317 -0.114532486 0.021992497 -0.010590569 0.09040451 -0.08836251 -0.16793072 0.013142278
0.054206893 -0.17890352 -0.027438868 -0.1744636 -0.098578624 0.014629766 -0.0133921215 0.077440195
-0.10231164 -0.020886498 -0.07694852 0.1474481 0.1171895 0.046547987 0.077219374 0.1534964
-0.010857721 0.15575574 -0.09362396 0.35378245 0.48463267 -0.23605227 0.076627895 0.02599331
-0.12904315 -0.1310461 0.16523498 -0.10775472 -0.056743905 -0.10124816 0.22309323 -0.12514792
0.07394588 -0.0015316473 0.2964 -0.24028201 -0.23042797 0.0028879985 -0.35872027 0.0980706
0.16411605 0.008748506 -0.13557017 -0.11199453 0.18977125 -0.006876468 -0.028116139 0.14639679
0.26932862 0.2596745 0.07652227 0.10024008 0.005631032 0.00772516 0.13108303 0.015340884
-0.21306624 0.07307779 0.16955182 0.13666923 0.03013673 0.25433037 0.06677131 0.035809938
-0.27909955 -0.075079694 0.2820846 -0.033000953 -0.23797634 0.29937568 0.43658283 -0.056475595
0.05485103 -0.25001037 -0.31166103 -0.15900315 0.027367076 -0.26637095 -0.48808652 -0.3536213
0.30026352 0.07927015 0.31002045 -0.13392606 0.53673315 -0.059759583 -0.232126 0.14366366
-0.044573523 0.1407359 0.026595984 -0.3436087 -0.25001574 0.5353289 0.0840463 -0.15897118
-0.30581608 0.47090986 -0.09704688 0.63248897 -0.18354638 -0.010532431 -0.19365974 -0.063355096
-0.31818277 -0.45208645 -0.092253946 0.4617722 0.15947801 0.0035815241 0.29038554 -0.036301147
0.2345917 -0.032753438 -0.12340341 0.20463744 -0.2590025 -0.10719728 -0.068010665 -0.111044854
-0.003199735 0.082967035 0.05531082 0.1215316 0.14948738 0.08710838 0.051353548 0.14696306
-0.112791464 -0.01686491 -0.027959207 0.022024294 0.20472948 0.12790409 0.075208835 -0.0806149
0.087777406 -0.10658538 -0.04954258 -0.085217714 -0.044069994 -0.061441932 0.04954625 -0.07594115
-0.11048993 -0.02962946 -0.020646373 -0.011046709 -0.03930579 -0.12568836 0.06886448 0.115402944
-0.15735234 0.0037830456 -0.15138112 0.03820865 -0.09975896 0.12971716 0.14148897 0.0324961
-0.11174257 0.120870195 -0.112238884 0.043915015 0.1668021 0.16040343 0.12241167 0.001975235
0.17594796 0.055787124 0.2262011 0.02443431 -0.0031462144 0.05592167 0.19671172 -0.020487351
0.047989357 -0.06475615 -0.030591955 -0.11846635 -0.035205133 -0.08460745 -0.072484106 -0.07550156
-0.042575724 -0.081058495 0.12212526 -0.027815199 0.12470641 0.15782708 0.13097261 0.0731422
0.19285023 -0.026920762 0.11808833 0.08361529 0.13470526 -0.015554237 -0.02004935 -0.042773046
-0.13391389 0.023668928 -0.15610202 -0.0365665 -0.03494159 -0.031076163 -0.01015784 -0.09921549
0.059050333 0.013325818 -0.035590086 -0.11526675 -0.04043886 -0.09791966 0.0989981 0.023806067
-0.055111174 -0.02946013 -0.139458 -0.108891934 -0.10603879 0.089638755 0.09429463 -0.143175
00000000: 8e56 0bbe 5c98 d33d 5def d7bd d910 e4bd
00000010: 9389 a0bd 4824 d53d 7041 693d ffd7 a03c
00000020: a046 833d 20f8 c8bd 85ed 0ebe 9c89 99bc
00000030: fa5f e0ba bd4d 9cbc 9ee0 2abe c7a6 c0bd
00000040: da94 c43d 6fec 2cbe 9f59 923c 01a4 913d
00000050: 5a43 19bd 6d60 33be df97 0cbd 5442 0b3d
00000060: 219d cc3b 0290 eabd 9c29 b43c 1184 2dbc
00000070: 0026 b93d 67f7 b4bd 08f6 2bbe b652 573c
00000080: 0c08 5e3d 7c32 37be 7ac7 e0bc 96a6 32be
00000090: 97e3 c9bd b0b1 6f3c a16a 5bbc f798 9e3d
000000a0: c488 d1bd 291a abbc 3097 9dbd a2fc 163e
000000b0: 0c01 f03d 1aa9 3e3d 3125 9e3d 292e 1d3e
000000c0: 95e4 31bc 6f7e 1f3e ebbd bfbd f922 b53e
000000d0: c621 f83e b0b7 71be 16ef 9c3d ecef d43c
000000e0: e323 04be f330 06be 5c33 293e 82ae dcbd
000000f0: 4c6c 68bd 325b cfbd 8d72 643e c726 00be
00000100: f070 973d 8ec1 c8ba bec1 973e 7d0c 76be
00000110: 4ff5 6bbe 9344 3d3b 2faa b7be 3dd9 c83d
00000120: 0a0e 283e e555 0f3c e8d2 0abe 635d e5bd
00000130: 6553 423e ff53 e1bb d153 e6bc 0ae9 153e
00000140: 71e5 893e 0ef4 843e b5b7 9c3d ac4a cd3d
00000150: 8584 b83b 5723 fd3b a13a 063e 5558 7b3c
00000160: 092e 5abe cfa9 953d fe9e 2d3e 05f3 0b3e
00000170: 4ee1 f63c 9737 823e 66bf 883d 71ad 123d
00000180: 23e6 8ebe 62c3 99bd 656d 903e 022c 07bd
00000190: 12b0 73be c547 993e c987 df3e f452 67bd
000001a0: 79ab 603d 5c01 80be 0992 9fbe b9d1 22be
000001b0: eb30 e03c c661 88be 7ae6 f9be da0d b5be
000001c0: 24bc 993e 6358 a23d 00bb 9e3e ea23 09be
000001d0: 5867 093f 77c6 74bd 70b2 6dbe 911c 133e
000001e0: ba92 36bd 121d 103e d2df d93c 7bed afbe
000001f0: 1002 80be 510b 093f 7720 ac3d 57c9 22be
00000200: ed93 9cbe 191b f13e 84c0 c6bd ccea 213f
00000210: 95f3 3bbe 3890 2cbc bd4e 46be 51c0 81bd
00000220: dae8 a2be e077 e7be a3ef bcbd 686d ec3e
00000230: 344e 233e 01b8 6a3b 6aad 943e 83b0 14bd
00000240: ce38 703e 7828 06bd edba fcbd 7a8c 513e
00000250: fa9b 84be 3f8a dbbd 2d49 8bbd 7c6b e3bd
00000260: a5b2 51bb 9fea a93d 998d 623d 8fe5 f83d
00000270: 3813 193e e165 b23d 1958 523d 7c7d 163e
00000280: 36ff e6bd 4828 8abc b50a e5bc 4b6c b43c
00000290: 9ba4 513e 4af9 023e 1707 9a3d 6d19 a5bd
000002a0: a4c4 b33d 7049 dabd 29ed 4abd a086 aebd
000002b0: bd82 34bd 89aa 7bbd 02f1 4a3d 0987 9bbd
000002c0: 8b48 e2bd 7bb9 f2bc 9522 a9bc 41fd 34bc
000002d0: 1cff 20bd 73b4 00be d208 8d3d 6158 ec3d
000002e0: f920 21be f9ec 773b a703 1bbe ac80 1c3d
000002f0: 6d4e ccbd 93d4 043e 7ce2 103e a11a 053d
00000300: 4ad9 e4bd cb8a f73d 80dd e5bd 3be0 333d
00000310: 2bce 2a3e cc40 243e f8b2 fa3d f272 013b
00000320: b42b 343e 0a81 643d 43a1 673e 762a c83c
00000330: b830 4ebb 1f0e 653d cc6e 493e 17d5 a7bc
00000340: 7d90 443d df9e 84bd fb9b fabc 7c9e f2bd
00000350: 4233 10bd ac46 adbd 8c72 94bd 90a0 9abd
00000360: e263 2ebd ff01 a6bd cf1c fa3d b3dc e3bc
00000370: 1366 ff3d 6c9d 213e af1d 063e 94cb 953d
00000380: 887a 453e ee88 dcbc 4bd8 f13d 7e3e ab3d
00000390: 2df0 093e 33d7 7ebc 893e a4bc ca32 2fbd
000003a0: b920 09be 57e5 c13c 35d9 1fbe c1c6 15bd
000003b0: ea1e 0fbd 7093 febc 126d 26bc 7e31 cbbd
000003c0: c3de 713d 8854 5a3c e9c6 11bd f910 ecbd
000003d0: 38a3 25bd 1a8a c8bd 84bf ca3d f104 c33c
000003e0: 41bc 61bd 5f56 f1bc 14ce 0ebe bc02 dfbd
000003f0: dd2a d9bd 8694 b73d 8b1d c13d 789c 12be

encoder.network.0.bias f4 [64]
0.070941165 0.17363897 0.24043131 -0.09478681 0.018652841 -0.053909674 -0.063932486 0.08232227
0.30954063 -0.06092946 -0.055034943 0.00031160554 0.022364106 0.02304314 0.05197234 -0.06646028
-0.0031866592 -0.038732797 0.02332134 -0.05655251 0.16312888 0.07438287 -0.14783536 -0.1033753
-0.10696131 0.1081723 -0.061462887 -0.12850805 0.07875136 -0.15254746 0.106690146 -0.05718965
0.021012286 0.01684948 0.12071166 -0.0972627 0.07215608 0.16819862 -0.0016068893 -0.11898126
-0.048745617 0.03187106 0.092097275 0.023527654 0.043990504 0.074665934 -0.013199366 0.101131395
0.19650836 -0.11552576 0.42296597 0.07984477 -0.14560118 0.06678945 -0.061097573 0.04674628
0.19020455 -0.043598343 -0.031323195 0.008314973 0.0220679 -0.00561643 -0.0067867218 0.0022691924
00000000: 9a49 913d 6ace 313e a033 763e 961f c2bd
00000010: d8cd 983c 64d0 5cbd 09ef 82bd 9498 a83d
00000020: 1c7c 9e3e 2b91 79bd 526c 61bd fd5e a339
00000030: ee34 b73c f8c4 bc3c f3e0 543d 541c 88bd
00000040: 45d7 50bb 48a6 1ebd 650c bf3c 9ba3 67bd
00000050: 420b 273e 0c56 983d 2762 17be 6eb6 d3bd
00000060: 880e dbbd 7089 dd3d 82c0 7bbd 9d97 03be
00000070: 6548 a13d 6735 1cbe 5d80 da3d b23f 6abd
00000080: f521 ac3c ec07 8a3c ad37 f73d ab31 c7bd
00000090: 91c6 933d 423c 2c3e 429e d2ba 72ac f3bd
000000a0: 7ca9 47bd 3b8b 023d 7f9d bc3d 11bd c03c
000000b0: 632f 343d 74ea 983d 2742 58bc fa1d cf3d
000000c0: 7d39 493e c598 ecbd ff8e d83e a885 a33d
000000d0: 7a18 15be e8c8 883d 7341 7abd 0779 3f3d
000000e0: fbc4 423e 2d94 32bd c04c 00bd 863b 083c
000000f0: bec7 b43c 080a b8bb 2663 debb bbb6 143b

encoder.network.2.weight f4 [2, 64]
0.037015483 -0.15468794 -0.16627873 0.0016864445 -0.018585214 -0.09297011 0.14065872 0.0009723458
-0.16491063 -0.05846472 -0.013037337 0.02516176 0.08292451 0.0013557153 -0.029079925 0.006148539
-0.006494725 0.0004819173 0.0042826645 -0.0052305856 0.1922877 0.07268755 0.098751195 -0.09730874
0.030579774 0.11607558 -0.037389245 0.02378097 0.01019367 0.06789871 0.005000471 0.015646162
0.003369263 -0.035106204 0.09564029 0.07907816 -0.089594945 -0.0022994403 -0.008814712 -0.049913645
-0.0033000729 0.004428793 -0.00042758815 0.06261663 -0.06197522 -0.08143766 0.042342436 0.14429988
0.0026760364 0.08959258 -0.16623686 0.032387096 0.08522711 -0.004476352 0.07155598 -0.051201228
-0.016793959 0.00080929266 0.0034289127 0.114432916 0.005099023 -0.03982657 -0.07836877 -0.10749168
-0.017808817 -0.11971229 -0.27146387 -0.14898111 -0.26789203 0.000924393 0.07224909 -0.17922509
-0.34499314 0.10762088 0.039810006 -0.4527226 -0.0452601 0.024975523 0.07732448 -0.16340901
-0.17236698 -0.10477194 -0.2578544 0.06822786 -0.07464165 0.010368827 0.021417355 -0.022149166
-0.3627785 -0.014566141 0.09007073 0.07965104 -0.033608474 0.030468041 -0.23174877 0.046915524
-0.29186106 0.08532444 -0.017442316 -0.0049743513 0.074104995 -0.22317521 -0.048411217 0.014268698
0.053941127 -0.11526219 -0.007601481 0.03958818 -0.048406597 0.061379932 -0.1994867 -0.26468432
-0.29720044 0.07436403 -0.18477921 -0.10781723 0.006814453 0.055941734 -0.019652871 -0.009151629
-0.16766596 -0.08373142 -0.2530053 -0.02887029 -0.08780252 -0.2316316 -0.07941419 0.07125491
00000000: 8c9d 173d 8466 1ebe f944 2abe b00b dd3a
00000010: 0540 98bc 1d67 bebd d708 103e 06e5 7e3a
00000020: 55de 28be b478 6fbd 8e9a 55bc 0920 ce3c
00000030: 53d4 a93d 42b2 b13a 0639 eebc af79 c93b
00000040: b4d1 d4bb d8a9 fc39 9855 8c3b 5565 abbb
00000050: 11e7 443e 36dd 943d 113e ca3d ce49 c7bd
00000060: 6f82 fa3c 09b9 ed3d 7725 19bd 4fd0 c23c
00000070: 5a03 273c 7b0e 8b3d feda a33b 612c 803c
00000080: dace 5c3b 86cb 0fbd 0edf c33d bbf3 a13d
00000090: 8e7d b7bd 35b2 16bb 956b 10bc 4072 4cbd
000000a0: 0946 58bb 691f 913b e92d e0b9 263d 803d
000000b0: bad9 7dbd cac8 a6bd 436f 2d3d 59c3 133e
000000c0: 7160 2f3b 517c b73d ff39 2abe 55a8 043d
000000d0: 8d8b ae3d 5dae 92bb f18b 923d 61b8 51bd
000000e0: 7c93 89bc b626 543a 9cb7 603b ce5b ea3d
000000f0: b515 a73b 2f21 23bd ce7f a0bd 9924 dcbd
00000100: cce3 91bc b82b f5bd 50fd 8abe 818e 18be
00000110: 2529 89be f752 723a 55f7 933d c886 37be
00000120: f1a2 b0be 5668 dc3d d10f 233d 42cb e7be
00000130: a862 39bd 7899 cc3c 4c5c 9e3d b154 27be
00000140: f880 30be ac92 d6bd 7e05 84be 0cbb 8b3d
00000150: b9dd 98bd 03e2 293c 7373 af3c 2b72 b5bc
00000160: 1bbe b9be d3a6 6ebc 0177 b83d 1620 a33d
00000170: 0aa9 09bd 1d98 f93c 8d4f 6dbe 7e2a 403d
00000180: d06e 95be 94be ae3d 30e3 8ebc e2ff a2bb
00000190: 5cc4 973d 0b88 64be d74a 46bd 42c7 693c
000001a0: 5ff1 5c3d 950e ecbd d815 f9bb 3727 223d
000001b0: ff45 46bd 8669 7b3d 3e46 4cbe b484 87be
000001c0: a82a 98be 2b4c 983d c336 3dbe 48cf dcbd
000001d0: c64b df3b 2923 653d 0fff a0bc b7f0 15bc
000001e0: a0b0 2bbe 617b abbd e989 81be 6381 ecbc
000001f0: cfd1 b3bd d630 6dbe e8a3 a2bd 18ee 913d

encoder.network.2.bias f4 [2]
-0.04686748 -0.12958692
00000000: 1df8 3fbd 6fb2 04be

decoder.Aj f4 [50, 1]
0.34007895 0.7620412 0.07433711 1.0385815 0.85048246 0.5284316 0.23184979 -0.059464037
1.1348418 -0.76961845 0.058705498 1.1001543 0.102551125 0.5626128 -0.5695064 1.2176574
0.2927536 1.3799317 -0.5760014 -0.29866597 0.8121751 -0.36369884 0.75208795 1.3023527
1.0173786 -0.52531487 0.19879282 -0.295327 0.42536432 0.16595007 0.634315 -1.1433239
1.4524486 1.4917918 -0.18013303 0.89733565 -1.0868448 -1.2562166 1.0673395 1.8279918
-0.9753546 -0.5927521 -0.8771173 -0.759887 -0.55194473 -0.7673794 -0.90013826 -0.75971836
-0.6217819 -0.55087256
00000000: d41e ae3e 2215 433f 0e3e 983d 3df0 843f
00000010: 38b9 593f 4b47 073f 086a 6d3e 9090 73bd
00000020: 7f42 913f b705 45bf 2d75 703d dbd1 8c3f
00000030: 5306 d23d 6407 103f 2ccb 11bf 33dc 9b3f
00000040: cde3 953e 9aa1 b03f d474 13bf bfea 98be
00000050: b5ea 4f3f bc36 babe d688 403f 7eb3 a63f
00000060: 7639 823f 097b 06bf 5890 4b3e 1a35 97be
00000070: 5ac9 d93e d1ee 293e 7862 223f 7058 92bf
00000080: d6e9 b93f 09f3 be3f cb74 38be cab7 653f
00000090: bb1d 8bbf b5cb a0bf 959e 883f a3fb e93f
000000a0: d7b0 79bf 9abe 17bf c28a 60bf f487 42bf
000000b0: 404c 0dbf fa72 44bf 766f 66bf e77c 42bf
000000c0: 192d 1fbf fc05 0dbf

decoder.c f4 [50]
-0.029883867 0.77987987 1.0151552 0.01336967 -0.087744266 0.098745905 -0.0535277 -0.053786714
0.026636459 0.44339174 -0.12071696 0.009555909 -0.023454886 -0.01664739 0.79515463 0.013779245
0.74960405 -0.007184282 0.06407409 0.48364836 -0.0045874235 0.2670586 -0.023849893 -0.011128929
0.042211052 -0.09941409 0.37954915 0.34270075 -0.08674993 0.8443189 -0.43742242 0.5856045
-0.4431193 -0.7104972 -0.23110665 -0.35787115 0.75271326 0.17116775 -0.521322 -0.69415885
1.1540179 1.1055293 1.1188185 1.1330773 1.0573665 1.3661823 1.2921969 1.5109112
1.5546762 1.520409
00000000: 03cf f4bc 35a6 473f 9bf0 813f 760c 5b3c
00000010: 44b3 b3bd 4b3b ca3d dd3f 5bbd 754f 5cbd
00000020: b434 da3c 3e04 e33e 743a f7bd 6390 1c3c
00000030: 7624 c0bc 1b60 88bc 418f 4b3f 58c2 613c
00000040: 0de6 3f3f 206a ebbb 4739 833d c2a0 f73e
00000050: 1952 96bb e8bb 883e da60 c3bc 1d56 36bc
00000060: 7fe5 2c3d 9d99 cbbd 4454 c23e 7976 af3e
00000070: f3a9 b1bd 4925 583f d5f5 dfbe 2dea 153f
00000080: 88e0 e2be 25e3 35bf 39a7 6cbe e33a b7be
00000090: d1b1 403f 9946 2f3e 5c75 05bf 65b4 31bf
000000a0: dcb6 933f fc81 8d3f 7235 8f3f ad08 913f
000000b0: c957 873f 10df ae3f b566 a53f 8a65 c13f
000000c0: a1ff c63f c39c c23f

decoder.qphi_logits f4 [50, 3]
-2.5854175 -2.4363606 5.2755656 -2.6216447 4.90323 -1.6446421 -2.1084898 5.1209893
-0.37812757 -2.7375183 -2.6630962 5.5204 -1.9404459 1.0702869 6.7751355 -2.8810968
3.43598 4.039617 -2.0806472 -2.3392007 5.3418517 -2.2988682 -1.8083452 5.111728
-3.1817083 3.4693196 4.3568177 -1.430616 4.3245397 0.2290005 -2.614994 -1.8897947
4.744755 -2.1453772 -1.2531004 6.2708306 -2.6686118 4.034999 1.6481264 -1.781253
-2.3768535 5.754767 -1.9260961 4.476078 0.16958375 -2.5525136 -2.571259 5.690104
-2.3226702 5.1393933 -0.57794106 -2.6423903 -2.552318 5.7405086 -2.0925589 -1.7471777
4.13284 -2.3516858 4.7727075 0.29586932 -2.5222971 -2.6630368 5.4653516 -2.0668101
4.17143 0.63956225 -2.2799964 1.623536 6.3603916 -2.296669 0.44086102 6.351672
-1.8771609 0.36076185 6.6903586 -1.80499 -2.2488115 4.2401633 -2.4827576 4.46305
0.74439245 -2.2449975 4.223678 0.7308933 -2.3234081 -1.0631022 5.863481 -2.1744354
4.659099 0.10820198 5.075577 -2.7949967 -1.0199478 4.7776337 -1.2085453 -0.3221335
4.710815 -2.9270146 -1.1343758 4.7883406 -2.4704456 -0.7998042 4.8566284 -2.0387292
-0.3575445 4.956933 -2.767689 -0.86120963 4.7076554 -0.95118743 -0.30227876 4.742978
-1.2406341 -0.2700675 5.0222363 -2.793935 -1.2950249 4.713917 -2.7611287 -0.9612673
-0.51862335 5.6378484 -1.2197415 -0.13397178 5.269439 -1.0657787 -0.43379205 5.614799
-1.2216958 0.32886365 5.2693715 -1.1457359 0.2701779 4.9912796 -0.9971681 0.417675
5.4568043 -1.2029252 -0.06113042 5.521636 -1.1822997 0.44391957 5.169548 -1.0326487
0.07976692 5.2250533 -0.91490346 0.060200974 5.191391 -0.89728427
00000000: 7b77 25c0 55ed 1bc0 6fd1 a840 07c9 27c0
00000010: 43e7 9c40 a283 d2bf 7ff1 06c0 25df a340
00000020: f099 c1be 8033 2fc0 2b70 2ac0 1ea7 b040
00000030: 8860 f8bf 29ff 883f e9cd d840 e463 38c0
00000040: 19e7 5b40 8b44 8140 5329 05c0 77b5 15c0
00000050: 73f0 aa40 a820 13c0 db77 e7bf 4793 a340
00000060: 1ca1 4bc0 5509 5e40 0d6b 8b40 6d1e b7bf
00000070: a162 8a40 1b7f 6a3e 105c 27c0 cbe4 f1bf
00000080: 08d5 9740 dc4d 09c0 9865 a0bf a5aa c840
00000090: 89ca 2ac0 b61e 8140 cef5 d23f 1900 e4bf
000000a0: 5e1e 18c0 0d27 b840 518a f6bf 083c 8f40
000000b0: 5da7 2d3e 625c 23c0 828f 24c0 5515 b640
000000c0: a1a6 14c0 e975 a440 f2f3 13bf ec1c 29c0
000000d0: 2e59 23c0 3fb2 b740 7cec 05c0 85a3 dfbf
000000e0: 3a40 8440 0582 16c0 05ba 9840 2f7c 973e
000000f0: 516d 21c0 326f 2ac0 29e4 ae40 9e46 04c0
00000100: 5b7c 8540 5aba 233f 76eb 11c0 07d0 cf3f
00000110: 5488 cb40 a0fc 12c0 89b8 e13e e640 cb40
00000120: cf46 f0bf c7b5 b83e 6b17 d640 ea09 e7bf
00000130: 87ec 0fc0 6baf 8740 80e5 1ec0 4ed1 8e40
00000140: 8190 3e3f 0aae 0fc0 5f28 8740 d31b 3b3f
00000150: b8b2 14c0 bc13 88bf a3a1 bb40 f329 0bc0
00000160: 5717 9540 0099 dd3d 206b a240 3ae1 32c0
00000170: a68d 82bf 60e2 9840 9db1 9abf afee a4be
00000180: ffbe 9640 3554 3bc0 3a33 91bf 163a 9940
00000190: c81b 1ec0 f8bf 4cbf 8069 9b40 8a7a 02c0
000001a0: 1310 b7be 329f 9e40 d121 31c0 3c78 5cbf
000001b0: 1da5 9640 0581 73bf 48c4 9abe 7ac6 9740
000001c0: 19cd 9ebf 4a46 8abe 29b6 a040 d5cf 32c0
000001d0: 60c3 a5bf 68d8 9640 55b6 30c0 9d15 76bf
000001e0: 80c4 04bf 4169 b440 7d20 9cbf e62f 09be
000001f0: 3f9f a840 706b 88bf fe19 debe 6fac b340
00000200: 8760 9cbf d160 a83e b19e a840 79a7 92bf
00000210: c254 8a3e 90b8 9f40 6946 7fbf 7fd9 d53e
00000220: 249e ae40 74f9 99bf e463 7abd 3eb1 b040
00000230: 9955 97bf 6d49 e33e f06c a540 d52d 84bf
00000240: d75c a33d a333 a740 1d37 6abf 4c95 763d
00000250: e01f a640 6cb4 65bf

decoder.sigma f4 [50]
-2.2617269 -1.9965137 -2.0860705 -2.1490314 -2.2664165 -2.1651413 -2.2367504 -2.2015696
-2.1861277 -2.270685 -2.2675831 -2.221366 -2.138055 -2.2894006 -2.150494 -2.1676583
-2.1044803 -2.1742446 -2.2414954 -2.198326 -2.1908898 -2.2682974 -2.2331414 -2.2396033
-2.2089758 -2.2552085 -2.1511314 -2.1168053 -2.2879593 -2.005557 -2.239821 -2.27115
-2.1598823 -2.1455374 -2.1795428 -2.1577423 -2.2126 -2.2469652 -2.2250223 -2.1523473
-2.1568274 -1.9270445 -2.1507788 -1.9552792 -1.6420811 -2.2063572 -2.1837504 -2.2001286
-2.2564952 -2.194592
00000000: 22c0 10c0 c38d ffbf 2e82 05c0 bb89 09c0
00000010: f80c 11c0 ad91 0ac0 eb26 0fc0 84e6 0cc0
00000020: 84e9 0bc0 e752 11c0 1520 11c0 dc2a 0ec0
00000030: e5d5 08c0 8a85 12c0 b2a1 09c0 eaba 0ac0
00000040: ceaf 06c0 d326 0bc0 a974 0fc0 60b1 0cc0
00000050: 8a37 0cc0 c92b 11c0 caeb 0ec0 a955 0fc0
00000060: dc5f 0dc0 5655 10c0 23ac 09c0 bd79 07c0
00000070: ed6d 12c0 0c5b 00c0 3a59 0fc0 865a 11c0
00000080: 833b 0ac0 7c50 09c0 a17d 0bc0 7318 0ac0
00000090: 3d9b 0dc0 47ce 0fc0 c466 0ec0 0fc0 09c0
000000a0: 7609 0ac0 65a9 f6bf 5ca6 09c0 9746 fabf
000000b0: b72f d2bf f534 0dc0 91c2 0bc0 e8ce 0cc0
000000c0: 6b6a 10c0 3274 0cc0

decoder.zi f4 [50, 1]
-0.2488776 -1.2064285 -1.4271038 0.07150909 -1.0153797 -1.2677978 0.5065087 -0.45276266
-1.3770125 -1.2230603 -0.33191633 -0.53963214 -1.1520405 0.58619934 -1.4095744 0.16961545
-1.3444171 -0.02955354 -0.14132078 -1.3531361 0.37992033 -1.3108835 -1.1013403 -0.7705577
-0.8683985 0.2660076 -1.4481237 -1.2763457 -0.7100593 -1.5125774 1.2210084 0.6063533
1.4460804 1.1530312 1.201336 1.426253 0.6214255 0.5020638 1.2839115 1.4128736
-0.08167788 -0.09087495 -0.090713695 -0.063939266 -0.08980472 -0.04649958 -0.06810455 -0.046429824
-0.04583333 -0.032570947
00000000: c5d9 7ebe 406c 9abf 56ab b6bf 5c73 923d
00000010: f6f7 81bf 3347 a2bf 8eaa 013f 82d0 e7be
00000020: f241 b0bf 3d8d 9cbf f0f0 a9be 5525 0abf
00000030: 1076 93bf 2911 163f ef6c b4bf acaf 2d3e
00000040: dc15 acbf 441a f2bc 65b6 10be 9033 adbf
00000050: eb84 c23e 08cb a7bf b8f8 8cbf 4543 45bf
00000060: 5d4f 5ebf 2632 883e 1e5c b9bf 4c5f a3bf
00000070: 72c6 35bf 239c c1bf 014a 9c3f f839 1b3f
00000080: 2a19 b93f 8796 933f 61c5 993f 758f b63f
00000090: be15 1f3f 4187 003f 3657 a43f 0bd9 b43f
000000a0: bb46 a7bd a51c babd 1ac8 b9bd 97f2 82bd
000000b0: 89eb b7bd 5876 3ebd 667a 8bbd 332d 3ebd
000000c0: bbbb 3bbd 1d69 05bd

decoder.z0 f4 [50, 1]
-0.07213311 -0.2312757 -0.29714486 -0.1702198 -0.22119133 0.11090775 -0.06511326 0.21631473
-0.036596347 0.031743623 -0.036708176 -0.26126897 0.19989929 -0.23345292 -0.18851496 -0.16115512
-0.12249333 0.20496926 -0.23455548 0.256242 -0.108970374 0.17930901 -0.2900282 -0.008520948
0.32292113 0.21093896 -0.25236517 0.3104384 -0.28867736 -0.16862032 0.037682876 0.23211113
0.104410455 -0.28355917 -0.043524444 0.052304912 0.024815567 0.03588133 -0.256822 -0.058791455
0.21752168 0.09554988 0.05243289 -0.33866107 -0.065650776 -0.0925896 0.14607006 -0.15384863
0.30679408 0.2839645
00000000: 86ba 93bd 89d3 6cbe 5f23 98be 194e 2ebe
00000010: fb7f 62be 9a23 e33d 1a5a 85bd 9c81 5d3e
00000020: 0de6 15bd 9a05 023d 505b 16bd 0cc5 85be
00000030: 66b2 4c3e 480e 6fbe 110a 41be d905 25be
00000040: c8dd fabd 76e3 513e 502f 70be 2732 833e
00000050: dc2b dfbd c89c 373e 947e 94be 729b 0bbc
00000060: eb55 a53e 6200 583e 0236 81be c8f1 9e3e
00000070: 85cd 93be ceaa 2cbe 5c59 1a3d 8aae 6d3e
00000080: 26d5 d53d ab2e 91be b046 32bd ad3d 563d
00000090: 044a cb3c 4df8 123d 2c7e 83be 4fcf 70bd
000000a0: 01be 5e3e a8af c33d dfc3 563d fc64 adbe
000000b0: ea73 86bd 9e9f bdbd 6493 153e 7f8a 1dbe
000000c0: 1d14 9d3e cc63 913e

decoder.x0 f4 [1, 50]
0.5182109 0.444768 0.2420424 0.796481 0.6388568 0.4499551 0.4818022 0.3906996
0.63270766 0.14824773 0.421932 0.79685533 0.37727785 0.5930013 0.1437006 0.88152236
0.30038324 0.95416325 0.25739157 0.20152143 0.702426 0.20912716 0.57974803 0.85683894
0.7024457 0.28662068 0.2957318 0.22390781 0.52408105 0.23995197 0.6661469 0.16095816
0.9965776 1.2596737 0.35613194 0.7100346 0.15960145 0.14984512 0.87653124 1.3621004
-0.45546705 -0.8496181 -0.5974662 -0.9672433 -1.2052227 -0.50981957 -0.41780287 -0.2865669
-0.2449775 -0.26775858
00000000: 78a9 043f a2b8 e33e f7d9 773e 2ee6 4b3f
00000010: 1f8c 233f 8460 e63e c7ae f63e c709 c83e
00000020: 21f9 213f 41ce 173e 7907 d83e b6fe 4b3f
00000030: 902a c13e efce 173f 4026 133e 73ab 613f
00000040: d5cb 993e 0b44 743f d4c8 833e a25b 4e3e
00000050: 31d2 333f 6e25 563e 5e6a 143f cc59 5b3f
00000060: 7bd3 333f f2bf 923e 296a 973e 1748 653e
00000070: 2d2a 063f f8b5 753e 9a88 2a3f 37d2 243e
00000080: b61f 7f3f fd3c a13f ed56 b63e d4c4 353f
00000090: 906e 233e 0071 193e 5a64 603f 4e59 ae3f
000000a0: fa32 e9be 9280 59bf 8bf3 18bf 429d 77bf
000000b0: bd44 9abf 8983 02bf 42ea d5be e6b8 92be
000000c0: 62db 7abe a717 89be

decoder.linear1.weight f4 [64, 1]
0.028279742 0.054212153 0.035716012 -7.2108 -0.9623118 -1.3014818 -0.004132331 -1.7939979
-10.061683 0.010101104 -0.051184442 0.54169357 0.04050537 0.65999943 -1.1192955 0.018631158
0.04844477 0.039602127 1.0385152 0.011429779 -1.3550042 -0.0034730774 1.3666979 0.07831708
1.3423185 -0.011560256 0.1869132 0.10271462 -1.4278321 -1.6391915 0.09702995 -0.054909013
0.0026658163 0.025143467 8.249641 -0.017686408 0.08582689 1.1841142 -1.5136263 0.0815763
-0.7917388 0.22130968 0.011041849 -0.03837011 -1.1155674 -0.033998 0.09950365 0.99360734
0.027194206 -1.6596136 -0.874343 2.0959668 0.6223253 -1.1943926 0.021172926 -0.66978204
0.014362777 -0.019620068 0.011257867 0.041421957 -0.04123589 -0.19016439 1.507118 -0.021928778
00000000: ebaa e73c 900d 5e3d f44a 123d e0be e6c0
00000010: 115a 76bf f596 a6bf 8168 87bb b9a1 e5bf
00000020: a7fc 20c1 1a7f 253c c7a6 51bd 6eac 0a3f
00000030: f5e8 253d b9f5 283f 1345 8fbf 5fa0 983c
00000040: 066e 463d d735 223d 11ee 843f f843 3b3c
00000050: c770 adbf 929c 63bb f5ef ae3f b564 a03d
00000060: 18d1 ab3f 3a67 3dbc 2d66 3f3e 0b5c d23d
00000070: 34c3 b6bf 07d1 d1bf a3b7 c63d 46e8 60bd
00000080: fab4 2e3b acf9 cd3c 88fe 0341 16e3 90bc
00000090: 02c6 af3d 0e91 973f 82be c1bf 7a11 a73d
000000a0: 65af 4abf 019f 623e dfe8 343c fa29 1dbd
000000b0: eaca 8ebf 7d41 0bbd 92c8 cb3d 0d5d 7e3f
000000c0: 62c6 de3c 386e d4bf f1d4 5fbf 5224 0640
000000d0: b650 1f3f dbe1 98bf d872 ad3c d676 2bbf
000000e0: da51 6b3c 44ba a0bc eb72 383c 12aa 293d
000000f0: f7e6 28bd 74ba 42be 3ee9 c03f fba3 b3bc

decoder.linear1.bias f4 [64]
-0.2239821 -0.3666903 -0.0023628469 0.048359856 -0.3541343 0.29333174 -0.41890505 0.78572357
0.1458587 -0.4502645 0.47085318 0.19249222 -0.54052323 0.32329473 0.3503263 -0.5718756
0.30127695 -0.6710867 0.9161851 -0.56123143 0.34120685 0.4181914 -0.2715825 -0.06483905
-0.28659588 -0.6545583 0.03700771 -0.45844606 -0.49090734 0.5915556 -0.22250235 0.45873356
-0.28217852 -0.2642637 -0.107848294 -0.41215014 -0.40311116 0.9980286 0.6172823 0.011316947
-0.13075607 0.045957476 -0.37221643 0.54531604 -0.38081962 0.44041708 -0.4938297 0.32401967
-0.48132184 0.66215277 0.2331331 -0.93321985 0.36708027 0.37133178 -0.3880571 -0.12196378
-0.40685362 0.09847808 -0.37063116 -0.5681475 0.40321553 0.19103508 0.4429196 0.37664244
00000000: 905b 65be d5be bbbe fed9 1abb fc14 463d
00000010: 1751 b5be 942f 963e b97a d6be 2e25 493f
00000020: fc5b 153e 1289 e6be ab13 f13e ae1c 453e
00000030: bb5f 0abf e386 a53e f85d b33e 7066 12bf
00000040: f940 9a3e 57cc 2bbf 1b8b 6a3f ddac 0fbf
00000050: aab2 ae3e 2f1d d63e dd0c 8bbe 56ca 84bd
00000060: b2bc 92be 2291 27bf 6695 173d 71b9 eabe
00000070: 3558 fbbe 3070 173f a8d7 63be 20df ea3e
00000080: b479 90be 924d 87be 91df dcbd 5805 d3be
00000090: 9664 cebe cd7e 7f3f 3606 1e3f b76a 393c
000000a0: ebe4 05be e83d 3c3d 2793 bebe d599 0b3f
000000b0: cafa c2be 597e e13e 3fd7 fcbe e8e5 a53e
000000c0: d16f f6be d882 293f 72ba 6e3e 7fe7 6ebf
000000d0: f2f1 bb3e 331f be3e 6caf c6be 25c8 f9bd
000000e0: 1e4f d0be e0ae c93d 5ec3 bdbe 1d72 11bf
000000f0: 4472 ce3e b39e 433e 5cc6 e23e 47d7 c03e

decoder.linear2.weight f4 [150, 64]
0.023042034 0.27183676 -0.22193146 -0.010868732 0.391529 -0.11548232 0.25132096 -0.045322824
0.050743647 0.35787696 -0.47227588 -0.34830046 0.26437557 -0.6895696 -0.11709276 0.30774784
-0.53056437 0.5057144 -0.41262603 0.20298588 -0.19686429 -0.22202331 -0.049024057 0.032820106
-0.0068784896 0.34666252 -0.22253591 0.59438723 0.61133146 -0.010067382 -0.029702028 -0.23325539
0.09038985 0.072437316 -0.054710273 0.092643104 0.60083663 -0.43290642 0.02160948 -0.21316323
0.18692003 -0.35818985 0.17219599 -0.30262488 0.59718907 -0.4409905 0.49704227 -0.44520938
0.28266352 0.017339652 -0.046923295 0.15878652 -0.7612213 -0.25793472 0.33201367 0.25224409
0.08079501 -0.09440871 0.36568445 0.22474071 -0.22688329 -0.2030265 -0.6162737 -0.8000066
0.058501523 0.3813456 -0.11614517 0.06584912 0.094469056 -0.21705121 0.4790347 -0.2733839
0.037907537 0.37695646 -0.46755028 -0.22754365 0.50747436 -0.55126303 -0.19585648 0.55157405
-0.21090177 0.42363885 -0.08418292 0.31689692 -0.21663402 -0.40226328 0.20654514 0.01561882
0.029273806 0.3923244 -0.059085622 0.41924036 0.32844 -0.1477813 0.31149432 -0.4785883
0.15114808 0.3706136 0.1281934 0.39602315 0.68036175 -0.1082795 -0.08089757 -0.081215516
-0.016165532 -0.08411785 0.37452635 -0.40225205 0.45671922 -0.40155762 0.68081295 -0.07537193
0.25671256 -0.17598398 -0.2663794 0.1163118 -0.49725 -0.32361245 0.32988906 0.07215048
0.16363876 -0.2613446 0.48465592 0.28516272 -0.38507167 -0.27183998 -0.7122482 -0.6124823
0.034384325 0.40221164 -0.06564308 0.040862925 0.15048228 -0.27237064 0.44897997 -0.15384501
-0.039524358 0.31746113 -0.5118871 -0.12645902 0.49331167 -0.65795076 -0.30365202 0.3807473
-0.3384907 0.4886371 -0.06929064 0.36866546 -0.20398885 -0.28195018 0.2246772 0.13495106
0.045455795 0.4479641 -0.15410191 0.52152824 0.38239792 -0.28144386 0.14535838 -0.44064537
0.37343445 0.2267855 0.090333715 0.40100962 0.66054857 -0.06537977 -0.12500072 -0.100331284
0.10451871 -0.12966926 0.4213747 -0.4571254 0.37196213 -0.60140604 0.66552186 -0.08419246
0.27707374 -0.25987238 -0.047511224 0.22312067 -0.56010824 -0.2778911 0.41967744 0.012969358
0.39062437 -0.21794285 0.3108821 0.361017 -0.2155243 -0.27302015 -0.6370111 -0.5610499
0.08579885 0.2314258 -0.24839947 0.1907181 0.3557867 0.0608244 0.24180755 0.031708825
0.24140947 0.1321651 -0.47672695 -0.29487652 0.25434804 -0.58122504 -0.13099901 0.4456192
-0.42862934 0.548797 -0.31281844 0.26943672 -0.10650953 -0.19593015 0.0047390023 -0.0947234
-0.007893763 0.19617087 -0.11228991 0.64603066 0.4441525 -0.01716937 0.041723683 -0.30213147
0.17729118 0.12255641 -0.16243774 0.23825365 0.66818684 -0.25187305 0.07594167 -0.3098165
0.2780152 -0.13043624 0.06616143 -0.2965794 0.4414735 -0.36621955 0.5435326 -0.2320354
0.090926126 0.049694795 0.03149464 -0.09957766 -0.7153913 0.042873405 0.13641268 0.12008641
0.022087095 0.017776154 0.1082005 0.13007134 -0.17926863 -0.020376883 -0.54312027 -0.61502486
00000000: a6c2 bc3c 302e 8b3e 0042 63be c412 32bc
00000010: 7d76 c83e ff81 ecbd 24ad 803e 6da4 39bd
00000020: 92d8 4f3d a63b b73e 25ce f1be 7054 b2be
00000030: 3c5c 873e a287 30bf 54ce efbd 2091 9d3e
00000040: 11d3 07bf 8076 013f b843 d3be 88db 4f3e
00000050: cb96 49be 145a 63be 73cd 48bd 606e 063d
00000060: f464 e1bb c07d b13e 74e0 63be c329 183f
00000070: 3880 1c3f a9f1 24bc ab51 f3bc 80da 6ebe
00000080: 501e b93d 045a 943d e117 60bd abbb bd3d
00000090: 6ed0 193f e9a5 ddbe 5d06 b13c 7647 5abe
000000a0: f767 3f3e a964 b7be 2554 303e a6f1 9abe
000000b0: 62e1 183f 82c9 e1be 537c fe3e 7cf2 e3be
000000c0: 46b9 903e e30b 8e3c a432 40bd ef98 223e
000000d0: 66df 42bf 0510 84be b2fd a93e 2326 813e
000000e0: db77 a53d 5b59 c1bd fe3a bb3e 6e22 663e
000000f0: 1854 68be 2ee6 4fbe 1dc4 1dbf 3ccd 4cbf
00000100: 4b9f 6f3d bb3f c33e 85dd edbd e7db 863d
00000110: fe78 c13d ac42 5ebe 0944 f53e f9f8 8bbe
00000120: ef44 1b3d 7000 c13e c062 efbe 3401 69be
00000130: d7e9 013f 931f 0dbf 9a8e 48be f533 0d3f
00000140: a2f6 57be 31e7 d83e 1868 acbd 5040 a23e
00000150: 4fd5 5dbe 74f5 cdbe 9280 533e 14e6 7f3c
00000160: 9fcf ef3c bede c83e c403 72bd aca6 d63e
00000170: 4a29 a83e fb53 17be 2f7c 9f3e 8709 f5be
00000180: 90c6 1a3e 11c1 bd3e 2145 033e 8cc3 ca3e
00000190: 302c 2e3f a4c1 ddbd a0ad a5bd 5254 a6bd
000001a0: 946d 84bc fb45 acbd ebc1 bf3e fbf3 cdbe
000001b0: 1ad7 e93e f698 cdbe c249 2e3f 995c 9abd
000001c0: d46f 833e 2535 34be e162 88be e234 ee3d
000001d0: 8d97 febe 88b0 a5be 38e7 a83e a1c3 933d
000001e0: eb90 273e f6ce 85be d224 f83e d900 923e
000001f0: 1d28 c5be 9c2e 8bbe e655 36bf a4cb 1cbf
00000200: 94d6 0c3d afee cd3e e16f 86bd e25f 273d
00000210: 0718 1a3e 2a74 8bbe b4e0 e53e 8c89 1dbe
00000220: 4be4 21bd 448a a23e 080b 03bf 797e 01be
00000230: 5993 fc3e 766f 28bf 4778 9bbe 4ff1 c23e
00000240: a74e adbe a42e fa3e 40e8 8dbd b8c1 bc3e
00000250: 74e2 50be c65b 90be c811 663e 9c30 0a3e
00000260: db2f 3a3d 8d5b e53e e4cc 1dbe e082 053f
00000270: a9c9 c33e 6919 90be d4d8 143e 459c e1be
00000280: cd32 bf3e 753a 683e e200 b93d 2251 cd3e
00000290: b619 293f d4e5 85bd 3000 00be 7d7a cdbd
000002a0: e80d d63d 05c8 04be 6dbe d73e 570c eabe
000002b0: d271 be3e bff5 19bf a45f 2a3f 196d acbd
000002c0: 9cdc 8d3e fe0d 85be 219b 42bd bf79 643e
000002d0: 4163 0fbf be47 8ebe f6df d63e 6e7d 543c
000002e0: ebff c73e 692c 5fbe f02b 9f3e 38d7 b83e
000002f0: 67b2 5cbe 4cc9 8bbe 2913 23bf f7a0 0fbf
00000300: 4fb7 af3d e3fa 6c3e 6e5c 7ebe 9b4b 433e
00000310: ad29 b63e 0223 793d 669c 773e 1de1 013d
00000320: 0b34 773e 4a56 073e 8e15 f4be 0efa 96be
00000330: e839 823e 2acb 14bf 9b24 06be 3328 e43e
00000340: 4e75 dbbe f67d 0c3f bd29 a0be 9cf3 893e
00000350: ab21 dabd eaa1 48be a249 9b3b 58fe c1bd
00000360: d754 01bc 04e1 483e 41f8 e5bd 4462 253f
00000370: f567 e33e c7a6 8cbc 74e6 2a3d fab0 9abe
00000380: d28b 353e dbfe fa3d 1456 26be c4f8 733e
00000390: 4b0e 2b3f 81f5 80be 4e87 9b3d 45a0 9ebe
000003a0: 0258 8e3e 1491 05be a57f 873d 41d9 97be
000003b0: d108 e23e 2181 bbbe f424 0b3f b09a 6dbe
000003c0: 7a37 ba3d c58c 4b3d 8600 013d 5fef cbbd
000003d0: e223 37bf 069c 2f3d c4af 0b3e ddef f53d
000003e0: ffef b43c 4c9f 913c 3998 dd3d 6c31 053e
000003f0: 3292 37be 6ced a6bc ee09 0bbf 4572 1dbf

decoder.linear2.bias f4 [150]
-0.11845242 -0.16038345 -0.144652 -0.12839314 -0.16436952 -0.14922069 -0.09365855 -0.15391017
-0.15473959 -0.14051664 -0.12864698 -0.148504 -0.14039303 -0.118900046 -0.14422986 -0.11372094
-0.1606252 -0.13461208 -0.13773808 -0.13599826 -0.10744547 -0.15351892 -0.13880214 -0.18110248
-0.14927687 -0.11257376 -0.19144848 -0.13445616 -0.12760267 -0.16404277 -0.10314263 -0.16551904
-0.09090623 -0.055957183 -0.14789985 -0.12891902 -0.16648863 -0.19809736 -0.10673132 -0.062884495
-0.15117851 -0.1862163 -0.19242735 -0.22583626 -0.17880253 -0.14404261 -0.21768554 -0.18028314
-0.17576513 -0.15912345 -0.09139634 -0.16074514 -0.18656974 -0.09067022 -0.20183396 -0.24249613
-0.14688803 -0.108628735 -0.21546212 -0.17182305 -0.09683911 -0.09363333 -0.27042508 -0.12667814
-0.20258746 -0.1261161 -0.2069208 -0.09804184 -0.10385417 -0.20416194 -0.1232906 -0.22093666
-0.22083434 -0.24987686 -0.1839214 -0.11090574 -0.24216208 -0.22066227 -0.11421653 -0.1859155
-0.15929517 -0.16287723 -0.18610898 -0.1680244 -0.2106593 -0.16908337 -0.14050747 -0.17090836
-0.18886162 -0.18252614 -0.13655755 -0.08703055 -0.10433275 -0.07440887 -0.05020525 -0.11077721
-0.122112624 -0.15249129 -0.16816516 -0.13973041 -0.28196877 0.019726153 0.16555873 -0.39100635
-0.100127116 -0.073573366 -0.26682884 -0.17779945 -0.169143 -0.04529034 -0.11838859 -0.33759168
-0.06664249 -0.29351115 0.06836025 -0.42468402 0.07494591 -0.34602833 -0.18914911 -0.0005048722
-0.42180866 0.10338273 -0.24276109 -0.34195772 -0.25734237 -0.14401038 -0.029447932 0.042214625
-0.1466851 0.16361943 -0.29142204 0.3802773 -0.28129926 -0.20337607 -0.23049243 -0.2587116
0.2998047 0.36849004 -0.27940032 -0.21295235 0.62888247 0.6179492 0.6132351 0.6209631
0.59681433 0.7014399 0.66564673 0.7165578 0.77846617 0.7329714
00000000: 2f97 f2bd 8f3b 24be a71f 14be 7e79 03be
00000010: 7c50 28be 4fcd 18be 0ed0 bfbd a19a 1dbe
00000020: 0e74 1ebe 98e3 0fbe 09bc 03be 6f11 18be
00000030: 31c3 0fbe de81 f3bd feb0 13be 86e6 e8bd
00000040: ef7a 24be c0d7 09be 360b 0dbe 2143 0bbe
00000050: 5f0c dcbd 1034 1dbe 2622 0ebe ee72 39be
00000060: 09dc 18be 128d e6bd 120b 44be e0ae 09be
00000070: 46aa 02be d4fa 27be 713c d3bd d37d 29be
00000080: 0c2d babd 5c33 65bd 0f73 17be 5903 04be
00000090: ff7b 2abe 09da 4abe f395 dabd 96c9 80bd
000000a0: 8ace 1abe 7caf 3ebe ad0b 45be 9f41 67be
000000b0: 0318 37be e87f 13be f5e8 5ebe 259c 38be
000000c0: c6fb 33be 42f1 22be 012e bbbd 609a 24be
000000d0: 230c 3fbe 4fb1 b9bd 90ad 4ebe e850 78be
000000e0: d169 16be be78 debd 1aa2 5cbe 62f2 2fbe
000000f0: 9553 c6bd d5c2 bfbd 2875 8abe eab7 01be
00000100: 1673 4fbe 9424 01be 0ce3 53be 29ca c8bd
00000110: 7fb1 d4bd d40f 51be c87f fcbd 383d 62be
00000120: 6622 62be b8df 7fbe e455 3cbe 8c22 e3bd
00000130: 56f9 77be 4af5 61be 5bea e9bd a260 3ebe
00000140: 461e 23be 4ac9 26be 5a93 3ebe 970e 2cbe
00000150: 12b7 57be 3124 2dbe 31e1 0fbe 9a02 2fbe
00000160: f164 41be 22e8 3abe bed5 0bbe 133d b2bd
00000170: 69ac d5bd ad63 98bd 05a4 4dbd 29df e2bd
00000180: 2f16 fabd ad26 1cbe 7d33 2cbe 7d15 0fbe
00000190: 365e 90be be98 a13c 3a88 293e fc31 c8be
000001a0: 720f cdbd a2ad 96bd ca9d 88be 0f11 36be
000001b0: d333 2dbe 5d82 39bd b875 f2bd d1d8 acbe
000001c0: dc7b 88bd 1847 96be 7500 8c3d 2f70 d9be
000001d0: 3e7d 993d a02a b1be 4eb0 41be 6659 04ba
000001e0: 4ef7 d7be 53ba d33d 5d96 78be 1515 afbe
000001f0: 61c2 83be 7577 13be ca3c f1bc 3ee9 2c3d
00000200: 9e34 16be da8b 273e 4535 95be b5b3 c23e
00000210: 7506 90be d141 50be 3506 6cbe d975 84be
00000220: 0080 993e baaa bc3e 8f0d 8fbe 2e10 5abe
00000230: 71fe 203f eb31 1e3f fafc 1c3f 70f7 1e3f
00000240: d3c8 183f 9191 333f d367 2a3f 5570 373f
00000250: 8f49 473f 03a4 3b3f

decoder.network.0.weight f4 [64, 1]
0.028279742 0.054212153 0.035716012 -7.2108 -0.9623118 -1.3014818 -0.004132331 -1.7939979
-10.061683 0.010101104 -0.051184442 0.54169357 0.04050537 0.65999943 -1.1192955 0.018631158
0.04844477 0.039602127 1.0385152 0.011429779 -1.3550042 -0.0034730774 1.3666979 0.07831708
1.3423185 -0.011560256 0.1869132 0.10271462 -1.4278321 -1.6391915 0.09702995 -0.054909013
0.0026658163 0.025143467 8.249641 -0.017686408 0.08582689 1.1841142 -1.5136263 0.0815763
-0.7917388 0.22130968 0.011041849 -0.03837011 -1.1155674 -0.033998 0.09950365 0.99360734
0.027194206 -1.6596136 -0.874343 2.0959668 0.6223253 -1.1943926 0.021172926 -0.66978204
0.014362777 -0.019620068 0.011257867 0.041421957 -0.04123589 -0.19016439 1.507118 -0.021928778
00000000: ebaa e73c 900d 5e3d f44a 123d e0be e6c0
00000010: 115a 76bf f596 a6bf 8168 87bb b9a1 e5bf
00000020: a7fc 20c1 1a7f 253c c7a6 51bd 6eac 0a3f
00000030: f5e8 253d b9f5 283f 1345 8fbf 5fa0 983c
00000040: 066e 463d d735 223d 11ee 843f f843 3b3c
00000050: c770 adbf 929c 63bb f5ef ae3f b564 a03d
00000060: 18d1 ab3f 3a67 3dbc 2d66 3f3e 0b5c d23d
00000070: 34c3 b6bf 07d1 d1bf a3b7 c63d 46e8 60bd
00000080: fab4 2e3b acf9 cd3c 88fe 0341 16e3 90bc
00000090: 02c6 af3d 0e91 973f 82be c1bf 7a11 a73d
000000a0: 65af 4abf 019f 623e dfe8 343c fa29 1dbd
000000b0: eaca 8ebf 7d41 0bbd 92c8 cb3d 0d5d 7e3f
000000c0: 62c6 de3c 386e d4bf f1d4 5fbf 5224 0640
000000d0: b650 1f3f dbe1 98bf d872 ad3c d676 2bbf
000000e0: da51 6b3c 44ba a0bc eb72 383c 12aa 293d
000000f0: f7e6 28bd 74ba 42be 3ee9 c03f fba3 b3bc

decoder.network.0.bias f4 [64]
-0.2239821 -0.3666903 -0.0023628469 0.048359856 -0.3541343 0.29333174 -0.41890505 0.78572357
0.1458587 -0.4502645 0.47085318 0.19249222 -0.54052323 0.32329473 0.3503263 -0.5718756
0.30127695 -0.6710867 0.9161851 -0.56123143 0.34120685 0.4181914 -0.2715825 -0.06483905
-0.28659588 -0.6545583 0.03700771 -0.45844606 -0.49090734 0.5915556 -0.22250235 0.45873356
-0.28217852 -0.2642637 -0.107848294 -0.41215014 -0.40311116 0.9980286 0.6172823 0.011316947
-0.13075607 0.045957476 -0.37221643 0.54531604 -0.38081962 0.44041708 -0.4938297 0.32401967
-0.48132184 0.66215277 0.2331331 -0.93321985 0.36708027 0.37133178 -0.3880571 -0.12196378
-0.40685362 0.09847808 -0.37063116 -0.5681475 0.40321553 0.19103508 0.4429196 0.37664244
00000000: 905b 65be d5be bbbe fed9 1abb fc14 463d
00000010: 1751 b5be 942f 963e b97a d6be 2e25 493f
00000020: fc5b 153e 1289 e6be ab13 f13e ae1c 453e
00000030: bb5f 0abf e386 a53e f85d b33e 7066 12bf
00000040: f940 9a3e 57cc 2bbf 1b8b 6a3f ddac 0fbf
00000050: aab2 ae3e 2f1d d63e dd0c 8bbe 56ca 84bd
00000060: b2bc 92be 2291 27bf 6695 173d 71b9 eabe
00000070: 3558 fbbe 3070 173f a8d7 63be 20df ea3e
00000080: b479 90be 924d 87be 91df dcbd 5805 d3be
00000090: 9664 cebe cd7e 7f3f 3606 1e3f b76a 393c
000000a0: ebe4 05be e83d 3c3d 2793 bebe d599 0b3f
000000b0: cafa c2be 597e e13e 3fd7 fcbe e8e5 a53e
000000c0: d16f f6be d882 293f 72ba 6e3e 7fe7 6ebf
000000d0: f2f1 bb3e 331f be3e 6caf c6be 25c8 f9bd
000000e0: 1e4f d0be e0ae c93d 5ec3 bdbe 1d72 11bf
000000f0: 4472 ce3e b39e 433e 5cc6 e23e 47d7 c03e
