models/basisdevae_lo.pt (torch, 60891 bytes, 23 tensors)

encoder.linear1.weight f4 [64, 50]
-0.07347572 0.1738777 -0.011847993 -0.08141504 -0.029017333 0.05462837 -0.007389994 -0.13417265
-0.013373433 0.18252203 -0.04578221 0.054703884 0.1168468 -0.07236847 -0.044923216 -0.0049125124
0.031688 -0.007409878 -0.111717634 0.055284884 0.064820886 0.1263581 0.0142316995 -0.08037835
0.009711845 0.1494315 0.12579516 0.13434547 -0.063544706 0.13343479 -0.007701495 -0.040431324
-0.1418331 -0.040523663 -0.075249285 -0.051556148 0.06919955 0.02047876 -0.024198793 0.061424498
-0.040194273 0.14865755 -0.014288985 0.17492262 0.046958677 -0.121922314 0.022425057 0.039288186
-0.04893287 -0.0070816567 -0.02365614 0.0900907 -0.052567698 0.051366214 0.12813672 0.11953098
0.036514085 0.13282149 0.13154322 0.04998455 -0.0122584365 -0.035307776 -0.0356008 -0.12897886
-0.14033467 -0.16262014 -0.025159165 -0.15361518 0.036197834 -0.075957246 -0.06369413 0.101134904
0.10441981 0.058634914 -0.0032987676 -0.18701862 0.12828578 0.08088874 0.17270853 -0.040108494
0.08495386 0.006771888 -0.0885049 -0.022744913 0.0094541125 -0.049132302 -0.13096309 0.15229285
-0.16244619 0.1075834 0.15342529 -0.07168562 0.044667765 -0.054429717 0.14666569 0.087189175
0.167293 0.015273869 -0.00916897 -0.117162414 -0.11967439 0.010136924 0.056826677 -0.021784864
-0.002644962 0.15225424 -0.15970871 0.0760032 0.014350054 -0.14019722 -0.05947733 0.005052603
-0.14506394 0.09617093 -0.03356178 0.011236879 -0.12592389 -0.15359026 0.12074158 -0.07894069
-0.053883858 0.004442333 0.02077345 0.112405896 0.028376283 -0.040148165 0.12656315 0.061431542
0.036983002 -0.12665947 -0.0012379781 -0.03534385 -0.09324191 -0.020234566 0.003028207 -0.035445366
-0.09084719 -0.112470746 -0.14078452 0.071282074 -0.014187207 -0.11767742 -0.08302039 0.16746305
-0.049111344 -0.03023006 0.16413923 0.114911936 -0.02973784 0.025218265 -0.08836914 0.031226955
0.06556238 0.08775827 -0.016765587 -0.028833354 -0.05864074 -0.06784456 -0.14245202 -0.18904816
-0.01409618 0.03794629 0.008668125 -0.04856884 0.0586862 -0.10137362 0.0263369 -0.017822297
-0.06030745 0.018889558 -0.14197181 0.07085611 -0.0920963 -0.16489793 0.05853013 -0.14880078
-0.10164545 -0.008562673 -0.089298725 -0.08714253 -0.010297129 0.18409275 0.019791376 -0.01185621
0.0021180639 -0.0050501893 -0.10607758 0.16068971 -0.085241556 -0.11238457 0.1337696 0.17615058
0.056188874 -0.024884325 0.086196646 0.18729998 0.14096437 -0.033784885 -0.09908445 -0.036296193
-0.1400723 -0.019229494 0.002406881 -0.076616965 0.0063703526 -0.09145891 -0.14136189 0.0071222177
-0.096168116 0.035062462 0.059686396 -0.060629718 -0.15108411 0.1107783 -0.081764385 -0.09332414
0.04178247 0.058280967 -0.041688047 0.018834444 -0.12279293 -0.14874358 0.09901807 0.05996595
-0.13369064 0.099710025 -0.0723611 -0.16912255 0.01323691 0.071644954 0.10398268 -0.015740978
0.007740637 -0.033301428 -0.06955078 -0.0075799525 -0.0031151234 0.15186417 0.07625791 0.092037134
0.16086356 0.10621326 0.06722385 0.024764145 0.07187681 -0.075777724 0.055868275 -0.057122074
-0.078283444 0.08457146 0.044220682 0.06871641 -0.074608594 -0.0030120576 0.08321466 -0.022168724
00000000: 707a 96bd ff0c 323e 161e 42bc eebc a6bd
00000010: c2b5 edbc ffc1 5f3d c327 f2bb 8e64 09be
00000020: 3e1c 5bbc 0ee7 3a3e 2086 3bbd 2e11 603d
00000030: 604d ef3d ec35 94bd 6801 38bd 24f9 a0bb
00000040: 47cb 013d 90ce f2bb 37cc e4bd 6772 623d
00000050: d0c0 843d 0564 013e 132c 693c 689d a4bd
00000060: 6e1e 1f3c 9204 193e 72d0 003e dc91 093e
00000070: ba23 82bd 21a3 083e d35c fcbb 519b 25bd
00000080: b23c 11be 24fc 25bd 4c1c 9abd 8a2c 53bd
00000090: 7eb8 8d3d 13c3 a73c 8c3c c6bc 4198 7b3d
000000a0: c0a2 24bd af39 183e 591c 6abc ea1e 333e
000000b0: be57 403d 68b2 f9bd c1b4 b73c a6ec 203d
000000c0: d56d 48bd 3e0d e8bb 85ca c1bc 7981 b83d
000000d0: 3a51 57bd 6165 523d 4636 033e a9cc f43d
000000e0: cb8f 153d 5b02 083e 44b3 063e 99bc 4c3d
000000f0: 9cd7 48bc e39e 10bd 25d2 11bd 0913 04be
00000100: e4b3 0fbe e585 26be 981a cebc 4c4d 1dbe
00000110: 2e44 143d 798f 9bbd 1172 82bd d11f cf3d
00000120: 0eda d53d 2a2b 703d 2330 58bb cf81 3fbe
00000130: 595d 033e ffa8 a53d 81da 303e ce48 24bd
00000140: 4afc ad3d b7e6 dd3b 0f42 b5bd 8a53 babc
00000150: 6ce5 1a3c f43e 49bd 301b 06be a8f2 1b3e
00000160: 4b58 26be b054 dc3d 851b 1d3e e9cf 92bd
00000170: 8cf5 363d b2f1 5ebd 882f 163e 3d90 b23d
00000180: db4e 2b3e 403f 7a3c 7339 16bc d9f2 efbd
00000190: d917 f5bd 5715 263c 17c3 683d 2c76 b2bc
000001a0: 1957 2dbb 89e8 1b3e ae8a 23be 91a7 9b3d
000001b0: 7d1c 6b3c dc8f 0fbe 809e 73bd 4e90 a53b
000001c0: a48b 14be 44f5 c43d 1478 09bd e31a 383c
000001d0: 31f2 00be c446 1dbe 5d47 f73d a8ab a1bd
000001e0: 52b5 5cbd fd90 913b 152d aa3c 1035 e63d
000001f0: 6175 e83c 6772 24bd c599 013e a49f 7b3d
00000200: 7d7b 173d 05b3 01be a743 a2ba b6c4 10bd
00000210: 9df5 bebd f6c2 a5bc e274 463b 292f 11bd
00000220: 170e babd 1057 e6bd d129 10be 56fc 913d
00000230: 7671 68bc dc00 f1bd 9806 aabd 6f7b 2b3e
00000240: fa28 49bd 08a5 f7bc 1d14 283e f356 eb3d
00000250: c59c f3bc 8996 ce3c e1fa b4bd accf ff3c
00000260: 9245 863d 9cba b33d fc57 89bc ed33 ecbc
00000270: 4631 70bd 17f2 8abd f1de 11be d795 41be
00000280: aaf3 66bc 926d 1b3d c004 0e3c 1ff0 46bd
00000290: f160 703d f99c cfbd 7cc0 d73c 1100 92bc
000002a0: f204 77bd 46be 9a3c 0f61 11be 021d 913d
000002b0: fc9c bcbd 01db 28be 4abd 6f3d 3b5f 18be
000002c0: 7d2b d0bd 744a 0cbc 40e2 b6bd c877 b2bd
000002d0: 4ab5 28bc cf82 3c3e 8621 a23c 8d40 42bc
000002e0: 37cf 0a3b 0f7c a5bb 343f d9bd d88b 243e
000002f0: 2093 aebd e229 e6bd e6fa 083e d160 343e
00000300: 4e26 663d 36da cbbc de87 b03d 91cb 3f3e
00000310: f758 103e 0562 0abd caec cabd 51ab 14bd
00000320: 1d6f 0fbe 2c87 9dbc c3bc 1d3b 5be9 9cbd
00000330: 64be d03b cf4e bbbd 2cc1 10be 7e61 e93b
00000340: caf3 c4bd a89d 0f3d b979 743d de56 78bd
00000350: cbb5 1abe bcdf e23d 1674 a7bd ba20 bfbd
00000360: 1824 2b3d 06b8 6e3d 16c1 2abd b14a 9a3c
00000370: dc7a fbbd 3d50 18be fcc9 ca3d db9e 753d
00000380: 33e6 08be c534 cc3d 0e32 94bd 762e 2dbe
00000390: a0df 583c 97ba 923d dff4 d43d 39f3 80bc
000003a0: 2ba5 fd3b 1467 08bd a470 8ebd 4061 f8bb
000003b0: 1927 4cbb 4882 1b3e 1b2d 9c3d f77d bc3d
000003c0: 6bb9 243e 5686 d93d a8ac 893d 2dde ca3c
000003d0: 2634 933d 5a31 9bbd 22d6 643d d6f8 69bd
000003e0: 1253 a0bd cd33 ad3d bf20 353d 30bb 8c3d
000003f0: 64cc 98bd f165 45bb 736c aa3d 2f9b b5bc

encoder.linear1.bias f4 [64]
0.2661094 0.12337371 -0.0380503 -0.13013141 -0.15676728 -0.035349905 0.08056301 0.142127
0.0539145 0.021124382 -0.024452332 0.730061 -0.035628147 0.008324767 0.20484072 0.12670559
0.2198604 -0.035503965 0.050859217 0.009513451 -0.11807825 0.32595146 -0.18017486 0.07711053
0.26444238 -0.12625808 0.03365244 -0.1113356 0.47041398 0.273536 -0.08773853 0.2596912
0.82457006 1.0747417 -0.03039963 0.005380529 1.0984987 0.06401205 -0.029768523 0.22833344
0.023986174 0.18712069 -0.030369977 -0.100520864 -0.088238426 0.0042708414 -0.117333926 -0.028223319
-0.14065365 0.23232177 -0.1564125 0.10996069 -0.11301538 0.059744153 -0.09002268 0.14616168
-0.031167109 -0.10582917 -0.08486427 -0.022708803 0.6616271 -0.011726815 -0.03854815 0.0041558878
00000000: 7e3f 883e 5bab fc3d a2da 1bbd 2b41 05be
00000010: 9a87 20be 10cb 10bd 38fe a43d be89 113e
00000020: 73d5 5c3d 0a0d ad3c 4250 c8bc 47e5 3a3f
00000030: d2ee 11bd 9b64 083c c4c1 513e 1cbf 013e
00000040: 1623 613e 9b6c 11bd c151 503d 4ede 1b3c
00000050: 02d3 f1bd 1ce3 a63e c27f 38be 20ec 9d3d
00000060: fe64 873e cc49 01be 24d7 093d eb03 e4bd
00000070: 1ada f03e e90c 8c3e 42b0 b3bd 3ff6 843e
00000080: 0617 533f 2391 893f a508 f9bc 264f b03b
00000090: 9b9b 8c3f c018 833d 1edd f3bc 3ed0 693e
000000a0: a77e c43c 919c 3f3e 75ca f8bc e2dd cdbd
000000b0: 59b6 b4bd 6af2 8b3b c54c f0bd 9734 e7bc
000000c0: 8307 10be c2e5 6d3e 992a 20be 1233 e13d
000000d0: 9c74 e7bd 49b6 743d d05d b8bd 68ab 153e
000000e0: 2a52 ffbc f7bc d8bd 52cd adbd d007 babc
000000f0: 6560 293f d421 40bc aae4 1dbd 1d2e 883b

encoder.linear2.weight f4 [2, 64]
-0.021828426 -0.0022148362 0.00055069424 0.06514092 0.010004096 0.0046890057 0.084607266 0.10591446
0.05333456 0.09683134 0.019832037 -0.33261624 -0.06346728 0.020014022 -0.0047515384 0.0747306
-0.005266846 0.040876683 0.11408241 0.0005479344 0.208917 -0.05954578 0.019311184 0.021352941
-0.41226527 0.07611516 0.0015478039 0.05112627 -0.31040668 -0.023265472 0.02483511 -0.004788123
-0.20497862 -0.50711983 -0.095646694 0.04196125 -1.0025829 -0.0016683572 0.08193578 -0.006717111
0.08448281 -0.0012073804 0.031442396 -0.0960105 -0.013906799 -0.06724697 0.0017282795 0.15672812
0.018008875 -0.028890762 -0.049855195 -0.00215263 0.08694382 0.10609231 0.09159306 -0.04946468
0.26603317 0.12547576 0.04281962 -0.042221755 -0.054284073 -0.0004935406 0.018311474 0.015928002
-0.41260928 -0.25988603 -0.14956512 0.032368597 -0.00082944834 -0.0307197 0.039144594 -0.015841652
0.008736959 0.07367797 -0.11040916 -0.31193444 0.005937817 0.049248107 -0.4210007 -0.31090593
-0.21440378 -0.2127756 -0.023477122 -0.26188454 0.003799844 -0.30172998 -0.010718653 0.04480669
0.1868909 -0.23155147 -0.16426167 0.040288195 -0.0037635474 -0.23112687 -0.01327078 -0.14969644
-0.091747075 -0.49837774 0.04667539 -0.24099518 -0.60127133 -0.19778018 0.055403646 -0.29322433
-0.020466896 -0.36467108 -0.10045663 0.039442725 -0.11809435 0.062991396 -0.10174458 0.01016855
-0.19734162 -0.09583763 0.10052838 -0.17662138 -0.2062275 -0.0024635 -0.19336371 -0.01705405
-0.009018084 0.012701385 -0.12309453 -0.018774336 -0.087860785 -0.14000142 -0.03770515 -0.025758702
00000000: 87d1 b2bc c926 11bb 775c 103a 9a68 853d
00000010: 38e8 233c 3ba6 993b 9346 ad3d aee9 d83d
00000020: 5775 5a3d 824f c63d cc76 a23c ad4c aabe
00000030: 22fb 81bd 72f4 a33c cbb2 9bbb 5b0c 993d
00000040: 8295 acbb 4f6e 273d 0aa4 e93d 41a3 0f3a
00000050: 57ee 553e 47e6 73bd 7d32 9e3c 5dec ae3c
00000060: 6f14 d3be 44e2 9b3d aedf ca3a c869 513d
00000070: a0ed 9ebe 3b97 bebc 0073 cb3c b0e5 9cbb
00000080: eae5 51be 9bd2 01bf 6ae2 c3bd 8fdf 2b3d
00000090: a354 80bf c7ac daba f2cd a73d 361b dcbb
000000a0: 5305 ad3d f740 9eba bec9 003d 27a1 c4bd
000000b0: 58d9 63bc c8b8 89bd 7087 e23a 567d 203e
000000c0: 5987 933c 52ac ecbc f634 4cbd 2313 0dbb
000000d0: 9a0f b23d ed46 d93d 2495 bb3d 7a9b 4abd
000000e0: 8035 883e b87c 003e a063 2f3d b8f0 2cbd
000000f0: fa58 5ebd f360 01ba f201 963c 717b 823c
00000100: 8641 d3be c80f 85be 9927 19be ef94 043d
00000110: 566f 59ba e1a7 fbbc 1556 203d 5ac6 81bc
00000120: 7625 0f3c 7ae4 963d 331e e2bd dfb5 9fbe
00000130: 0592 c23b 62b8 493d 678d d7be 102f 9fbe
00000140: aa8c 5bbe d9e1 59be 1853 c0bc bb15 86be
00000150: ce06 793b 5a7c 9abe 4a9d 2fbc 3887 373d
00000160: 5460 3f3e d41b 6dbe 3634 28be 3c05 253d
00000170: d9a5 76bb 86ac 6cbe b06d 59bc 064a 19be
00000180: e4e5 bbbd 5e2b ffbe b22e 3f3d 71c7 76be
00000190: ebec 19bf e386 4abe efee 623d 8021 96be
000001a0: 31aa a7bc 2bb6 babe 35bc cdbd b28e 213d
000001b0: 73db f1bd a201 813d 765f d0bd fd99 263c
000001c0: ec13 4abe 8546 c4bd d3e1 cd3d 3cdc 34be
000001d0: 4d2d 53be ac72 21bb 2301 46be efb4 8bbc
000001e0: 96c0 13bc 7819 503c fc18 fcbd a3cc 99bc
000001f0: 5bf0 b3bd 885c 0fbe b770 1abd ea03 d3bc

encoder.linear2.bias f4 [2]
-0.08986121 -0.19914308
00000000: 2709 b8bd 2aec 4bbe

encoder.network.0.weight f4 [64, 50]
-0.07347572 0.1738777 -0.011847993 -0.08141504 -0.029017333 0.05462837 -0.007389994 -0.13417265
-0.013373433 0.18252203 -0.04578221 0.054703884 0.1168468 -0.07236847 -0.044923216 -0.0049125124
0.031688 -0.007409878 -0.111717634 0.055284884 0.064820886 0.1263581 0.0142316995 -0.08037835
0.009711845 0.1494315 0.12579516 0.13434547 -0.063544706 0.13343479 -0.007701495 -0.040431324
-0.1418331 -0.040523663 -0.075249285 -0.051556148 0.06919955 0.02047876 -0.024198793 0.061424498
-0.040194273 0.14865755 -0.014288985 0.17492262 0.046958677 -0.121922314 0.022425057 0.039288186
-0.04893287 -0.0070816567 -0.02365614 0.0900907 -0.052567698 0.051366214 0.12813672 0.11953098
0.036514085 0.13282149 0.13154322 0.04998455 -0.0122584365 -0.035307776 -0.0356008 -0.12897886
-0.14033467 -0.16262014 -0.025159165 -0.15361518 0.036197834 -0.075957246 -0.06369413 0.101134904
0.10441981 0.058634914 -0.0032987676 -0.18701862 0.12828578 0.08088874 0.17270853 -0.040108494
0.08495386 0.006771888 -0.0885049 -0.022744913 0.0094541125 -0.049132302 -0.13096309 0.15229285
-0.16244619 0.1075834 0.15342529 -0.07168562 0.044667765 -0.054429717 0.14666569 0.087189175
0.167293 0.015273869 -0.00916897 -0.117162414 -0.11967439 0.010136924 0.056826677 -0.021784864
-0.002644962 0.15225424 -0.15970871 0.0760032 0.014350054 -0.14019722 -0.05947733 0.005052603
-0.14506394 0.09617093 -0.03356178 0.011236879 -0.12592389 -0.15359026 0.12074158 -0.07894069
-0.053883858 0.004442333 0.02077345 0.112405896 0.028376283 -0.040148165 0.12656315 0.061431542
0.036983002 -0.12665947 -0.0012379781 -0.03534385 -0.09324191 -0.020234566 0.003028207 -0.035445366
-0.09084719 -0.112470746 -0.14078452 0.071282074 -0.014187207 -0.11767742 -0.08302039 0.16746305
-0.049111344 -0.03023006 0.16413923 0.114911936 -0.02973784 0.025218265 -0.08836914 0.031226955
0.06556238 0.08775827 -0.016765587 -0.028833354 -0.05864074 -0.06784456 -0.14245202 -0.18904816
-0.01409618 0.03794629 0.008668125 -0.04856884 0.0586862 -0.10137362 0.0263369 -0.017822297
-0.06030745 0.018889558 -0.14197181 0.07085611 -0.0920963 -0.16489793 0.05853013 -0.14880078
-0.10164545 -0.008562673 -0.089298725 -0.08714253 -0.010297129 0.18409275 0.019791376 -0.01185621
0.0021180639 -0.0050501893 -0.10607758 0.16068971 -0.085241556 -0.11238457 0.1337696 0.17615058
0.056188874 -0.024884325 0.086196646 0.18729998 0.14096437 -0.033784885 -0.09908445 -0.036296193
-0.1400723 -0.019229494 0.002406881 -0.076616965 0.0063703526 -0.09145891 -0.14136189 0.0071222177
-0.096168116 0.035062462 0.059686396 -0.060629718 -0.15108411 0.1107783 -0.081764385 -0.09332414
0.04178247 0.058280967 -0.041688047 0.018834444 -0.12279293 -0.14874358 0.09901807 0.05996595
-0.13369064 0.099710025 -0.0723611 -0.16912255 0.01323691 0.071644954 0.10398268 -0.015740978
0.007740637 -0.033301428 -0.06955078 -0.0075799525 -0.0031151234 0.15186417 0.07625791 0.092037134
0.16086356 0.10621326 0.06722385 0.024764145 0.07187681 -0.075777724 0.055868275 -0.057122074
-0.078283444 0.08457146 0.044220682 0.06871641 -0.074608594 -0.0030120576 0.08321466 -0.022168724
00000000: 707a 96bd ff0c 323e 161e 42bc eebc a6bd
00000010: c2b5 edbc ffc1 5f3d c327 f2bb 8e64 09be
00000020: 3e1c 5bbc 0ee7 3a3e 2086 3bbd 2e11 603d
00000030: 604d ef3d ec35 94bd 6801 38bd 24f9 a0bb
00000040: 47cb 013d 90ce f2bb 37cc e4bd 6772 623d
00000050: d0c0 843d 0564 013e 132c 693c 689d a4bd
00000060: 6e1e 1f3c 9204 193e 72d0 003e dc91 093e
00000070: ba23 82bd 21a3 083e d35c fcbb 519b 25bd
00000080: b23c 11be 24fc 25bd 4c1c 9abd 8a2c 53bd
00000090: 7eb8 8d3d 13c3 a73c 8c3c c6bc 4198 7b3d
000000a0: c0a2 24bd af39 183e 591c 6abc ea1e 333e
000000b0: be57 403d 68b2 f9bd c1b4 b73c a6ec 203d
000000c0: d56d 48bd 3e0d e8bb 85ca c1bc 7981 b83d
000000d0: 3a51 57bd 6165 523d 4636 033e a9cc f43d
000000e0: cb8f 153d 5b02 083e 44b3 063e 99bc 4c3d
000000f0: 9cd7 48bc e39e 10bd 25d2 11bd 0913 04be
00000100: e4b3 0fbe e585 26be 981a cebc 4c4d 1dbe
00000110: 2e44 143d 798f 9bbd 1172 82bd d11f cf3d
00000120: 0eda d53d 2a2b 703d 2330 58bb cf81 3fbe
00000130: 595d 033e ffa8 a53d 81da 303e ce48 24bd
00000140: 4afc ad3d b7e6 dd3b 0f42 b5bd 8a53 babc
00000150: 6ce5 1a3c f43e 49bd 301b 06be a8f2 1b3e
00000160: 4b58 26be b054 dc3d 851b 1d3e e9cf 92bd
00000170: 8cf5 363d b2f1 5ebd 882f 163e 3d90 b23d
00000180: db4e 2b3e 403f 7a3c 7339 16bc d9f2 efbd
00000190: d917 f5bd 5715 263c 17c3 683d 2c76 b2bc
000001a0: 1957 2dbb 89e8 1b3e ae8a 23be 91a7 9b3d
000001b0: 7d1c 6b3c dc8f 0fbe 809e 73bd 4e90 a53b
000001c0: a48b 14be 44f5 c43d 1478 09bd e31a 383c
000001d0: 31f2 00be c446 1dbe 5d47 f73d a8ab a1bd
000001e0: 52b5 5cbd fd90 913b 152d aa3c 1035 e63d
000001f0: 6175 e83c 6772 24bd c599 013e a49f 7b3d
00000200: 7d7b 173d 05b3 01be a743 a2ba b6c4 10bd
00000210: 9df5 bebd f6c2 a5bc e274 463b 292f 11bd
00000220: 170e babd 1057 e6bd d129 10be 56fc 913d
00000230: 7671 68bc dc00 f1bd 9806 aabd 6f7b 2b3e
00000240: fa28 49bd 08a5 f7bc 1d14 283e f356 eb3d
00000250: c59c f3bc 8996 ce3c e1fa b4bd accf ff3c
00000260: 9245 863d 9cba b33d fc57 89bc ed33 ecbc
00000270: 4631 70bd 17f2 8abd f1de 11be d795 41be
00000280: aaf3 66bc 926d 1b3d c004 0e3c 1ff0 46bd
00000290: f160 703d f99c cfbd 7cc0 d73c 1100 92bc
000002a0: f204 77bd 46be 9a3c 0f61 11be 021d 913d
000002b0: fc9c bcbd 01db 28be 4abd 6f3d 3b5f 18be
000002c0: 7d2b d0bd 744a 0cbc 40e2 b6bd c877 b2bd
000002d0: 4ab5 28bc cf82 3c3e 8621 a23c 8d40 42bc
000002e0: 37cf 0a3b 0f7c a5bb 343f d9bd d88b 243e
000002f0: 2093 aebd e229 e6bd e6fa 083e d160 343e
00000300: 4e26 663d 36da cbbc de87 b03d 91cb 3f3e
00000310: f758 103e 0562 0abd caec cabd 51ab 14bd
00000320: 1d6f 0fbe 2c87 9dbc c3bc 1d3b 5be9 9cbd
00000330: 64be d03b cf4e bbbd 2cc1 10be 7e61 e93b
00000340: caf3 c4bd a89d 0f3d b979 743d de56 78bd
00000350: cbb5 1abe bcdf e23d 1674 a7bd ba20 bfbd
00000360: 1824 2b3d 06b8 6e3d 16c1 2abd b14a 9a3c
00000370: dc7a fbbd 3d50 18be fcc9 ca3d db9e 753d
00000380: 33e6 08be c534 cc3d 0e32 94bd 762e 2dbe
00000390: a0df 583c 97ba 923d dff4 d43d 39f3 80bc
000003a0: 2ba5 fd3b 1467 08bd a470 8ebd 4061 f8bb
000003b0: 1927 4cbb 4882 1b3e 1b2d 9c3d f77d bc3d
000003c0: 6bb9 243e 5686 d93d a8ac 893d 2dde ca3c
000003d0: 2634 933d 5a31 9bbd 22d6 643d d6f8 69bd
000003e0: 1253 a0bd cd33 ad3d bf20 353d 30bb 8c3d
000003f0: 64cc 98bd f165 45bb 736c aa3d 2f9b b5bc

encoder.network.0.bias f4 [64]
0.2661094 0.12337371 -0.0380503 -0.13013141 -0.15676728 -0.035349905 0.08056301 0.142127
0.0539145 0.021124382 -0.024452332 0.730061 -0.035628147 0.008324767 0.20484072 0.12670559
0.2198604 -0.035503965 0.050859217 0.009513451 -0.11807825 0.32595146 -0.18017486 0.07711053
0.26444238 -0.12625808 0.03365244 -0.1113356 0.47041398 0.273536 -0.08773853 0.2596912
0.82457006 1.0747417 -0.03039963 0.005380529 1.0984987 0.06401205 -0.029768523 0.22833344
0.023986174 0.18712069 -0.030369977 -0.100520864 -0.088238426 0.0042708414 -0.117333926 -0.028223319
-0.14065365 0.23232177 -0.1564125 0.10996069 -0.11301538 0.059744153 -0.09002268 0.14616168
-0.031167109 -0.10582917 -0.08486427 -0.022708803 0.6616271 -0.011726815 -0.03854815 0.0041558878
00000000: 7e3f 883e 5bab fc3d a2da 1bbd 2b41 05be
00000010: 9a87 20be 10cb 10bd 38fe a43d be89 113e
00000020: 73d5 5c3d 0a0d ad3c 4250 c8bc 47e5 3a3f
00000030: d2ee 11bd 9b64 083c c4c1 513e 1cbf 013e
00000040: 1623 613e 9b6c 11bd c151 503d 4ede 1b3c
00000050: 02d3 f1bd 1ce3 a63e c27f 38be 20ec 9d3d
00000060: fe64 873e cc49 01be 24d7 093d eb03 e4bd
00000070: 1ada f03e e90c 8c3e 42b0 b3bd 3ff6 843e
00000080: 0617 533f 2391 893f a508 f9bc 264f b03b
00000090: 9b9b 8c3f c018 833d 1edd f3bc 3ed0 693e
000000a0: a77e c43c 919c 3f3e 75ca f8bc e2dd cdbd
000000b0: 59b6 b4bd 6af2 8b3b c54c f0bd 9734 e7bc
000000c0: 8307 10be c2e5 6d3e 992a 20be 1233 e13d
000000d0: 9c74 e7bd 49b6 743d d05d b8bd 68ab 153e
000000e0: 2a52 ffbc f7bc d8bd 52cd adbd d007 babc
000000f0: 6560 293f d421 40bc aae4 1dbd 1d2e 883b

encoder.network.2.weight f4 [2, 64]
-0.021828426 -0.0022148362 0.00055069424 0.06514092 0.010004096 0.0046890057 0.084607266 0.10591446
0.05333456 0.09683134 0.019832037 -0.33261624 -0.06346728 0.020014022 -0.0047515384 0.0747306
-0.005266846 0.040876683 0.11408241 0.0005479344 0.208917 -0.05954578 0.019311184 0.021352941
-0.41226527 0.07611516 0.0015478039 0.05112627 -0.31040668 -0.023265472 0.02483511 -0.004788123
-0.20497862 -0.50711983 -0.095646694 0.04196125 -1.0025829 -0.0016683572 0.08193578 -0.006717111
0.08448281 -0.0012073804 0.031442396 -0.0960105 -0.013906799 -0.06724697 0.0017282795 0.15672812
0.018008875 -0.028890762 -0.049855195 -0.00215263 0.08694382 0.10609231 0.09159306 -0.04946468
0.26603317 0.12547576 0.04281962 -0.042221755 -0.054284073 -0.0004935406 0.018311474 0.015928002
-0.41260928 -0.25988603 -0.14956512 0.032368597 -0.00082944834 -0.0307197 0.039144594 -0.015841652
0.008736959 0.07367797 -0.11040916 -0.31193444 0.005937817 0.049248107 -0.4210007 -0.31090593
-0.21440378 -0.2127756 -0.023477122 -0.26188454 0.003799844 -0.30172998 -0.010718653 0.04480669
0.1868909 -0.23155147 -0.16426167 0.040288195 -0.0037635474 -0.23112687 -0.01327078 -0.14969644
-0.091747075 -0.49837774 0.04667539 -0.24099518 -0.60127133 -0.19778018 0.055403646 -0.29322433
-0.020466896 -0.36467108 -0.10045663 0.039442725 -0.11809435 0.062991396 -0.10174458 0.01016855
-0.19734162 -0.09583763 0.10052838 -0.17662138 -0.2062275 -0.0024635 -0.19336371 -0.01705405
-0.009018084 0.012701385 -0.12309453 -0.018774336 -0.087860785 -0.14000142 -0.03770515 -0.025758702
00000000: 87d1 b2bc c926 11bb 775c 103a 9a68 853d
00000010: 38e8 233c 3ba6 993b 9346 ad3d aee9 d83d
00000020: 5775 5a3d 824f c63d cc76 a23c ad4c aabe
00000030: 22fb 81bd 72f4 a33c cbb2 9bbb 5b0c 993d
00000040: 8295 acbb 4f6e 273d 0aa4 e93d 41a3 0f3a
00000050: 57ee 553e 47e6 73bd 7d32 9e3c 5dec ae3c
00000060: 6f14 d3be 44e2 9b3d aedf ca3a c869 513d
00000070: a0ed 9ebe 3b97 bebc 0073 cb3c b0e5 9cbb
00000080: eae5 51be 9bd2 01bf 6ae2 c3bd 8fdf 2b3d
00000090: a354 80bf c7ac daba f2cd a73d 361b dcbb
000000a0: 5305 ad3d f740 9eba bec9 003d 27a1 c4bd
000000b0: 58d9 63bc c8b8 89bd 7087 e23a 567d 203e
000000c0: 5987 933c 52ac ecbc f634 4cbd 2313 0dbb
000000d0: 9a0f b23d ed46 d93d 2495 bb3d 7a9b 4abd
000000e0: 8035 883e b87c 003e a063 2f3d b8f0 2cbd
000000f0: fa58 5ebd f360 01ba f201 963c 717b 823c
00000100: 8641 d3be c80f 85be 9927 19be ef94 043d
00000110: 566f 59ba e1a7 fbbc 1556 203d 5ac6 81bc
00000120: 7625 0f3c 7ae4 963d 331e e2bd dfb5 9fbe
00000130: 0592 c23b 62b8 493d 678d d7be 102f 9fbe
00000140: aa8c 5bbe d9e1 59be 1853 c0bc bb15 86be
00000150: ce06 793b 5a7c 9abe 4a9d 2fbc 3887 373d
00000160: 5460 3f3e d41b 6dbe 3634 28be 3c05 253d
00000170: d9a5 76bb 86ac 6cbe b06d 59bc 064a 19be
00000180: e4e5 bbbd 5e2b ffbe b22e 3f3d 71c7 76be
00000190: ebec 19bf e386 4abe efee 623d 8021 96be
000001a0: 31aa a7bc 2bb6 babe 35bc cdbd b28e 213d
000001b0: 73db f1bd a201 813d 765f d0bd fd99 263c
000001c0: ec13 4abe 8546 c4bd d3e1 cd3d 3cdc 34be
000001d0: 4d2d 53be ac72 21bb 2301 46be efb4 8bbc
000001e0: 96c0 13bc 7819 503c fc18 fcbd a3cc 99bc
000001f0: 5bf0 b3bd 885c 0fbe b770 1abd ea03 d3bc

encoder.network.2.bias f4 [2]
-0.08986121 -0.19914308
00000000: 2709 b8bd 2aec 4bbe

decoder.Aj f4 [50, 1]
0.33117914 1.2345369 0.9387133 0.94751054 0.86075926 0.5284014 -0.23670529 -0.049262155
1.1485437 -0.7234521 0.056424346 1.1024342 0.11943419 -0.05355393 -0.1701695 1.046393
0.6788586 1.3303021 -0.61181 -0.16100211 0.37964678 -0.34158543 0.7671991 1.322654
1.0239943 -0.6982218 0.26925293 -0.29282376 0.44978392 0.62031686 -0.4856338 -1.245507
-0.009115458 0.5763293 -1.2735977 -0.51354414 -1.2824281 -1.0248299 -0.089935675 0.6717918
-1.0694089 -0.5440898 -0.7504325 -0.8726592 -0.9909798 -1.015783 -0.98142093 -1.1954166
-1.4293697 -0.9740293
00000000: 5090 a93e 4e05 9e3f 844f 703f 0d90 723f
00000010: b85a 5c3f 5045 073f df62 72be 1dc7 49bd
00000020: 7b03 933f 2834 39bf 371d 673d 901c 8d3f
00000030: ea99 f43d 5e5b 5bbd ea40 2ebe 35f0 853f
00000040: adc9 2d3f 5747 aa3f 959f 1cbf bddd 24be
00000050: 1061 c23e 49e4 aebe 2967 443f ba4c a93f
00000060: 3f12 833f aabe 32bf 85db 893e ffec 95be
00000070: 144a e63e 16cd 1e3f fea4 f8be c66c 9fbf
00000080: 0059 15bc 518a 133f 4005 a3bf a177 03bf
00000090: 9b26 a4bf a02d 83bf 3230 b8bd 8cfa 2b3f
000000a0: 64e2 88bf 7849 0bbf 581c 40bf 9866 5fbf
000000b0: dab0 7dbf 2d05 82bf 673e 7bbf 6903 99bf
000000c0: 96f5 b6bf fc59 79bf

decoder.c f4 [50]
0.19827515 0.07571069 0.15588392 0.48992938 0.027286163 0.11348185 0.76131386 0.097214304
0.07654183 0.092622 0.0068131676 0.05635111 0.03855657 0.8205226 0.15240547 0.5497893
0.11050692 0.27705255 0.3845042 0.06793512 0.5522952 0.14057314 0.08913166 0.10852983
0.11373948 0.76013845 0.057807583 0.038029283 0.13082075 0.1213406 0.091603234 1.8107744
0.11623965 -0.37300992 0.9230725 0.12383752 1.7398936 1.9221979 -0.19825533 -0.23293991
1.6421258 1.5044966 1.6396301 1.3535908 1.2548708 1.5635626 1.6309441 1.6804601
1.8789696 1.9481685
00000000: a408 4b3e 350e 9b3d 09a0 1f3e 06d8 fa3e
00000010: 3b87 df3c 2c69 e83d 77e5 423f 4b18 c73d
00000020: f7c1 9c3d 9ab0 bd3d fe40 df3b 6cd0 663d
00000030: 7eed 1d3d c50d 523f 2e10 1c3e febe 0c3f
00000040: 7451 e23d d5d9 8d3e bcdd c43e 9121 8b3d
00000050: 3863 0d3f 68f2 0f3e a98a b63d e344 de3d
00000060: 3ff0 e83d 6f98 423f a5c7 6c3d 98c4 1b3d
00000070: e0f5 053e 6c81 f83d 7a9a bb3d 75c7 e73f
00000080: 0e0f ee3d 28fb bebe 7b4e 6c3f 879e fd3d
00000090: d5b4 de3f 950a f63f 7203 4bbe cd87 6ebe
000000a0: 2e31 d23f 5893 c03f 66df d13f 7742 ad3f
000000b0: 9b9f a03f d222 c83f c7c2 d03f 5119 d73f
000000c0: 1382 f03f 965d f93f

decoder.qphi_logits f4 [50, 3]
4.51566 -2.7388537 1.5410628 -2.7631288 -2.0972872 5.606175 -2.2762475 -0.8347735
6.3620296 4.8502927 -2.9812677 -0.4040592 -1.1141886 -2.1517725 6.2081523 -2.0701354
-2.5749733 5.6069565 4.992538 -2.2573764 -0.12910019 1.8115404 -2.9733973 3.6233993
-1.6123658 -2.395308 6.0919466 -1.7414175 -1.9567051 3.9770405 2.1720068 -2.9853573
4.2805047 0.84856004 -1.8715312 6.7437415 -1.585882 -2.352584 5.3731265 5.1993465
-2.2949512 -0.38993767 -2.6126993 -1.7583504 4.625835 4.8699913 -2.9656212 -0.8541093
-2.5696537 -2.2454352 5.733181 4.767904 -3.0473762 -0.038222328 4.3708997 -1.8422692
0.3279861 -2.4738045 -2.3009236 4.667517 5.138878 -2.234619 -0.096583426 -1.841637
-2.4168334 4.394362 -1.7589917 -2.463629 5.913197 -0.22990078 -1.909159 6.732881
-0.810559 -2.0732448 6.31844 4.2557955 -1.5765216 0.3686296 -2.4656959 -2.7006333
5.300154 -2.1007414 -2.4328146 4.8057766 -0.046861142 -2.1717942 6.2171245 -2.3940206
-1.6524523 5.810048 4.9653993 -2.2392435 0.10101418 4.169541 0.7353062 -0.54698884
5.2138968 -2.654814 -0.7480096 5.053852 -2.9045076 -0.07587234 4.5608454 -0.6866863
-0.25560772 4.993467 -2.1686738 -0.032920722 4.0769377 1.0347755 -0.6214405 3.979269
0.9974963 -0.55180746 4.9113264 -2.2574935 0.19856997 5.134462 -2.9437697 -0.49321124
-0.031671714 5.2078185 -0.8765462 -0.16584112 5.351486 -0.92622566 0.13235708 5.1726985
-0.90233225 -0.24403156 5.643366 -1.1901331 -0.69907093 5.8012724 -1.311974 0.06037906
5.4148355 -1.0736026 0.21128586 5.0852547 -0.8736729 0.3744556 4.973253 -0.9009135
0.7438236 4.6901045 -0.88802165 0.79043865 4.4089985 -0.68934244
00000000: 4980 9040 6149 2fc0 8c41 c53f 1ad7 30c0
00000010: f439 06c0 c965 b340 0aae 11c0 b7b3 55bf
00000020: bf95 cb40 9935 9b40 17cd 3ec0 d9e0 cebe
00000030: bb9d 8ebf a4b6 09c0 2fa9 c640 197d 04c0
00000040: 5dcc 24c0 306c b340 dfc2 9f40 db78 10c0
00000050: d732 04be 8ee0 e73f 244c 3ec0 c6e5 6740
00000060: 0162 cebf ba4c 19c0 3af1 c240 c5e6 debf
00000070: 5075 fabf d587 7e40 2902 0b40 1810 3fc0
00000080: e5f9 8840 3b3b 593f 568e efbf bbcc d740
00000090: 2efe cabf bc90 16c0 a7f0 ab40 0c61 a640
000000a0: 7be0 12c0 e9a5 c7be 7736 27c0 a011 e1bf
000000b0: d706 9440 f8d6 9b40 bdcc 3dc0 e8a6 5abf
000000c0: 3575 24c0 36b5 0fc0 3876 b740 ab92 9840
000000d0: 3608 43c0 048f 1cbd 69de 8b40 7acf ebbf
000000e0: cbed a73e d052 1ec0 5542 13c0 4d5c 9540
000000f0: b071 a440 ff03 0fc0 88cd c5bd c3ba ebbf
00000100: 66ad 1ac0 9d9e 8c40 a426 e1bf 19ac 1dc0
00000110: e938 bd40 1c6b 6bbe 525f f4bf c373 d740
00000120: cb80 4fbf 0bb0 04c0 a930 ca40 7a2f 8840
00000130: 76cb c9bf 05bd bc3e f6cd 1dc0 2dd7 2cc0
00000140: dd9a a940 8c72 06c0 3cb3 1bc0 ecc8 9940
00000150: 78f1 3fbd adfe 0ac0 aff2 c640 a237 19c0
00000160: 8f83 d3bf eaeb b940 8de4 9e40 c44f 0fc0
00000170: 86e0 ce3d e16c 8540 073d 3c3f 7607 0cbf
00000180: 3ed8 a640 79e8 29c0 8f7d 3fbf 28b9 a140
00000190: 74e3 39c0 f562 9bbd 72f2 9140 acca 2fbf
000001a0: 04df 82be 7bca 9f40 8dcb 0ac0 e1d7 06bd
000001b0: 4676 8240 8673 843f b916 1fbf 58ac 7e40
000001c0: eb5b 7f3f 4143 0dbf 9629 9d40 c67a 10c0
000001d0: ed55 4b3e 834d a440 b966 3cc0 2f86 fcbe
000001e0: 33ba 01bd 73a6 a640 5565 60bf 41d2 29be
000001f0: 603f ab40 201d 6dbf 9d88 073e bf86 a540
00000200: 3fff 66bf 69e3 79be 7496 b440 4856 98bf
00000210: 50f6 32bf 06a4 b940 c4ee a7bf 0950 773d
00000220: 5546 ad40 cf6b 89bf 525b 583e 68ba a240
00000230: 07a9 5fbf a5b8 bf3e e324 9f40 44a2 66bf
00000240: 396b 3e3f 5615 9640 6355 63bf 305a 4a3f
00000250: 8416 8d40 bf78 30bf

decoder.sigma f4 [50]
-2.211416 -2.2013996 -2.2514186 -2.1894999 -2.1871135 -2.2655618 -2.2165914 -2.1935103
-2.1633387 -2.2418907 -2.269774 -2.1851277 -2.129622 -2.2505991 -2.2254002 -2.1699293
-2.2367704 -2.1851168 -2.242106 -2.274986 -2.227298 -2.2435782 -2.282139 -2.2553988
-2.1951852 -2.2288413 -2.2969098 -2.1707666 -2.2934785 -2.201843 -2.212234 -2.2792938
-2.25955 -2.2219844 -2.2362907 -2.291694 -2.244352 -2.233016 -2.255913 -2.2772741
-2.2622828 -2.2161252 -2.272295 -2.2021353 -2.2685373 -2.2438116 -2.206264 -2.2414272
-2.3393044 -2.2722282
00000000: d787 0dc0 bbe3 0cc0 3e17 10c0 c420 0cc0
00000010: abf9 0bc0 f7fe 10c0 a2dc 0dc0 7962 0cc0
00000020: 2474 0ac0 237b 0fc0 fa43 11c0 22d9 0bc0
00000030: ba4b 08c0 d109 10c0 f56c 0ec0 1fe0 0ac0
00000040: 3f27 0fc0 f4d8 0bc0 aa7e 0fc0 5f99 11c0
00000050: 0d8c 0ec0 c996 0fc0 910e 12c0 7458 10c0
00000060: ea7d 0cc0 56a5 0ec0 9200 13c0 d7ed 0ac0
00000070: 5ac8 12c0 ffea 0cc0 3e95 0dc0 f3df 11c0
00000080: 789c 10c0 fe34 0ec0 631f 0fc0 1dab 12c0
00000090: 77a3 0fc0 bce9 0ec0 e160 10c0 dcbe 11c0
000000a0: 3ec9 10c0 ffd4 0dc0 486d 11c0 c9ef 0cc0
000000b0: b72f 11c0 9c9a 0fc0 6e33 0dc0 8b73 0fc0
000000c0: 2ab7 15c0 306c 11c0

decoder.zi f4 [50, 1]
1.0988936 -0.4770651 -0.8523398 1.1545484 0.4763226 0.22620152 1.0671676 0.98130846
0.11204954 -0.19255653 1.1270504 0.9080297 0.3318123 1.0916613 -0.6661458 1.1475648
-0.55207366 1.2139571 1.009659 -0.36943614 1.1839873 -0.009752321 0.39372173 0.69092935
0.61182415 1.0452712 -0.26294 -0.026553512 0.7772249 -0.7172223 0.907946 0.08756001
0.9187671 1.1825086 0.59317154 0.96466 0.06947751 0.009492228 1.0922081 1.1398832
-0.024252655 -0.025621263 -0.055895694 -0.047309514 -0.06840855 -0.028866965 -0.074980594 0.0019888794
-0.021343345 -0.05042326
00000000: 8ca8 8c3f e041 f4be f132 5abf 3ec8 933f
00000010: 8ee0 f33e 5fa1 673e f398 883f 0837 7b3f
00000020: 3b7a e53d 8a2d 45be 3043 903f a274 683f
00000030: 4de3 a93e 8fbb 8b3f 8888 2abf 67e3 923f
00000040: b354 0dbf f262 9b3f 823c 813f bc26 bdbe
00000050: e58c 973f 33c8 1fbc e595 c93e bfe0 303f
00000060: 82a0 1c3f 72cb 853f 12a0 86be c086 d9bc
00000070: 36f8 463f e19b 37bf 266f 683f aa52 b33d
00000080: 5234 6b3f 715c 973f 17da 173f f5f3 763f
00000090: 3a4a 8e3d 4a85 1b3c 7acd 8b3f b1e7 913f
000000a0: 81ad c6bc afe3 d1bc e2f2 64bd 9fc7 41bd
000000b0: c819 8cbd 6a7a ecbc 6d8f 99bd dc57 023b
000000c0: 3dd8 aebc 9f88 4ebd

decoder.z0 f4 [50, 1]
-0.040965606 -0.2924467 -0.13508673 0.2111284 -0.13285941 0.18607682 -0.32572985 0.22283697
0.01040427 -0.101148 -0.18569636 0.06733346 -0.22947493 -0.2713148 -0.2953811 0.2221198
0.11270811 -0.2962076 0.220714 0.33228737 0.05120534 -0.118088536 -0.07003459 -0.16816114
0.29099166 -0.17500268 0.093514495 -0.10629287 0.09326087 0.06935118 -0.33579764 -0.2786928
-0.28692278 0.25444236 0.1299109 -0.063101545 0.1193396 -0.20238031 -0.004851905 -0.051299136
-0.2697298 -0.23959915 -0.2492693 -0.3198923 -0.2968303 0.31595173 0.060746454 0.13489124
0.008816572 0.022009434
00000000: 8dcb 27bd 93bb 95be 2d54 0abe 0b32 583e
00000010: 4c0c 08be ec8a 3e3e 10c6 a6be 602f 643e
00000020: ac76 2a3c af26 cfbd 3027 3ebe 20e6 893d
00000030: 7afb 6abe c6e9 8abe 313c 97be 5f73 633e
00000040: 82d3 e63d 86a8 97be da02 623e 9221 aa3e
00000050: b1bc 513d 67d8 f1bd 4c6e 8fbd 6f32 2cbe
00000060: dcfc 943e e733 33be 8784 bf3d 14b0 d9bd
00000070: 8eff be3d fe07 8e3d abed abbe d3b0 8ebe
00000080: 8be7 92be 4546 823e 5d07 053e 623b 81bd
00000090: 5268 f43d c93c 4fbe bbfc 9ebb 0b1f 52bd
000000a0: 061a 8abe 7b59 75be 7440 7fbe ecc8 a3be
000000b0: 24fa 97be 6dc4 a13e 46d1 783d ee20 0a3e
000000c0: 6273 103c 214d b43c

decoder.x0 f4 [1, 50]
0.34710366 0.9013823 0.73231846 0.42222622 0.65391934 0.5649913 0.18788658 0.29899755
0.82572335 0.23824586 0.30595773 0.64579946 0.43527332 0.20178474 0.35416096 0.4363134
0.6518824 0.55358 0.16950321 0.38020295 0.2898703 0.30640703 0.6245969 0.7774631
0.68219614 0.12663496 0.5051764 0.33670643 0.45593914 0.6180454 0.22618158 0.030823931
0.3145365 0.54311913 0.100750655 0.20988747 0.03268042 0.031744644 0.32561263 0.5426768
-0.10937194 -0.24921481 -0.16777024 -0.41359478 -0.44749743 -0.21424374 -0.13201328 -0.098409764
-0.059279665 -0.058594674
00000000: 92b7 b13e fec0 663f 3979 3b3f 092e d83e
00000010: 4267 273f 45a3 103f 5765 403e 3516 993e
00000020: 9b62 533f b9f6 733e 7ea6 9c3e 1d53 253f
00000030: 25dc de3e a9a0 4e3e 9654 b53e 7864 df3e
00000040: c4e1 263f 6bb7 0d3f 4092 2d3e f6a9 c23e
00000050: e169 943e 62e1 9c3e 95e5 1f3f d207 473f
00000060: 68a4 2e3f 98ac 013e 3e53 013f c964 ac3e
00000070: db70 e93e 3938 1e3f 259c 673e 7882 fc3c
00000080: ee0a a13e db09 0b3f 5c56 ce3d beec 563e
00000090: e7db 053d ac06 023d b3b6 a63e deec 0a3f
000000a0: 65fe dfbd 2b32 7fbe f6cb 2bbe b2c2 d3be
000000b0: 621e e5be b662 5bbe 7d2e 07be 0f8b c9bd
000000c0: 3ccf 72bd f800 70bd

decoder.linear1.weight f4 [64, 1]
0.082114995 0.06259162 0.057131507 0.053293526 -0.06674194 1.1082468 1.7166708 -0.055978313
-0.06900424 -0.91017604 -0.0921189 0.05997377 -0.060651574 0.083470926 0.3070019 -0.36403134
-0.113261 0.06133216 0.09707008 0.06259425 -0.076891355 0.3504155 -0.63583165 0.13706341
0.11678797 -1.0142138 1.2214328 0.14285186 -4.092286 0.058836445 1.5682179 0.06706023
1.7406509 -0.12634012 0.7997905 1.5915112 -0.092568874 -1.2957656 0.07561099 0.076454714
0.067184046 -0.028353551 0.06841722 -0.3391485 -0.14244823 -0.08092542 -0.18983568 -0.013340909
0.5860845 -0.09678839 -0.08332504 -5.179916 0.21067433 0.08483024 0.61383355 -1.4443018
0.4765478 -0.8238586 0.11585238 -0.14392653 -0.18215 -0.06451835 0.07231374 0.064682655
00000000: e82b a83d 0930 803d ba02 6a3d 504a 5a3d
00000010: 00b0 88bd 08db 8d3f debb db3f 8449 65bd
00000020: 1852 8dbd 4c01 69bf d5a8 bcbd 0ea7 753d
00000030: c96d 78bd cef2 aa3d 5a2f 9d3e 5162 babe
00000040: 62f5 e7bd 6e37 7b3d aecc c63d 6a31 803d
00000050: 3779 9dbd a969 b33e ddc5 22bf 5a5a 0c3e
00000060: 882e ef3d c2d1 81bf e957 9c3f c247 123e
00000070: 02f4 82c0 7cfe 703d 5dbb c83f e056 893d
00000080: a6cd de3f 4e5f 01be 12bf 4c3f a4b6 cb3f
00000090: c094 bdbd a6db a5bf efd9 9a3d 4a94 9c3d
000000a0: ca97 893d b545 e8bc 541e 8c3d dfa4 adbe
000000b0: f3dd 11be 3abc a5bd 4964 42be d493 5abc
000000c0: a209 163f fe38 c6bd 52a6 aabd dfc1 a5c0
000000d0: 03bb 573e 7abb ad3d 3224 1d3f e2de b8bf
000000e0: 13fe f33e 66e8 52bf 0344 ed3d 7a61 13be
000000f0: 8885 3abe 3222 84bd 3a19 943d 5778 843d

decoder.linear1.bias f4 [64]
-0.36437675 -0.5253628 -0.53010726 -0.46250924 0.5029614 -0.54598635 1.0168393 0.51223695
0.53555256 -0.3149873 0.030658003 -0.5165998 0.5185163 -0.40868208 -0.18863787 0.1955857
0.2650408 -0.5166029 -0.3032088 -0.4483503 0.37640217 0.02225416 -0.14507012 -0.0371458
-0.037395053 0.58808804 -0.76068276 -0.24415399 0.051383622 -0.48558912 -1.0043513 -0.027620373
1.1264502 0.03498083 -0.38357148 0.99200404 0.033586796 0.7412144 -0.47736433 -0.3926229
-0.42814398 0.55348533 -0.40361613 0.15550481 0.036461256 0.38328418 0.21895212 -0.27815142
-0.2585393 0.38106486 0.37104812 -0.00829063 -0.16234691 -0.35082874 0.22441238 0.87838316
-0.2313913 -0.23487528 -0.28667417 0.11207361 0.042561136 0.49673966 -0.5005744 -0.45322496
00000000: 978f babe 2d7e 06bf 1cb5 07bf 03ce ecbe
00000010: 14c2 003f c3c5 0bbf ca27 823f f621 033f
00000020: f919 093f 0446 a1be 7e26 fb3c e23f 04bf
00000030: 7cbd 043f c73e d1be 492a 41be 9e47 483e
00000040: 6eb3 873e 1640 04bf 2f3e 9bbe 2c8e e5be
00000050: c9b7 c03e 5b4e b63c 438d 14be 3226 18bd
00000060: 8e2b 19bd f08c 163f 1bbc 42bf 8103 7abe
00000070: a277 523d 239f f8be 958e 80bf 1f44 e2bc
00000080: 852f 903f 0f48 0f3d 7b63 c4be faf3 7d3f
00000090: 4f92 093d 3ac0 3d3f 1969 f4be de05 c9be
000000a0: b035 dbbe 37b1 0d3f c6a6 cebe a73c 1f3e
000000b0: 6658 153d d33d c43e fc34 603e dd69 8ebe
000000c0: 435f 84be ef1a c33e 05fa bd3e 6cd5 07bc
000000d0: 453e 26be d39f b3be 5ccc 653e b8dd 603f
000000e0: d7f1 6cbe 2583 70be f5c6 92be d986 e53d
000000f0: 9654 2e3d a954 fe3e a525 00bf 1a0d e8be

decoder.linear2.weight f4 [150, 64]
0.24635583 0.2669724 0.26608235 0.15339914 -0.14836417 -0.31151596 0.14762092 -0.22572549
-0.23924872 -0.12905477 0.012821592 0.28234464 -0.32439503 0.2200768 -0.13170457 0.043313976
-0.20113772 0.24196306 0.09086833 0.10554545 -0.23221573 -0.037892967 -0.028641121 -0.03143682
0.00753016 0.3085602 -0.38581267 0.07069231 -0.4557444 0.27878913 -0.5860469 0.045139093
0.43155378 0.05241315 -0.36582193 0.29244593 0.023861961 0.3184068 0.19603303 0.2540115
0.24755314 -0.3668302 0.11703043 0.18874554 0.05026877 -0.26124737 -0.056735694 0.23449269
-0.23782142 -0.089671075 -0.16532853 -0.59875584 0.061693475 0.28746748 0.02532879 0.59747
-0.16947368 -0.24956849 0.13354936 -0.13537048 0.04411428 -0.244518 0.2300589 0.2569276
0.21977766 0.5850781 0.25184166 0.12004335 -0.72933316 0.21291707 -1.0371548 -0.13309857
-0.55780584 0.63979864 0.35874867 0.39684793 -0.4568765 0.08060244 0.14778802 -0.05676282
-0.11096936 0.6469235 0.16314858 0.30966675 -0.2762382 -0.38596728 0.24606669 -0.2678849
-0.27662346 -0.17442809 -0.008741198 0.17728032 0.32178676 0.25114304 0.24145131 -0.12055913
-1.0214579 0.02079008 0.04812662 -0.9296574 0.33634436 -0.1792118 0.53477937 0.6263119
0.20499772 -0.23278876 0.37555182 -0.04711702 0.42968744 -0.12856261 -0.097217984 0.44546753
0.0944234 -0.26237142 -0.09120479 0.33071744 0.10699413 0.33588156 -0.78862935 -0.004646737
-0.03669205 0.48096982 0.17737417 0.19151036 0.44245526 -0.2110552 0.30799654 0.1827536
0.33436066 0.4828161 0.50538176 0.30967999 -0.6332344 0.23370388 -0.54558825 -0.2986224
-0.61995715 0.27628472 0.18708006 0.34353262 -0.6110027 0.37223914 0.3117579 -0.13974969
-0.14177386 0.63669163 0.2908553 0.35190955 -0.4672692 -0.18951987 0.006005664 0.048679188
-0.17934762 -0.26452827 0.18169697 0.3090634 0.24044307 0.300349 0.108920015 -0.14701223
-0.49468333 -0.054986916 0.23874676 -0.26806375 0.26041535 -0.2930631 0.5272519 0.5216146
0.34290066 -0.23408975 0.55903554 -0.23112884 0.1329702 -0.44665968 -0.19235235 0.4340687
0.32938966 -0.24860215 -0.19667724 0.17949165 0.26158753 0.5425941 -0.48530692 -0.04009029
0.20107895 0.12107096 0.20784459 -0.030224392 0.12052896 -0.35598743 0.4295497 0.43640307
0.21912508 0.06746526 0.21727343 0.13236304 -0.009111858 -0.11541123 0.345143 -0.09036611
-0.15326263 -0.37132356 -0.091947325 0.1507543 -0.072462216 0.23389703 0.031006673 -0.06596001
-0.17874713 0.21508455 0.21293922 0.15746441 -0.16715941 0.06889726 -0.21591642 -0.050097965
-0.015790643 0.16671228 -0.22192812 0.1398814 -0.0014665548 0.10780019 -0.19323224 0.046152897
0.49761096 0.038823526 -0.12216925 0.43035424 -0.025845077 0.12328184 0.02177957 -0.010423186
0.22074296 -0.29381084 -0.019425614 -0.06754698 -0.024819687 -0.21004786 -0.020478219 -0.0010560255
0.05704349 -0.121854745 -0.056260895 0.08762171 -0.056066178 0.16490905 0.11556118 0.14368437
-0.030833378 -0.14365235 0.06748341 -0.11629034 -0.14701407 -0.10960181 0.026831655 0.16218817
00000000: b444 7c3e 9bb0 883e f23b 883e aa14 1d3e
00000010: c7ec 17be 057f 9fbe f029 173e 9524 67be
00000020: 9efd 74be ef26 04be a811 523c 7a8f 903e
00000030: 1b17 a6be d05b 613e 90dd 06be ff69 313d
00000040: 0cf7 4dbe 2ac5 773e 2d19 ba3d 3628 d83d
00000050: f6c9 6dbe a835 1bbd c9a0 eabc e5c3 00bd
00000060: 8fbf f63b 9afb 9d3e 3d89 c5be 21c7 903d
00000070: 5457 e9be 73bd 8e3e 2b07 16bf c5e3 383d
00000080: 9ef4 dc3e 2caf 563d 034d bbbe 79bb 953e
00000090: 297a c33c 3706 a33e e2bc 483e cc0d 823e
000000a0: 927e 7d3e 2bd1 bbbe a6ad ef3d 8346 413e
000000b0: a0e6 4d3d 37c2 85be b063 68bd da1e 703e
000000c0: 7587 73be 78a5 b7bd e24b 29be 1048 19bf
000000d0: 4cb2 7c3d f02e 933e 537e cf3c cbf3 183f
000000e0: 828a 2dbe e28e 7fbe 2ac1 083e 8f9e 0abe
000000f0: 2db1 343d ed62 7abe 8f94 6b3e 048c 833e
00000100: 650d 613e aec7 153f 64f1 803e 4ad9 f53d
00000110: 94b5 3abf ef06 5a3e 7dc1 84bf fe4a 08be
00000120: 5dcc 0ebf d8c9 233f e8ad b73e a72f cb3e
00000130: b7eb e9be e412 a53d be55 173e 2180 68bd
00000140: e743 e3bd c79c 253f 6c10 273e a48c 9e3e
00000150: 186f 8dbe 819d c5be e8f8 7b3e 3628 89be
00000160: 97a1 8dbe 479d 32be 3e37 0fbc f988 353e
00000170: 3cc1 a43e d295 803e 033f 773e b5e7 f6bd
00000180: 22bf 82bf f54f aa3c 6b20 453d 07fe 6dbf
00000190: 5435 ac3e 4c83 37be 4de7 083f fa55 203f
000001a0: ecea 513e 2d60 6ebe 5448 c03e c7fd 40bd
000001b0: feff db3e eba5 03be 391a c7bd 5214 e43e
000001c0: 0e61 c13d 8c55 86be 94c9 babd cc53 a93e
000001d0: bd1f db3d abf8 ab3e 9de3 49bf a843 98bb
000001e0: 674a 16bd ad41 f63e 93a1 353e 4b1b 443e
000001f0: 7f89 e23e db1e 58be b9b1 9d3e c223 3b3e
00000200: 5231 ab3e ac33 f73e b360 013f 608e 9e3e
00000210: a61b 22bf 1250 6f3e acab 0bbf 09e5 98be
00000220: 83b5 1ebf 3175 8d3e ea91 3f3e 82e3 af3e
00000230: ac6a 1cbf 2196 be3e bb9e 9f3e 8b1a 0fbe
00000240: 2b2d 11be 39fe 223f fcea 943e 7d2d b43e
00000250: e93d efbe 7f11 42be 29cb c43b d463 473d
00000260: e7a6 37be 4070 87be c50e 3a3e 8f3d 9e3e
00000270: b536 763e 58c7 993e 7511 df3d 608a 16be
00000280: 2247 fdbe f639 61bd 087a 743e a73f 89be
00000290: 2955 853e 5e0c 96be fbf9 063f 8988 053f
000002a0: ad90 af3e 39b5 6fbe f41c 0f3f 0aad 6cbe
000002b0: 5729 083e 94b0 e4be 04f8 44be 413e de3e
000002c0: c3a5 a83e 9091 7ebe c265 49be a9cc 373e
000002d0: cdee 853e 72e7 0a3f 267a f8be b735 24bd
000002e0: a4e7 4d3e 0df4 f73d 36d5 543e 2599 f7bc
000002f0: e3d7 f63d fc43 b6be f0ed db3e 3970 df3e
00000300: 5362 603e 3a2b 8a3d ed7c 5e3e 2d8a 073e
00000310: e749 15bc b95c ecbd 95b6 b03e de11 b9bd
00000320: e1f0 1cbe 1f1e bebe e14e bcbd 565f 1a3e
00000330: 1267 94bd b482 6f3e b501 fe3c 0b16 87bd
00000340: 7d09 37be 203f 5c3e bd0c 5a3e 5a3e 213e
00000350: d62b 2bbe 021a 8d3d 3219 5dbe 8633 4dbd
00000360: 615b 81bc a0b6 2a3e 2041 63be 123d 0f3e
00000370: 6a39 c0ba 59c6 dc3d acde 45be d20a 3d3d
00000380: ddc6 fe3e 6b05 1f3d df33 fabd 6457 dc3e
00000390: 0eb9 d3bc 307b fc3d 126b b23c 03c6 2abc
000003a0: 710a 623e 606e 96be 7722 9fbc 1256 8abd
000003b0: a852 cbbc c916 57be f0c1 a7bc 566a 8aba
000003c0: 6fa6 693d fb8e f9bd d371 66bd 0373 b33d
000003d0: a6a5 65bd ebdd 283e 57ab ec3d ff21 133e
000003e0: 4896 fcbc 9a19 13be be34 8a3d a129 eebd
000003f0: db8a 16be ea76 e0bd 0fce db3c a814 263e

decoder.linear2.bias f4 [150]
-0.24200636 -0.1952905 -0.15605572 -0.16488536 -0.11258077 -0.10425617 -0.14103428 -0.2874671
-0.13627067 -0.16212812 -0.25707272 -0.14917664 -0.105081655 -0.1337899 -0.15087833 -0.12590028
-0.15590796 -0.16104193 -0.183082 -0.13671264 -0.14346547 -0.13147251 -0.09729224 -0.1327542
-0.12014524 -0.21004197 -0.16434866 -0.13583958 -0.15640214 -0.1562806 -0.14498933 -0.16756232
-0.10921862 -0.12704986 -0.15560332 -0.09436156 -0.1304198 -0.1302946 -0.10254872 -0.13374548
-0.13583581 -0.19349761 -0.17285623 -0.18398786 -0.19832376 -0.14467072 -0.15495539 -0.17253442
-0.14319326 -0.15285121 -0.19145666 -0.07789915 -0.1336553 -0.19517572 -0.17849353 -0.15536381
-0.16328903 -0.20118313 -0.15293314 -0.12769943 -0.1586878 -0.20319964 -0.15462865 -0.16324568
-0.11956024 -0.190103 -0.082889795 -0.21738182 -0.18065321 -0.099484526 -0.22719957 -0.12338645
-0.17547385 -0.21559164 -0.1986537 -0.15368369 -0.102739334 -0.11428486 -0.16607913 -0.09827985
-0.15464565 -0.14222616 -0.17068088 -0.1779802 -0.13557655 -0.14283425 -0.1350121 -0.17631671
-0.18223213 -0.17401037 -0.14140044 -0.11971405 -0.13776161 -0.099309616 -0.11595057 -0.14611195
-0.16315562 -0.13838644 -0.14096956 -0.15041384 -0.083398744 -0.29261392 -0.3661248 -0.067093804
-0.26902986 -0.34596765 0.031235045 -0.07745228 -0.32135743 -0.25795835 -0.058345437 -0.1542164
-0.33525884 0.07289712 -0.23596646 -0.061635017 -0.30305365 -0.097173706 -0.0499013 -0.393894
0.04448763 -0.23100162 -0.227779 -0.1267361 -0.14711311 0.054385923 -0.22863449 -0.1457868
-0.21234778 -0.33712253 -0.08031594 0.836372 -0.13668269 -0.26462322 0.23505053 -0.07646784
0.79321593 0.8419969 -0.1064569 -0.25812 0.83541477 0.7945144 0.8276976 0.7464409
0.7145092 0.81349415 0.8135324 0.7994827 0.8865601 0.8970022
00000000: 84d0 77be 3cfa 47be 12cd 1fbe b5d7 28be
00000010: bf90 e6bd 4284 d5bd 4a6b 10be e32e 93be
00000020: 8a8a 0bbe ea04 26be 099f 83be c3c1 18be
00000030: 0d35 d7bd 3800 09be d97f 1abe 01ec 00be
00000040: 56a6 1fbe 2de8 24be d979 3bbe 66fe 0bbe
00000050: 9de8 12be bba0 06be 2741 c7bd b8f0 07be
00000060: b50e f6bd 3e15 57be 044b 28be 8819 0bbe
00000070: e227 20be 0608 20be 1578 14be 7595 2bbe
00000080: 03ae dfbd 5c19 02be 7a56 1fbe a240 c1bd
00000090: c58c 05be f36b 05be 1005 d2bd 93f4 08be
000000a0: 8b18 0bbe 3d24 46be 3901 31be 5067 3cbe
000000b0: 6215 4bbe 9024 14be a0ac 1ebe ddac 30be
000000c0: 41a1 12be 0785 1cbe 370d 44be 9789 9fbd
000000d0: efdc 08be 25dc 47be 02c7 36be b117 1fbe
000000e0: 3d35 27be f302 4ebe 819a 1cbe a4c3 02be
000000f0: 0e7f 22be 9113 50be f956 1ebe e029 27be
00000100: 00dc f4bd 5caa 42be 20c2 a9bd 5799 5ebe
00000110: 28fd 38be 8bbe cbbd 01a7 68be 09b2 fcbd
00000120: 6baf 33be 0ec4 5cbe e06b 4bbe 425f 1dbe
00000130: 0069 d2bd 2e0e eabd a610 2abe f246 c9bd
00000140: 6e5b 1ebe bca3 11be f8c6 2ebe 7140 36be
00000150: 94d4 0abe 2443 12be 9d40 0abe 5e8c 34be
00000160: 0f9b 3abe c62f 32be 47cb 10be a42c f5bd
00000170: 6111 0dbe d762 cbbd 7e77 edbd 5f9e 15be
00000180: 4412 27be 2db5 0dbe 535a 10be 1606 1abe
00000190: f6cc aabd 7ed1 95be b674 bbbe 7a68 89bd
000001a0: 48be 89be ac22 b1be a3e0 ff3c 4d9f 9ebd
000001b0: f688 a4be 1e13 84be a0fb 6ebd e7ea 1dbe
000001c0: 0ca7 abbe 164b 953d 31a1 71be 0075 7cbd
000001d0: d929 9bbe 0203 c7bd 4e65 4cbd 79ac c9be
000001e0: a938 363d b08b 6cbe e63e 69be 1cc7 01be
000001f0: d2a4 16be c6c3 5e3d 291f 6abe 2349 15be
00000200: b271 59be 539b acbe af7c a4bd 7a1c 563f
00000210: 8cf6 0bbe b27c 87be 16b1 703e 2c9b 9cbd
00000220: 3310 4b3f 1c8d 573f 1306 dabd 4e28 84be
00000230: bedd 553f 4c65 4b3f fde3 533f c016 3f3f
00000240: 13ea 363f 2741 503f a943 503f e6aa 4c3f
00000250: 9af5 623f f0a1 653f

decoder.network.0.weight f4 [64, 1]
0.082114995 0.06259162 0.057131507 0.053293526 -0.06674194 1.1082468 1.7166708 -0.055978313
-0.06900424 -0.91017604 -0.0921189 0.05997377 -0.060651574 0.083470926 0.3070019 -0.36403134
-0.113261 0.06133216 0.09707008 0.06259425 -0.076891355 0.3504155 -0.63583165 0.13706341
0.11678797 -1.0142138 1.2214328 0.14285186 -4.092286 0.058836445 1.5682179 0.06706023
1.7406509 -0.12634012 0.7997905 1.5915112 -0.092568874 -1.2957656 0.07561099 0.076454714
0.067184046 -0.028353551 0.06841722 -0.3391485 -0.14244823 -0.08092542 -0.18983568 -0.013340909
0.5860845 -0.09678839 -0.08332504 -5.179916 0.21067433 0.08483024 0.61383355 -1.4443018
0.4765478 -0.8238586 0.11585238 -0.14392653 -0.18215 -0.06451835 0.07231374 0.064682655
00000000: e82b a83d 0930 803d ba02 6a3d 504a 5a3d
00000010: 00b0 88bd 08db 8d3f debb db3f 8449 65bd
00000020: 1852 8dbd 4c01 69bf d5a8 bcbd 0ea7 753d
00000030: c96d 78bd cef2 aa3d 5a2f 9d3e 5162 babe
00000040: 62f5 e7bd 6e37 7b3d aecc c63d 6a31 803d
00000050: 3779 9dbd a969 b33e ddc5 22bf 5a5a 0c3e
00000060: 882e ef3d c2d1 81bf e957 9c3f c247 123e
00000070: 02f4 82c0 7cfe 703d 5dbb c83f e056 893d
00000080: a6cd de3f 4e5f 01be 12bf 4c3f a4b6 cb3f
00000090: c094 bdbd a6db a5bf efd9 9a3d 4a94 9c3d
000000a0: ca97 893d b545 e8bc 541e 8c3d dfa4 adbe
000000b0: f3dd 11be 3abc a5bd 4964 42be d493 5abc
000000c0: a209 163f fe38 c6bd 52a6 aabd dfc1 a5c0
000000d0: 03bb 573e 7abb ad3d 3224 1d3f e2de b8bf
000000e0: 13fe f33e 66e8 52bf 0344 ed3d 7a61 13be
000000f0: 8885 3abe 3222 84bd 3a19 943d 5778 843d

decoder.network.0.bias f4 [64]
-0.36437675 -0.5253628 -0.53010726 -0.46250924 0.5029614 -0.54598635 1.0168393 0.51223695
0.53555256 -0.3149873 0.030658003 -0.5165998 0.5185163 -0.40868208 -0.18863787 0.1955857
0.2650408 -0.5166029 -0.3032088 -0.4483503 0.37640217 0.02225416 -0.14507012 -0.0371458
-0.037395053 0.58808804 -0.76068276 -0.24415399 0.051383622 -0.48558912 -1.0043513 -0.027620373
1.1264502 0.03498083 -0.38357148 0.99200404 0.033586796 0.7412144 -0.47736433 -0.3926229
-0.42814398 0.55348533 -0.40361613 0.15550481 0.036461256 0.38328418 0.21895212 -0.27815142
-0.2585393 0.38106486 0.37104812 -0.00829063 -0.16234691 -0.35082874 0.22441238 0.87838316
-0.2313913 -0.23487528 -0.28667417 0.11207361 0.042561136 0.49673966 -0.5005744 -0.45322496
00000000: 978f babe 2d7e 06bf 1cb5 07bf 03ce ecbe
00000010: 14c2 003f c3c5 0bbf ca27 823f f621 033f
00000020: f919 093f 0446 a1be 7e26 fb3c e23f 04bf
00000030: 7cbd 043f c73e d1be 492a 41be 9e47 483e
00000040: 6eb3 873e 1640 04bf 2f3e 9bbe 2c8e e5be
00000050: c9b7 c03e 5b4e b63c 438d 14be 3226 18bd
00000060: 8e2b 19bd f08c 163f 1bbc 42bf 8103 7abe
00000070: a277 523d 239f f8be 958e 80bf 1f44 e2bc
00000080: 852f 903f 0f48 0f3d 7b63 c4be faf3 7d3f
00000090: 4f92 093d 3ac0 3d3f 1969 f4be de05 c9be
000000a0: b035 dbbe 37b1 0d3f c6a6 cebe a73c 1f3e
000000b0: 6658 153d d33d c43e fc34 603e dd69 8ebe
000000c0: 435f 84be ef1a c33e 05fa bd3e 6cd5 07bc
000000d0: 453e 26be d39f b3be 5ccc 653e b8dd 603f
000000e0: d7f1 6cbe 2583 70be f5c6 92be d986 e53d
000000f0: 9654 2e3d a954 fe3e a525 00bf 1a0d e8be
